Config/NeuralNets/PlayersDeeptector/players_deeptector.onnx (onnx, 128256 bytes, 84 tensors)

model_1/conv2d_9/Conv2D/ReadVariableOp:0 f4 [24, 24, 1, 1]
0	0x3f45e97a	0.7730938
1	0x3e0cdd26	0.13756236
2	0x3e03ebd2	0.12882927
3	0xbe6b76e4	-0.22994572
4	0x3d815c69	0.06316454
5	0x3e0e79e2	0.13913682
6	0x3e7b250a	0.24525848
7	0xbca883da	-0.020570684
8	0xbee94a88	-0.45564675
9	0xbf450567	-0.7696137
10	0x3c343d36	0.011000922
11	0x3e384bb1	0.17997624
12	0xbeaa1bbf	-0.33224294
13	0xbe8d600d	-0.27612343
14	0xbe37fc0b	-0.1796724
15	0x3f35f1e4	0.7107222
16	0x3c976458	0.018480465
17	0xbcea01ae	-0.028565254
18	0xbe80cd61	-0.25156692
19	0x3e3f672e	0.18691704
20	0x3e73a27d	0.23792453
21	0xbe242ee6	-0.16033515
22	0x3ec3a18e	0.38209194
23	0xbe5d9e24	-0.21642357
24	0xbe7a321b	-0.24433176
25	0x3e1c92b0	0.15290332
26	0xbe707792	-0.23483112
27	0x3cd49e53	0.025954401
28	0xbc2f1bcc	-0.01068778
29	0xbf033285	-0.5124896
30	0x3f746b2d	0.9547604
31	0x3e96d426	0.2945873
32	0x3f1e48dc	0.61829925
33	0x3e5bda70	0.21470046
34	0x3d80ec10	0.06295025
35	0xbeca5515	-0.39518037
36	0x3dab8ea2	0.083768144
37	0xbf0dd58f	-0.5540399
38	0x3f142b57	0.5787863
39	0x3f23e53b	0.6402165
40	0x3ef06032	0.4694839
41	0x3e128cb1	0.14311482
42	0xbf219495	-0.63117343
43	0x3ea3b7f6	0.3197629
44	0xbd2fd225	-0.04292502
45	0x3f0ba4db	0.54548424
46	0xbf0678e9	-0.52528244
47	0x3d192632	0.03738994
48	0xbf30d974	-0.6908181
49	0x3e571135	0.21002658
50	0xbef3ec5c	-0.47641265
51	0xbe58b7ac	-0.21163815
52	0xbe7ce5bd	-0.24697013
53	0xbd1bd9aa	-0.038049378
54	0x3d22e200	0.03976631
55	0xbe602a8e	-0.21891233
56	0xbea3741e	-0.31924528
57	0xbfb89c80	-1.442276
58	0xbe8d7940	-0.2763157
59	0x3e2fa51e	0.17152831
60	0x3eb07757	0.3446605
61	0xbc34735f	-0.011013835
62	0x3d93deb0	0.07220209
63	0x3e3c5fcb	0.18395917
64	0x3ed0d9ba	0.40791112
65	0x3dfaacff	0.12240028
66	0xbe0701cd	-0.1318428
67	0xbe056db6	-0.13030133
68	0xbedf67c4	-0.43633854
69	0xbe6e0b70	-0.2324655
70	0xbe9ab1ab	-0.30213675
71	0xbe95f061	-0.29284957
72	0x3edd48ba	0.43219548
73	0xbe3ac874	-0.1824053
74	0x3effd250	0.49965143
75	0xbe11e938	-0.14249122
76	0x3efdd7e9	0.4957879
77	0xbeaeaeec	-0.3411783
78	0xbe8d6f32	-0.27623898
79	0x3dade4ec	0.08490929
80	0xbe1dbea8	-0.15404761
81	0xbd25bb47	-0.040461805
82	0xbe17e8b8	-0.14834869
83	0x3f359b49	0.7094007
84	0xbe641da0	-0.22276926
85	0x3eee4e2f	0.46544024
86	0xbd8092d8	-0.06278008
87	0xbdda1536	-0.10648577
88	0xbebe7073	-0.37195167
89	0xbebf0334	-0.3730713
90	0xbf29cab3	-0.6632492
91	0xbe2fd880	-0.17172432
92	0xbef1a553	-0.47196445
93	0xbe60a56d	-0.21938105
94	0xbeca9d71	-0.39573243
95	0xbe91a48b	-0.2844585
96	0x3da66e86	0.081265494
97	0xbefbab3c	-0.4915408
98	0xbf088a5a	-0.5333611
99	0x3ecf349a	0.4046982
100	0x3e9b9093	0.3038374
101	0xbeb35e37	-0.35032818
102	0xbea50ae1	-0.32234862
103	0x3d4a0f5c	0.049331054
104	0x3e52d79f	0.20590065
105	0xbde3f29f	-0.11130261
106	0x3dec7927	0.115465455
107	0x3eca6acb	0.39534602
108	0x3e3653de	0.1780543
109	0xbe49405c	-0.19653457
110	0xbebe216f	-0.37134883
111	0xbc55f2aa	-0.013058344
112	0x3e56950b	0.20955293
113	0x3f1eaa6b	0.6197879
114	0x3e189108	0.14899075
115	0x3cc1eecf	0.023673443
116	0xbea0fe82	-0.31444174
117	0xbf11045a	-0.56647265
118	0x3e02534f	0.12727092
119	0x3ef3b4ee	0.47598976
120	0xbef4b776	-0.4779622
121	0xbf5989de	-0.84975994
122	0xbb1af801	-0.0023646357
123	0x3e365b2d	0.17808218
124	0xbe0c0ddd	-0.13677163
125	0x3dddabe3	0.108238004
126	0x3eba7eab	0.36424765
127	0x3eb38fb6	0.3507058
128	0xbeedf651	-0.46476987
129	0x3f2fefe2	0.6872541
130	0xbe194256	-0.14966711
131	0xbf584c25	-0.8449119
132	0x3e351bcb	0.17686383
133	0xbe37fed6	-0.17968306
134	0xbe63d462	-0.22248986
135	0x3f0314bb	0.5120351
136	0x3ce0efcf	0.0274581
137	0x3ef1105d	0.47082797
138	0x3eee2e75	0.4651982
139	0x3d1c5296	0.038164698
140	0x3e18f4f9	0.149372
141	0xbe9ccdf9	-0.30625895
142	0xbdee8814	-0.116470486
143	0xbd2adb09	-0.041712794
144	0x3f590ff1	0.8478995
145	0xbf123d8b	-0.5712516
146	0xbda501ad	-0.0805696
147	0x3ee2ea39	0.44319323
148	0x3f1532d6	0.58280694
149	0x3f30b789	0.6903005
150	0xbd86e1f6	-0.065860674
151	0x3e5dffc4	0.21679598
152	0x3e73590e	0.2376444
153	0x3e8b34d5	0.27188745
154	0xbeadc8fa	-0.33942395
155	0xbe960e5b	-0.29307827
156	0xbf422c5b	-0.7584893
157	0xbe0ead51	-0.13933302
158	0x3ebca75a	0.3684643
159	0x3d07d2ca	0.03316001
160	0x3f6279d8	0.8846717
161	0xbe872683	-0.2639657
162	0x3e383509	0.17988981
163	0xbcf8b0b3	-0.030357694
164	0x3e05d1d6	0.13068327
165	0x3e61079e	0.21975562
166	0x3c67b8fd	0.014143226
167	0xbec2e15d	-0.38062564
168	0xbecb7990	-0.39741182
169	0xbe3b550c	-0.18294162
170	0x3f1748a5	0.5909522
171	0xbe9bdaec	-0.30440462
172	0xbf1e3740	-0.61803055
173	0x3d9436d4	0.0723702
174	0xbe5c875c	-0.2153601
175	0x3e4a36c6	0.19747457
176	0xbdbd0a4f	-0.09230482
177	0x3e011b62	0.12608102
178	0xbd4797da	-0.0487288
179	0x3ddfbeed	0.10925088
180	0xbd69d68e	-0.05708938
181	0xbf2009c6	-0.62514913
182	0x3bf3d551	0.007441201
183	0x3e577a0b	0.2104265
184	0x3f21733f	0.63066477
185	0x3d4a97ed	0.049461294
186	0xbc88c500	-0.0166955
187	0x3e33ecf3	0.17570858
188	0xbf9a44c4	-1.2052236
189	0xbe3448e6	-0.17605934
190	0xbdcdefda	-0.10055514
191	0x3eab74e2	0.33487612
192	0xbd916a59	-0.07100362
193	0xbfa7f171	-1.3120557
194	0xbe9b2b7c	-0.30306613
195	0xbf270629	-0.65243775
196	0xbe7d2a30	-0.24723125
197	0xbd78f942	-0.060784586
198	0xbce04c22	-0.027380053
199	0xbe97c537	-0.2964265
200	0xbde65230	-0.11246145
201	0xbf65bd08	-0.89741564
202	0x3ea3e36f	0.32009456
203	0x3edb5be2	0.4284354
204	0x3e748562	0.23879007
205	0x3f0a0646	0.5391582
206	0xbe00e305	-0.12586601
207	0x3e9e3d56	0.3090617
208	0xbef06c91	-0.4695783
209	0xbe5e7190	-0.21723008
210	0x3ef38a22	0.47566324
211	0x3ecf8066	0.40527648
212	0xbd104a9d	-0.035227407
213	0xbdc9dee7	-0.098569684
214	0xbf80418a	-1.0020001
215	0xbea02b21	-0.31282905
216	0x3ec3767b	0.3817633
217	0x3efb4f3d	0.49083892
218	0xbe881eaf	-0.2658591
219	0xbf53de4b	-0.8276107
220	0x3e762771	0.24038483
221	0xbe40e16a	-0.18835989
222	0x3dca415d	0.09875748
223	0xbecea398	-0.40359187
224	0x3d9257c2	0.07145645
225	0x3e8d3978	0.27582908
226	0x3d2eae5a	0.042646743
227	0x3e95092c	0.2910856
228	0x3dc5ae23	0.096523546
229	0x3ee7ef41	0.45299724
230	0xbddd0cd1	-0.1079346
231	0x3e38ef4b	0.18060033
232	0x3f5aa1aa	0.8540293
233	0xbe143267	-0.14472352
234	0x3d11cce3	0.035595786
235	0x3e5ac356	0.21363577
236	0xbeed8574	-0.4639088
237	0x3d4787e8	0.048713595
238	0x3edb5917	0.42841408
239	0x3f24fa10	0.64444065
240	0x3d30dae6	0.043177508
241	0xbedd7d67	-0.43259737
242	0xbe2f57af	-0.17123292
243	0xbeb00447	-0.34378263
244	0x3d918a17	0.07106417
245	0xbf04e9af	-0.5191907
246	0x3df97a4b	0.12181529
247	0x3f82b86f	1.0212535
248	0xbd3d64f5	-0.04623886
249	0x3ecab3ce	0.39590305
250	0xbe4e6646	-0.20156202
251	0x3e6c03e7	0.23048364
252	0x3defdc9f	0.11712002
253	0xbeb9655d	-0.36210147
254	0xbea05a69	-0.31318977
255	0x3eb90337	0.36135265

model_1/conv2d_9/BiasAdd/ReadVariableOp:0 f4 [24]
0	0x401c6aa5	2.444009
1	0xbeb44d5a	-0.35215265
2	0x3f40dd9c	0.7533815
3	0x3f0882c9	0.5332456
4	0x4005b1ee	2.088985
5	0x3f5cb7a2	0.862177
6	0xbf178cd1	-0.59199244
7	0x40184dfb	2.3797596
8	0x3bd0b497	0.0063691842
9	0x3eb2d0b5	0.34924856
10	0x402ea021	2.7285235
11	0x3eff54bd	0.49869338
12	0x3f45e312	0.77299607
13	0x3e3cf30e	0.18452093
14	0x3f370bbf	0.715023
15	0x3fb86684	1.4406285
16	0x3e83e2aa	0.25758868
17	0x3fbb2819	1.4621612
18	0xbea403a6	-0.32034034
19	0x3ee78a6a	0.4522279
20	0x3fc77601	1.5582887
21	0x3f2ba075	0.67041713
22	0x3f82358e	1.0172594
23	0x3e975fe4	0.29565346

model_1/conv2d_8/Conv2D/ReadVariableOp:0 f4 [24, 20, 1, 1]
0	0x3e66f3c8	0.22553933
1	0x3ddb30d7	0.10702675
2	0xbdd745e7	-0.1051138
3	0x3e43698e	0.19083235
4	0x3ecc0440	0.39846992
5	0x3f0cf322	0.5505849
6	0x3ee0676f	0.43828914
7	0x3efd5899	0.49481657
8	0xbf59d8bd	-0.8509634
9	0x3c57a8c3	0.0131627945
10	0xbecd33a3	-0.40078458
11	0x3f0703af	0.52739996
12	0xbdbe8d7d	-0.093043305
13	0x3e487878	0.19577205
14	0xbedfb779	-0.43694666
15	0xbe407e0b	-0.18798082
16	0x3edce509	0.4314349
17	0x3f0cb2fb	0.549606
18	0x3e4a54d1	0.19758917
19	0x3cb9dedd	0.022689277
20	0x3e14b4d4	0.14522105
21	0xbcba3654	-0.022730984
22	0x3e0079c3	0.12546448
23	0xbe51da26	-0.20493373
24	0xbe6175be	-0.22017571
25	0x3ed08899	0.40729216
26	0x3f816fb5	1.0112215
27	0x3e9a74f0	0.3016734
28	0xbe2a1360	-0.16608953
29	0x3eb52c0a	0.35385162
30	0xbef4489a	-0.4771164
31	0x3f1c6a04	0.61099267
32	0xbde2ab3e	-0.11067818
33	0xbda6ee0f	-0.08150875
34	0x3ebc2506	0.36746997
35	0xbe440934	-0.19144136
36	0xbcb7ab29	-0.022420483
37	0xbed238e4	-0.4105903
38	0xbd76f779	-0.060294602
39	0xbebe74c6	-0.37198466
40	0x3efa8cbb	0.48935494
41	0xbc4b5dc4	-0.012412492
42	0x3db86112	0.0900289
43	0xbebad4d2	-0.36490494
44	0xbe685ce7	-0.2269169
45	0xbb526510	-0.0032103695
46	0x3ee1852c	0.44046915
47	0xbdea24a6	-0.114327714
48	0xbd3a4a4a	-0.045481004
49	0xbeddabe0	-0.43295193
50	0xbf3a5695	-0.72788364
51	0xbe5ee8d4	-0.21768504
52	0xbef1908d	-0.47180596
53	0xbe5dcb47	-0.21659575
54	0xbea895ae	-0.32926697
55	0x3f26e55c	0.65193725
56	0xbf13d11d	-0.57740957
57	0xbee08b06	-0.43856066
58	0xbf59dddd	-0.8510416
59	0xbe1c9eae	-0.15294906
60	0x3e2e98c0	0.17050457
61	0xbc75966d	-0.014989478
62	0x3dc98ac3	0.0984092
63	0x3e7585b4	0.23976785
64	0x3e1e75b1	0.15474583
65	0xbe9d7ecf	-0.3076081
66	0xbe81b175	-0.253307
67	0x3e6174f9	0.22017278
68	0x3a7f9cd6	0.00097508484
69	0xbe8a32fc	-0.26992023
70	0xbed99426	-0.4249584
71	0xbee940b2	-0.4555717
72	0x3f0081c9	0.50198036
73	0x3e80bcd9	0.2514408
74	0x3f0f8ebe	0.5607718
75	0xbdc645b7	-0.09681266
76	0xbed8d936	-0.4235322
77	0x3e7ab140	0.24481678
78	0x3d16aa28	0.036783367
79	0x3e4a3095	0.19745095
80	0x3f21f0b4	0.6325791
81	0xbf176d50	-0.5915117
82	0xbebdf48f	-0.37100646
83	0x3f02d9f9	0.5111385
84	0xbf8ada96	-1.0847957
85	0x3ca3205f	0.019912897
86	0xbec4b981	-0.38422778
87	0xbe94ded3	-0.2907625
88	0xbf1f39e5	-0.62197715
89	0xbf641bc7	-0.89104885
90	0x3f0ed819	0.5579849
91	0xbeaae862	-0.3338042
92	0x3e9dae74	0.3079716
93	0xbd7c24f4	-0.06155868
94	0xbc54c56c	-0.012986522
95	0x3ea54861	0.32281783
96	0xbef88cc7	-0.48544905
97	0xbf5830b9	-0.84449345
98	0xbebe99c4	-0.3722669
99	0xbe35c16e	-0.17749569
100	0x3ebd6045	0.3698751
101	0xbda0feb8	-0.07861084
102	0x3f2d0660	0.6758785
103	0xbcf71ba7	-0.030164553
104	0x3ece7e56	0.40330762
105	0xbf431238	-0.76199675
106	0x3e90ede3	0.28306493
107	0x3edc830d	0.43068734
108	0xbc897988	-0.016781583
109	0xbe9c7fcb	-0.30566248
110	0xbef0c512	-0.47025353
111	0xbddab88b	-0.1067973
112	0xbcbbde07	-0.02293302
113	0xbef20ad5	-0.4727389
114	0x3e177515	0.14790757
115	0xbe1481b8	-0.14502609
116	0xbf30929e	-0.6897372
117	0xbe3e6924	-0.18594795
118	0xbe7ccca0	-0.24687433
119	0x3eb776fb	0.35832962
120	0x3f10cce8	0.5656266
121	0xbee14bdd	-0.44003192
122	0xbca18fa5	-0.019721815
123	0x3bf4b7d8	0.007468205
124	0x3e66d21b	0.22541086
125	0x3e88c3fd	0.26712027
126	0x3f1fd200	0.6242981
127	0xbf27913b	-0.6545598
128	0x3eca5165	0.39515224
129	0x3e2fa428	0.17152464
130	0xbe1c690c	-0.15274447
131	0x3ed2a084	0.4113809
132	0xbeef9e92	-0.46800667
133	0xbe85ac28	-0.26107907
134	0x3cabb773	0.020961499
135	0xbe9c8aaf	-0.30574557
136	0xbcf26739	-0.029590236
137	0x3e249032	0.16070631
138	0x3f445e4e	0.767064
139	0x3f366304	0.71244836
140	0x3d6215d2	0.05519659
141	0xbdf00360	-0.11719394
142	0xbfc4f9fb	-1.5388788
143	0x3e83422c	0.25636423
144	0xbf2c839f	-0.6738834
145	0x3e5460a6	0.20739993
146	0xbc1e34c3	-0.009656134
147	0xbcb1b89e	-0.021694478
148	0x3da5f950	0.08104193
149	0x3c84fe0e	0.016234424
150	0x3ebf8531	0.37406304
151	0x3ea2170b	0.31658205
152	0xbe492232	-0.1964195
153	0xbda5e5da	-0.08100481
154	0xbe83d850	-0.2575097
155	0xba8ddf2d	-0.0010823958
156	0xbde01c79	-0.10942931
157	0xbed40db1	-0.41416696
158	0x3ee80a12	0.45320183
159	0xbd79cdbc	-0.06098722
160	0x3e955272	0.29164463
161	0x3f1ff585	0.6248401
162	0x3eba521f	0.36390778
163	0x3f0c03ad	0.5469311
164	0xbf48f7e7	-0.7850327
165	0x3a81282e	0.0009853893
166	0xbe3ffae2	-0.18748048
167	0x3f21544f	0.6301927
168	0xbe01dd8c	-0.1268217
169	0x3dd09b09	0.101858206
170	0x3eb6d52e	0.35709518
171	0xbf3f56b2	-0.7474166
172	0xbe17e418	-0.14833105
173	0xbde83c4e	-0.11339627
174	0xbe26af5c	-0.16277832
175	0x3dad966e	0.08475958
176	0x3dfe2c29	0.12410767
177	0xbeecf2f7	-0.46279117
178	0xbd14113a	-0.03614924
179	0xbd1a522f	-0.037676033
180	0x3f21cccd	0.63203126
181	0x3dd5b2e3	0.104345106
182	0x3f51f347	0.82011837
183	0xbdec650d	-0.115427114
184	0xbe767ef4	-0.24071866
185	0x3ee88982	0.4541741
186	0x3f239a16	0.6390699
187	0x3db15f97	0.086608104
188	0x3eb45dfc	0.35227954
189	0xbf2ec1b7	-0.68264335
190	0xbe430880	-0.19046211
191	0xbf06bac1	-0.52628714
192	0xbd878835	-0.06617776
193	0x3e62082d	0.22073431
194	0xbb774f2a	-0.0037736394
195	0xbd9b317a	-0.07577796
196	0x3f1b0411	0.6055308
197	0x3e2f094b	0.17093389
198	0x3f841999	1.0320312
199	0xbdfd2ce0	-0.12362075
200	0xbd1bfd2b	-0.038083237
201	0xbe000c7b	-0.12504761
202	0xbdffff67	-0.12499886
203	0x3ef4bbbf	0.4779949
204	0xbf238d82	-0.638878
205	0xbd62fbc5	-0.055415887
206	0xbeab20c3	-0.33423433
207	0x3ebebbee	0.37252754
208	0x3ec54fbd	0.38537398
209	0xbef1ff58	-0.47265124
210	0xbe8ccf17	-0.27501747
211	0xbc77e3b5	-0.015129973
212	0xbe1063d5	-0.14100583
213	0xbe7df896	-0.2480186
214	0xbec7fd21	-0.3906031
215	0x3ee1aa17	0.4407508
216	0x3f62e1a8	0.88625574
217	0x3e04fef9	0.1298789
218	0xbe10b1db	-0.14130346
219	0x3f64e858	0.8941703
220	0x3eb547a0	0.35406208
221	0xbe385c78	-0.18004024
222	0x3f209189	0.6272207
223	0x3eb923ca	0.36160117
224	0xbe68e87b	-0.22744934
225	0x3d9c8fe5	0.07644633
226	0x3f01b2ad	0.5066326
227	0x3ec95d8d	0.39329186
228	0xbe289e7f	-0.16466711
229	0x3ec5cb0f	0.38631484
230	0x3e0f73c7	0.1400901
231	0xbe0c3230	-0.1369102
232	0xbe7740b6	-0.24145779
233	0xbf408a0c	-0.7521064
234	0xbd3c6f00	-0.046004295
235	0x3f1053c8	0.5637784
236	0xbd609c92	-0.054836817
237	0xbeaa42b4	-0.33254015
238	0x3f00274b	0.50059956
239	0x3ee3dcbc	0.44504344
240	0x3e498696	0.19680247
241	0x3d40a60f	0.047033366
242	0xbe5a2c5a	-0.21305981
243	0xbd0e9de9	-0.034818564
244	0xbdcac696	-0.099011585
245	0xbe78bb5a	-0.24290219
246	0x3e539676	0.20662865
247	0x3ec741cb	0.38917384
248	0x3e6098e2	0.2193332
249	0xbe745cf9	-0.23863591
250	0xbdc07459	-0.093971916
251	0x3e23d1d5	0.15998013
252	0x3ef4a583	0.47782525
253	0x3e982791	0.29717687
254	0x3e2f2968	0.17105639
255	0xbe1fe40c	-0.15614337

model_1/conv2d_8/BiasAdd/ReadVariableOp:0 f4 [24]
0	0x3fbe24cf	1.4854983
1	0x3f35f34f	0.71074384
2	0x3f0957bd	0.53649503
3	0x3fac599e	1.3464849
4	0x3e77047a	0.24122801
5	0xbe2eac3d	-0.17057891
6	0x3e3cb66a	0.1842896
7	0xbf4eba33	-0.8075287
8	0x3ed46c9f	0.4148912
9	0x3fa3b5e1	1.278988
10	0x3d95597a	0.07292457
11	0xbf180ec7	-0.5939755
12	0x3fa924ad	1.3214318
13	0x3f8f814f	1.1211337
14	0x3e52a23d	0.20569701
15	0x40001a69	2.001612
16	0xbe066df6	-0.13127884
17	0x3dff3d9c	0.12462923
18	0x3f87fa53	1.0623268
19	0x3f3e4628	0.743258
20	0x3e7afa0d	0.2450945
21	0xbedf7bff	-0.4364929
22	0x3eb42c0b	0.35189852
23	0xbe0b2eb1	-0.1359203

model_1/conv2d_7/Conv2D/ReadVariableOp:0 f4 [20, 20, 1, 1]
0	0x3f471009	0.7775884
1	0x3f01fb7c	0.5077436
2	0x3d2a3870	0.04155773
3	0x3eee173c	0.465021
4	0x3f5b92ff	0.85771173
5	0xbde2788c	-0.11058149
6	0xbe08e8b7	-0.13370024
7	0x3ef58732	0.47954708
8	0xbdea60aa	-0.114442185
9	0x3efc816e	0.49317497
10	0xbe4d2034	-0.20031816
11	0xbf1a3420	-0.60235786
12	0xbb0abf62	-0.0021171202
13	0xbf067176	-0.5251688
14	0x3d1bc1ab	0.038026493
15	0x3eb864a2	0.36014277
16	0xbef3af7a	-0.47594815
17	0x3d2b9dc0	0.04189849
18	0x3ee901c9	0.45509174
19	0xbeeec233	-0.46632537
20	0x3ee71508	0.45133233
21	0x3d22bd55	0.039731342
22	0x3e9b2f23	0.303094
23	0xbcf5895e	-0.029972728
24	0x3e805cdf	0.25070855
25	0xbede32d1	-0.43398145
26	0xbec3d957	-0.38251755
27	0x3d98c883	0.074601196
28	0xbe311586	-0.17293367
29	0xbec4fc05	-0.38473526
30	0x3da662bc	0.08124301
31	0xbf4eb7f5	-0.80749446
32	0x3e1079c7	0.14108954
33	0x3d505b5b	0.050868373
34	0x3ecc0666	0.39848632
35	0xbf1db747	-0.61607784
36	0x3ebefbb3	0.37301406
37	0x3ec4282a	0.38311893
38	0xbea740c3	-0.32666597
39	0xbea90797	-0.33013603
40	0x3e61e802	0.2206116
41	0xbe3e4708	-0.18581784
42	0xbcf56dee	-0.029959645
43	0x3ec14dcb	0.37754664
44	0xbde7a353	-0.113104485
45	0x3f5922bc	0.84818625
46	0x3dd8f16d	0.10592923
47	0xbefd1d25	-0.49436298
48	0x3e79ca95	0.24393685
49	0xbf5277ff	-0.8221435
50	0x3cd73edb	0.026275089
51	0xbe81a46a	-0.2532075
52	0x3f2793ae	0.65459716
53	0x3ed20f77	0.41027424
54	0x3e940d6f	0.289165
55	0x3f88ae38	1.0678167
56	0xbea1c273	-0.31593665
57	0xbe62b7eb	-0.22140472
58	0xbcd4c50a	-0.025972862
59	0x3f0c4ef5	0.5480798
60	0xbeac8bfa	-0.33700544
61	0xbed3959b	-0.41325077
62	0xbf81924a	-1.0122769
63	0xbf3b69e5	-0.7320846
64	0xbe4cd5e4	-0.20003468
65	0x3f1042ab	0.5635173
66	0x3c343b7b	0.011000509
67	0x3ecc0fc4	0.39855778
68	0x3ef683e7	0.48147509
69	0xbe4aff3e	-0.1982393
70	0x3c1f0e40	0.009707987
71	0xbe945b37	-0.2897584
72	0xbee4acae	-0.44662994
73	0x3f08f71c	0.5350206
74	0xbe23c964	-0.15994793
75	0x3d7dbe26	0.061948918
76	0x3f056e1a	0.52121127
77	0x3edd498c	0.43220174
78	0x3efc5d6c	0.49290025
79	0xbe0cc035	-0.13745196
80	0x3d7be6e6	0.0614995
81	0x3cc63772	0.02419636
82	0x3e69c1a6	0.22827777
83	0x3f1cce5d	0.61252385
84	0x3d846e68	0.06466371
85	0x3e1fcb78	0.15604961
86	0x3ea2107f	0.3165321
87	0x3e3508ae	0.17679092
88	0xbe424d5e	-0.18974826
89	0x3e493ef6	0.19652924
90	0x3f2e71bb	0.6814229
91	0xbee529d4	-0.44758475
92	0xbf7c1c08	-0.9848027
93	0xbc4f12f1	-0.012638793
94	0x3eafa992	0.3430906
95	0xbe9fae5d	-0.31187716
96	0x3e0987d6	0.13430724
97	0x3e747d1e	0.23875853
98	0x3dbc70e9	0.092012234
99	0xbd24b025	-0.040207047
100	0xbeac10a1	-0.33606437
101	0xbf009528	-0.50227594
102	0x3def066c	0.11671147
103	0x3ea3c513	0.31986293
104	0xbf39384d	-0.72351533
105	0x3e90c476	0.28274888
106	0x3f68aa05	0.9088443
107	0x3dc03bf0	0.09386432
108	0x3dab1334	0.08353272
109	0xbe84390f	-0.25824782
110	0xbebc28e8	-0.3674996
111	0xbe36b410	-0.17842126
112	0xbf074a46	-0.5284771
113	0xbee36c8a	-0.44418746
114	0xbe014dca	-0.1262733
115	0x3dd9bdd4	0.1063191
116	0xbd883f20	-0.06652665
117	0xbf0ba9e5	-0.54556113
118	0x3f1eed55	0.6208089
119	0xbdb24f6d	-0.087065555
120	0xbde2e234	-0.11078301
121	0x3ef114c3	0.47086152
122	0xbeca78ff	-0.39545438
123	0xbc7f4859	-0.015581214
124	0x3d6ed645	0.058309812
125	0x3eeeae3a	0.466173
126	0x3dfe1e41	0.12408114
127	0x3dde58b6	0.10856764
128	0xbf72ed61	-0.9489346
129	0x3ee34f9a	0.4439667
130	0xbe2cbe72	-0.16869524
131	0x3e178fd0	0.14800954
132	0xbe967441	-0.2938557
133	0xbdc99086	-0.09842019
134	0x3edebe69	0.43504646
135	0xbe1c2b36	-0.15250859
136	0xbf8820cd	-1.063501
137	0xbee9e513	-0.45682582
138	0x3f8e0f5e	1.109844
139	0x3ecf4df5	0.40489164
140	0xbd2a39a1	-0.041558865
141	0xbf0abe51	-0.5419665
142	0x3ebf19e8	0.37324452
143	0xbebb3700	-0.365654
144	0x3f510676	0.81650484
145	0xbe85e09f	-0.26147935
146	0xbe8ba312	-0.2727285
147	0x3ebb866b	0.3662599
148	0xbe5c27b2	-0.21499518
149	0x3eebfb77	0.4609029
150	0xbec028c9	-0.37531117
151	0xbddb90bb	-0.107209645
152	0x3d47f315	0.048815805
153	0xbe03d902	-0.1287575
154	0xbd010868	-0.031502157
155	0xbd83ba3e	-0.06432007
156	0xbe5df6cb	-0.21676175
157	0x3e695a2f	0.22788309
158	0xbe922185	-0.28541198
159	0xbe4b14fc	-0.19832224
160	0x3e698d7b	0.22807877
161	0xbd446395	-0.04794653
162	0x3f03eaa6	0.5152992
163	0xbe90b739	-0.28264788
164	0xbe1e894f	-0.15482067
165	0xbde0143f	-0.10941362
166	0xbedea356	-0.4348399
167	0xbf700404	-0.9375613
168	0x3eeffe3c	0.46873653
169	0x3edd4565	0.43217006
170	0x3e5ecfec	0.21759003
171	0xbea36af2	-0.3191753
172	0xbf66d63f	-0.90170664
173	0x3e02a338	0.12757576
174	0xbc3bfb51	-0.011473493
175	0x3ed7d2e2	0.42153078
176	0x3e89e826	0.26934928
177	0xbd514923	-0.05109514
178	0x3dddf33f	0.10837411
179	0x3dc6f5f5	0.09714881
180	0x3ad0fe83	0.0015944991
181	0xbe5ffc85	-0.21873672
182	0x3ee8ac6f	0.45444056
183	0xbd80954e	-0.062784776
184	0x3f02ec5e	0.5114192
185	0x3e03918a	0.12848487
186	0xbe118a37	-0.14212881
187	0x3e76b096	0.240908
188	0xbe24f27f	-0.1610813
189	0x3d21c081	0.039490227
190	0x3ed5147c	0.4161719
191	0x3df413bc	0.119178265
192	0x3d8ce196	0.068789646
193	0x3e48a815	0.19595368
194	0x3f2eae90	0.6823511
195	0xbdb60eac	-0.08889517
196	0x3ef544e5	0.47904125
197	0xbdf56d1d	-0.11983702
198	0xbd8572a4	-0.065160066
199	0x3e7d8648	0.24758255
200	0x3ecdf4d2	0.40225846
201	0x3e9a48b4	0.30133593
202	0x3ebdab7a	0.3704489
203	0x3eed55ae	0.4635443
204	0x3eaba591	0.33524755
205	0x3f177b0a	0.5917212
206	0xbf5211b3	-0.82058257
207	0x3eebc227	0.46046564
208	0xbe4ce1ed	-0.20008059
209	0x3ec24cee	0.37949318
210	0x3efa0cc5	0.48837867
211	0xbd52079c	-0.051276788
212	0x3ed91a54	0.424029
213	0xbe226fdb	-0.15862982
214	0xbe8bb47f	-0.27286145
215	0x3d9f66a3	0.07783248
216	0x3ee5299e	0.44758314
217	0x3d18d370	0.037311018
218	0x3e0bea65	0.13663633
219	0xbe9907c0	-0.29888725
220	0x3c8cb43a	0.017175782
221	0x3f094827	0.5362572
222	0x3dbd4169	0.092409916
223	0xbebfb497	-0.37442467
224	0xbcdf7cea	-0.027281243
225	0x3f20189d	0.62537557
226	0xbdb84d8e	-0.089991674
227	0x3ebbbf21	0.36669257
228	0x3ed2b6b5	0.4115502
229	0xbd1b98ad	-0.0379874
230	0xbda5f121	-0.08102632
231	0xbd456888	-0.048195392
232	0xbec548a4	-0.38531983
233	0x3e5a3618	0.21309698
234	0xbeecf829	-0.4628308
235	0x3e6abde4	0.22924
236	0xbede1cf6	-0.4338147
237	0xbeb2da34	-0.349321
238	0xbf9abf1c	-1.2089572
239	0xbe9f53c1	-0.31118587
240	0xbf729c9f	-0.94770235
241	0xbf2d117a	-0.6760479
242	0x3eb135ea	0.34611446
243	0xbedf45fc	-0.4360808
244	0x3edcdfb3	0.4313942
245	0xbd96fe74	-0.07372752
246	0xbe019414	-0.12654144
247	0x3e8546f0	0.26030684
248	0x3d63e6db	0.055640083
249	0x3e1eaf85	0.15496643
250	0xbe19822c	-0.14991063
251	0xbf25f821	-0.6483174
252	0xbdff3ef7	-0.124631815
253	0x3cc9bd74	0.024626471
254	0xbe88f217	-0.267472
255	0xbe2956f2	-0.16537073

model_1/conv2d_7/BiasAdd/ReadVariableOp:0 f4 [20]
0	0x3ead7696	0.33879536
1	0x3f71b4c6	0.94416463
2	0x3f038a6a	0.5138308
3	0x3f54d97e	0.83144367
4	0x3e9e9f12	0.30980736
5	0x3ecc438a	0.39895278
6	0xbe42b527	-0.19014417
7	0x3ec92faf	0.39294192
8	0xbe93e483	-0.28885278
9	0x3fa24114	1.267611
10	0x3d30ca8a	0.043161906
11	0x3f1e6a80	0.61881256
12	0x3ea00922	0.31256968
13	0x3f66df51	0.90184504
14	0xbf7009e3	-0.93765086
15	0xbe73eec3	-0.23821549
16	0x3f805828	1.0026903
17	0x3f92baa3	1.1463207
18	0x3efce34a	0.49392158
19	0xbd8e36e8	-0.06944066

model_1/conv2d_6/Conv2D/ReadVariableOp:0 f4 [20, 20, 1, 1]
0	0xbe547244	-0.20746714
1	0xbde87a3f	-0.113514416
2	0xbe6f8b10	-0.23392892
3	0x3dcf0802	0.10108949
4	0x3cc77ffe	0.024353024
5	0x3d345688	0.044027835
6	0xbf689398	-0.9085021
7	0x3dba4356	0.090948746
8	0x3f5c788e	0.8612145
9	0xbe5588ee	-0.20853016
10	0xbf89e03f	-1.077156
11	0xbe58732b	-0.21137683
12	0xbf03b894	-0.5145352
13	0xbba0abf6	-0.004903312
14	0x3f14d4ec	0.58137393
15	0xbe89e706	-0.2693407
16	0x3db563b5	0.08856908
17	0x3dbfece7	0.093713574
18	0xbeb461c6	-0.35230845
19	0x3de9c785	0.114150085
20	0x3e66f12f	0.22552942
21	0xbe26fce0	-0.16307402
22	0xba50d9ef	-0.0007967045
23	0xbeef2cda	-0.46713907
24	0xbe6ee0ec	-0.23327988
25	0x3de5e3af	0.11225068
26	0xbee53ad1	-0.44771436
27	0x3edf8cb5	0.43662038
28	0x3e310d4f	0.17290233
29	0xbe82e51c	-0.25565422
30	0x3d1d78ae	0.038445167
31	0xbf22c7bf	-0.6358604
32	0xbd0bf7ee	-0.03417199
33	0xbee73cc7	-0.45163557
34	0xbf59eb61	-0.85124785
35	0xbc83053e	-0.01599371
36	0xbf77e31a	-0.96830904
37	0xbd36d87a	-0.044640042
38	0xbe90289c	-0.28155982
39	0x3ee85208	0.45375085
40	0x3d05d616	0.03267487
41	0x3e9e0bff	0.30868527
42	0x3f01f398	0.5076232
43	0xbe7a9513	-0.2447093
44	0x3ef9ca59	0.48787192
45	0xbe279318	-0.16364706
46	0x3f06cab5	0.52653056
47	0x3d1d7e2e	0.038450412
48	0xbefb1827	-0.49041864
49	0xbeb9612c	-0.3620695
50	0x3e25343e	0.1613321
51	0xbf17bb41	-0.592701
52	0x3e4333ba	0.19062701
53	0xbdf99213	-0.121860646
54	0xbe853c6d	-0.26022664
55	0xbf190d75	-0.5978616
56	0xbe2fb0c2	-0.17157272
57	0xbce6f1b0	-0.028191417
58	0x3f180798	0.5938659
59	0xbf2bc424	-0.6709616
60	0xbb417f7e	-0.0029525454
61	0xbf2fb5eb	-0.6863696
62	0x3f815209	1.010316
63	0x3e35d565	0.17757185
64	0xbde5bb7c	-0.112174004
65	0xbe4060a3	-0.18786864
66	0xbe57d94d	-0.21078987
67	0xbcd675b1	-0.026179167
68	0x3c3ee056	0.011650166
69	0x3eb37850	0.3505273
70	0x3edf955a	0.43668634
71	0x3f2ea2c8	0.68217134
72	0x3e33f9b7	0.17575727
73	0xbe2ad5ad	-0.16683073
74	0x3e8142be	0.25246233
75	0x3eaa0524	0.33207047
76	0xbeafc9c3	-0.3433362
77	0x3e9943e2	0.29934603
78	0x3ce56a75	0.028004864
79	0xbd022918	-0.03177747
80	0x3ef871b6	0.48524255
81	0xbecfbeaf	-0.40575168
82	0xbe6ff116	-0.2343181
83	0x3eaadb8d	0.3337063
84	0x3f13ea81	0.577797
85	0xbf06dd75	-0.52681667
86	0xbecd7b34	-0.4013306
87	0xbda024b0	-0.078194976
88	0x3eebe860	0.46075726
89	0x3e8c09c2	0.27351195
90	0x3c1bc7a0	0.0095080435
91	0x3e92cf2f	0.28673694
92	0x3dad4dfd	0.08462141
93	0xbd6a08c2	-0.05713726
94	0x3da3bab6	0.07994597
95	0x3e870ea2	0.2637835
96	0xbf29939b	-0.66240853
97	0x3db397ab	0.08769163
98	0xbd93e489	-0.07221324
99	0x3e021fcd	0.12707444
100	0xbd24a12a	-0.04019276
101	0x3e5ad719	0.21371116
102	0xbe17390f	-0.1476786
103	0xbec3f311	-0.38271382
104	0x3f245aed	0.6420124
105	0x3e62a67e	0.22133824
106	0x3da7cf9d	0.08193896
107	0x3e164a40	0.14676762
108	0xbdbf907a	-0.093537286
109	0xbcdb295f	-0.026753126
110	0x3f0be0ee	0.5464009
111	0xbd0d7fb8	-0.03454563
112	0xbcf96609	-0.030444162
113	0xbf24b307	-0.64335674
114	0x3e7084fb	0.23488228
115	0x3e021984	0.12705046
116	0x39303d16	0.00016807424
117	0xbe76ea5a	-0.24112836
118	0xbe4cf439	-0.20015039
119	0x3e8ea66d	0.27861348
120	0x3f1c06e4	0.60948014
121	0xbda9bef4	-0.082883745
122	0x3f298463	0.6621763
123	0x3c7d5a99	0.015463495
124	0x3e79dc84	0.24400526
125	0x3edfab03	0.4368516
126	0xbce8a504	-0.028398998
127	0xbe9a0327	-0.3008053
128	0x3eed860d	0.46391335
129	0xbd6cd5f7	-0.05782124
130	0xbe900f3d	-0.28136626
131	0x3da208a3	0.079118036
132	0x3df95461	0.12174297
133	0xbed983e7	-0.42483446
134	0x3f25991c	0.6468675
135	0xbc15cd15	-0.009143134
136	0x3da5d617	0.08097475
137	0x3f39d41d	0.72589284
138	0xbbfb8d59	-0.007676762
139	0x3e3e597d	0.18588825
140	0x3de85a23	0.11345317
141	0x3ee51f46	0.44750422
142	0x3dc0d289	0.094151564
143	0xbf93e71d	-1.1554905
144	0xbe61abfa	-0.2203826
145	0xbd148b25	-0.03626551
146	0xbed1c232	-0.40968472
147	0xbe7e8b68	-0.24857867
148	0xbecad7cd	-0.39617768
149	0x3eb9dff1	0.36303666
150	0xbd67c427	-0.05658355
151	0x3e978ef1	0.29601243
152	0x3f6296a2	0.885111
153	0x3efa3bb7	0.48873684
154	0x3ee805d4	0.45316947
155	0x3e811432	0.2521072
156	0x3da90e5f	0.08254694
157	0xbe2b3675	-0.16719992
158	0xbdd61593	-0.10453334
159	0xbe5abbef	-0.21360753
160	0xbe25a510	-0.16176248
161	0xbf21af03	-0.6315767
162	0x3f190d49	0.59785897
163	0x3d1ebde9	0.03875533
164	0x3eab565a	0.3346432
165	0xbe682cb1	-0.22673298
166	0x3de29ec3	0.11065438
167	0x3e8c78be	0.2743587
168	0x3e97e8dd	0.29669848
169	0xbe0c0d18	-0.1367687
170	0xbe9d7b3f	-0.30758092
171	0x3e9316c7	0.28728315
172	0xbe09206b	-0.13391273
173	0x3deef84c	0.116684526
174	0x3e5d71f2	0.21625498
175	0xbe45c6b8	-0.19314086
176	0x3e374ee8	0.17901194
177	0xbe0621ee	-0.1309888
178	0x3f0ad776	0.5423502
179	0x3f12e09a	0.57373965
180	0xbe483519	-0.19551505
181	0xbe545fb7	-0.20739637
182	0xbe18ff99	-0.14941253
183	0x3ed56502	0.41678625
184	0x3f168b45	0.5880626
185	0x3f14a0d3	0.580579
186	0x3e801fb0	0.25024176
187	0x3e08e797	0.13369595
188	0xbdf019ec	-0.11723694
189	0x3ed6e67a	0.41972715
190	0x3c85e0aa	0.01634248
191	0x3d37ffec	0.0449218
192	0x3e28ab39	0.16471566
193	0x3f7a7a71	0.9784308
194	0xbd1a98e9	-0.037743483
195	0x3ea4f3a8	0.32217145
196	0xbeece636	-0.46269387
197	0xbed77dc2	-0.42088133
198	0x3f0f2dd1	0.55929285
199	0xbe72e732	-0.23721007
200	0x3e9f5df9	0.31126383
201	0x3d48a111	0.04898173
202	0x3c8c7298	0.017144486
203	0x3e681e77	0.22667871
204	0xbe8f51bb	-0.27992043
205	0x3e5f32a1	0.21796657
206	0xbef6a8db	-0.48175701
207	0xbf0fe4db	-0.5620858
208	0xbe85c46a	-0.26126415
209	0xbf14ccd0	-0.5812502
210	0x3afc5fe5	0.0019254653
211	0xbe192d17	-0.14958607
212	0xbeeb4717	-0.45952675
213	0xbe96ca94	-0.2945143
214	0xbf0bc994	-0.5460446
215	0xbd5e52f4	-0.05427833
216	0xbf670e31	-0.9025603
217	0x3ed7ecac	0.42172754
218	0x3ebb7315	0.36611238
219	0x3ea59737	0.3234193
220	0xbe803aaa	-0.25044757
221	0x3e3e6b17	0.18595539
222	0x3e767882	0.24069408
223	0x3f0d14a9	0.5510965
224	0xbe3f0d4c	-0.18657416
225	0xbed9d099	-0.4254196
226	0x3f054943	0.52064914
227	0xbc53ebd0	-0.01293464
228	0x3f370410	0.71490574
229	0xbe27917a	-0.16364089
230	0xbe650ef6	-0.22368988
231	0x3e251859	0.16122569
232	0xbee20760	-0.44146252
233	0x3e82d025	0.25549427
234	0xbec4caf0	-0.3843608
235	0x3da50707	0.08057981
236	0x3f2b4067	0.66895145
237	0xbea9314a	-0.33045417
238	0x3f83d292	1.0298636
239	0x3db3b321	0.087744005
240	0x3f189376	0.5960001
241	0xbf007c09	-0.5018926
242	0x3f038762	0.5137845
243	0x3ea8f7d8	0.3300159
244	0x3ee712a7	0.45131418
245	0xbf3d956c	-0.74056125
246	0xbdf63bc0	-0.12023115
247	0xbb903725	-0.004401105
248	0x3ea8e61b	0.32988057
249	0xbe937bb5	-0.28805318
250	0x3eb13467	0.34610292
251	0x3e8607ba	0.2617777
252	0x3db08dc2	0.08620788
253	0x3ef38e38	0.47569442
254	0xbf3db0f8	-0.7409816
255	0xbf33431b	-0.7002427

model_1/conv2d_6/BiasAdd/ReadVariableOp:0 f4 [20]
0	0x3f5f54a8	0.8723855
1	0x3ecec789	0.40386608
2	0x3f57168a	0.84018767
3	0x3fcfbd2e	1.6229608
4	0x3e6f2868	0.23355258
5	0x3f595902	0.8490144
6	0x3f16a26b	0.5884158
7	0x3f02d613	0.511079
8	0x3e265e68	0.1624695
9	0x3f49718a	0.7868887
10	0x3f5bf7be	0.859249
11	0x3d6f24c4	0.05838467
12	0x3f512e07	0.8171086
13	0x3dc3df5d	0.095640875
14	0x3e89e64f	0.26933524
15	0x3ff7b31d	1.9351536
16	0x3f096671	0.5367194
17	0x402bd194	2.6846666
18	0x3feac31e	1.8340795
19	0x3d26f60f	0.040762004

model_1/conv2d_5/Conv2D/ReadVariableOp:0 f4 [20, 20, 1, 1]
0	0xbeab898e	-0.33503383
1	0xbdd28ba5	-0.10280541
2	0xbf069bad	-0.5258129
3	0xbe915f71	-0.2839313
4	0xbe162006	-0.14660653
5	0xbe29cf99	-0.16583098
6	0x3c855ced	0.016279662
7	0x3ea29eb5	0.3176171
8	0x3dc2483c	0.09486434
9	0x3e2b410d	0.16724034
10	0xbdd1e599	-0.102488704
11	0xbf096455	-0.5366872
12	0xbd9cb401	-0.076515205
13	0x3caafebc	0.02087342
14	0x3e5823da	0.21107426
15	0x3e93750f	0.28800246
16	0xbe278921	-0.16360904
17	0xbe39782c	-0.18112248
18	0x3dc19139	0.09451527
19	0x3dc1d7f5	0.09465019
20	0xbc1c45ba	-0.0095381085
21	0x3e61d48b	0.22053735
22	0x3e8da0c0	0.27661705
23	0x3d73154c	0.059346482
24	0x3f1a9ff5	0.60400325
25	0xbdb11349	-0.086462565
26	0x3f0c8db2	0.5490371
27	0xbe92ef4d	-0.28698197
28	0x3e5e8f9b	0.21734469
29	0xbed2d82c	-0.4118055
30	0x3d7fc37a	0.06244228
31	0x3e4a1623	0.19735007
32	0x3e9bd4b6	0.30435723
33	0xbd73407d	-0.059387673
34	0x3f5a6c05	0.85321075
35	0xbe9b6b14	-0.30355132
36	0xbd3336f7	-0.04375359
37	0xbc4d87aa	-0.012544552
38	0x3e21445f	0.15748738
39	0xbc0bdb23	-0.008536133
40	0xbf125a46	-0.57168996
41	0xbe6bf5b3	-0.23042946
42	0xbe07f5bc	-0.13277334
43	0x3edfbe15	0.4369971
44	0xbebcd1c5	-0.3687879
45	0xbed884ed	-0.42288914
46	0xbf189e19	-0.5961624
47	0xbe8e5bab	-0.27804312
48	0x3e278f55	0.1636327
49	0xbee4ed86	-0.44712466
50	0x3dde57a7	0.10856562
51	0xbe80fb6e	-0.25191826
52	0xbf1421ba	-0.5786396
53	0x3f077a55	0.5292104
54	0xbe295522	-0.16536382
55	0xbe3820eb	-0.17981307
56	0x3eaa3ade	0.33248037
57	0xbe59e850	-0.21280026
58	0xbdd64639	-0.10462613
59	0x3eac15aa	0.33610278
60	0x3d99a8bf	0.07502889
61	0x3e440f6c	0.19146508
62	0x3e9f1f6a	0.31078655
63	0xbf36127d	-0.7112196
64	0x3ecfd1b2	0.40589672
65	0xbf131df4	-0.5746758
66	0xbda41aac	-0.080129
67	0x3f0d61fb	0.5522763
68	0x3d1d0340	0.038333178
69	0x3ebc4a3c	0.36775386
70	0xbefb6f46	-0.49108332
71	0xbc3680d4	-0.011139113
72	0x3ea469d4	0.3211199
73	0x3da42fa3	0.080168985
74	0xbe943f54	-0.28954566
75	0xbd793df0	-0.060850084
76	0x3f1f2b6b	0.62175626
77	0xbe917607	-0.2841036
78	0x3f07de53	0.53073615
79	0x3efaf4be	0.49014848
80	0xbf3976ea	-0.72447073
81	0x3e4a60b4	0.19763452
82	0x3e36c805	0.17849739
83	0xbb8957c9	-0.004191373
84	0xbeb90895	-0.3613936
85	0xbe263f93	-0.16235189
86	0x3ea270d3	0.31726703
87	0xbef89ead	-0.4855856
88	0x3eaf91a0	0.3429079
89	0xbe67f825	-0.22653253
90	0x3e8680cd	0.26270142
91	0x3f19dbbd	0.6010092
92	0x3ef32a10	0.4749303
93	0xbd0d3455	-0.034473736
94	0xbd891192	-0.066928044
95	0xbf98943d	-1.1920239
96	0x3e1cfaab	0.15329997
97	0xbebf8a03	-0.37409982
98	0xbf8c92d0	-1.0982304
99	0x3e8ae4b7	0.2712762
100	0xbecd153a	-0.40055257
101	0xbcdab595	-0.026697913
102	0x3eba4b58	0.36385608
103	0xbed6ae27	-0.41929743
104	0xbe68b793	-0.22726278
105	0xbb4c4faf	-0.0031175425
106	0x3dcb4aa8	0.09926349
107	0xbde1fae6	-0.11034183
108	0xbcaa3acb	-0.020779988
109	0xbe95e990	-0.29279757
110	0xbed2f3e9	-0.41201714
111	0x3e8ca602	0.27470404
112	0xbef4ca20	-0.4781046
113	0x3e465b7e	0.19370839
114	0xbea89908	-0.32929254
115	0xbee811ec	-0.45326173
116	0xbeda172b	-0.425958
117	0x3e021f3a	0.12707224
118	0xbf7580c9	-0.95899636
119	0xbeb339ad	-0.3500494
120	0xbf39bcc3	-0.7255365
121	0x3e7492a1	0.2388406
122	0x3de7c6c7	0.11317211
123	0x3e9b99dc	0.30390823
124	0x3e109067	0.14117585
125	0xbe662523	-0.22475104
126	0x3e443355	0.19160207
127	0xbf911da1	-1.1337167
128	0xbe1d7f7f	-0.15380667
129	0xbf05523f	-0.5207862
130	0xbe15de15	-0.14635499
131	0x3f16335f	0.58672136
132	0xbddd91a7	-0.108187966
133	0xbf02765a	-0.5096184
134	0x3f100914	0.5626385
135	0xbf18c45c	-0.5967462
136	0xbcc1c691	-0.023654254
137	0x3ca1b0e7	0.019737674
138	0x3e060a36	0.13089833
139	0xbf25c260	-0.6474972
140	0x3e05d13c	0.13068098
141	0xbdd8b757	-0.10581844
142	0x3eae966f	0.34099147
143	0xbe87da64	-0.26533806
144	0xbdd1666a	-0.10224612
145	0xbeefee34	-0.46861422
146	0x3d2c44be	0.042057745
147	0xbe0ded30	-0.13860011
148	0xbfad0463	-1.3516964
149	0xbdeb8810	-0.11500561
150	0x3f1a2969	0.60219437
151	0xbe83f2eb	-0.2577127
152	0xbe221aa8	-0.15830481
153	0x3ee5eb5d	0.4490613
154	0xbf035f60	-0.51317406
155	0xbcb3417b	-0.02188181
156	0xbe9d6b55	-0.3074595
157	0xbec83399	-0.39101866
158	0x3dbb9465	0.091591634
159	0xbeae03e7	-0.33987352
160	0x3eb01062	0.343875
161	0x3e88365d	0.26603976
162	0x3de41d17	0.11138361
163	0xbee94564	-0.45560753
164	0xbc08cdc5	-0.0083498405
165	0xbf18f1d4	-0.59744
166	0x3eaf72e7	0.3426735
167	0x3f0ccca8	0.5499978
168	0x3d9d6e77	0.07687085
169	0x3e72b2ca	0.23701015
170	0x3dd9ab7b	0.106284104
171	0x3eca33cc	0.39492643
172	0xbec7ae08	-0.38999963
173	0x3c8b9b93	0.017041957
174	0xbf7e079f	-0.9923038
175	0x3e696fda	0.22796574
176	0x3e957977	0.29194233
177	0x3e7ec302	0.24879077
178	0xbedf0d1d	-0.43564692
179	0xbe893d41	-0.26804546
180	0x3eda8663	0.42680654
181	0x3edc33b6	0.43008202
182	0xbeb736eb	-0.35784087
183	0xbeecd275	-0.46254316
184	0x3f050437	0.51959556
185	0x3e91c8ff	0.2847366
186	0xbe0f1e04	-0.13976294
187	0xbe0267e4	-0.12734944
188	0xbd8192ff	-0.063268654
189	0xbea1339e	-0.31484693
190	0x3ec239db	0.37934765
191	0xbe1d1109	-0.1533853
192	0xbeea96a7	-0.45818064
193	0x3d8d7344	0.06906751
194	0xbeb90d58	-0.36142993
195	0xbecb897f	-0.3975334
196	0xbee2c82c	-0.44293344
197	0xbe7d9df1	-0.24767281
198	0xbeb638da	-0.3559025
199	0x3e8a6fb1	0.2703834
200	0xbc410278	-0.011780374
201	0xbf7f0b4e	-0.99626625
202	0xbdad5d6d	-0.08465085
203	0xbcef5aa2	-0.029218022
204	0xbe92af83	-0.2864953
205	0xbebf8e6b	-0.37413344
206	0xbed7b0b7	-0.4212701
207	0x3e8e060e	0.27738994
208	0xbd6bb0b5	-0.057541568
209	0x3e67c761	0.22634651
210	0xbe6b0885	-0.22952469
211	0xbf03ec05	-0.5153201
212	0xbda7319b	-0.08163758
213	0x3f02e309	0.5112768
214	0xbdbefb7b	-0.0932531
215	0x3e513923	0.20431952
216	0x3ede77d7	0.43450806
217	0xbde0ef87	-0.10983186
218	0xbe7fd613	-0.24984007
219	0x3e5a2867	0.21304475
220	0x3ee1fac2	0.44136626
221	0x3d83cc7f	0.06435489
222	0xbc473ce5	-0.0121605145
223	0x3ea66f22	0.32506663
224	0x3d98aac4	0.07454446
225	0xbd965b5f	-0.073416464
226	0xbe566a8e	-0.20939085
227	0x3e663bc8	0.22483742
228	0xbe005f7d	-0.12536426
229	0x3b726150	0.0036984272
230	0x3ec62afe	0.38704675
231	0xbf901e80	-1.1259308
232	0xbf245ccf	-0.64204115
233	0x3c409202	0.011753561
234	0x3efd57a0	0.49480915
235	0xbc80ecc0	-0.015737891
236	0xbea1cb30	-0.31600332
237	0x3e17ae8a	0.14812675
238	0x3f3ed2d4	0.7454045
239	0x3f41b3b1	0.7566481
240	0x3e5d565a	0.21614972
241	0x3cfece18	0.031104133
242	0xbf040055	-0.51563007
243	0x3e375635	0.17903979
244	0x3eb52caa	0.35385638
245	0xbe8f183c	-0.27948177
246	0xbda75981	-0.081713684
247	0xbe8f19cb	-0.27949366
248	0xbeb04a6d	-0.34431782
249	0xbdf2f657	-0.11863392
250	0x3eafb6f8	0.34319282
251	0x3eb2a450	0.34890985
252	0xbe619ab9	-0.22031678
253	0x3f3beeed	0.73411447
254	0xbe2112df	-0.15729855
255	0xbf1e695d	-0.6187952

model_1/conv2d_5/BiasAdd/ReadVariableOp:0 f4 [20]
0	0x401685bb	2.3519123
1	0x3eed4958	0.4634502
2	0x3f0bfaa7	0.5467934
3	0xbd9369f2	-0.07197942
4	0xbed20189	-0.41016796
5	0x3f5863c3	0.84527224
6	0x3f21a10d	0.6313637
7	0x3e91c530	0.28470755
8	0x3edf3cae	0.43600982
9	0x3ed7c626	0.42143363
10	0xbe8359f0	-0.25654554
11	0xbe5b810e	-0.21435949
12	0x3f546bdf	0.829771
13	0x3f9d1750	1.227274
14	0x3f91743e	1.1363599
15	0x3f822deb	1.0170263
16	0x3eb1b750	0.3471017
17	0x3f94f7b6	1.1638095
18	0x3f758781	0.9590989
19	0xbe923fc0	-0.28564262

model_1/conv2d_4/Conv2D/ReadVariableOp:0 f4 [20, 16, 1, 1]
0	0xbe2b2080	-0.16711617
1	0x3eb39770	0.35076475
2	0x3ee7ef17	0.452996
3	0x3f2adf09	0.66746575
4	0xbe100575	-0.14064582
5	0xbd15e3c2	-0.03659416
6	0x3ea4ab06	0.3216173
7	0xbe96bf80	-0.29442978
8	0xbeed6f14	-0.46373808
9	0x3daf5d4d	0.085627176
10	0xbe4973d4	-0.19673091
11	0xbe5a330f	-0.2130854
12	0x3b8f675d	0.0043763355
13	0xbdef25c2	-0.116771236
14	0xbf8fc188	-1.1230936
15	0x3f27053d	0.6524237
16	0xbe022afd	-0.12711711
17	0x3f212c39	0.62958103
18	0x3e39ef00	0.18157578
19	0x3ed506f8	0.4160688
20	0x3e8153b6	0.2525918
21	0x3eb16f12	0.34655052
22	0xbf4c9035	-0.7990754
23	0xbe13ba74	-0.14426595
24	0x3f04ee6e	0.51926315
25	0xbe1a07e8	-0.15042078
26	0xbe1f2c3b	-0.15544216
27	0x3e87be0e	0.26512188
28	0xbefb048d	-0.4902691
29	0xbe2c1b7b	-0.16807358
30	0xbef97c06	-0.48727435
31	0xbe83cf6a	-0.25744182
32	0x3e830728	0.25591397
33	0x3ee6708b	0.45007738
34	0x3ed204d4	0.4101931
35	0xbe36d600	-0.17855072
36	0x3ca90ab4	0.020634986
37	0x3f0eb3f1	0.5574332
38	0xbf01912b	-0.50612134
39	0xbd8ea24f	-0.06964552
40	0x3e2746a9	0.16335548
41	0x3eb0cb13	0.34529933
42	0x3d3c01ee	0.045900278
43	0x3eb9f3a1	0.36318687
44	0xbe14d9e6	-0.14536247
45	0xbea1cf00	-0.3160324
46	0xbeb66070	-0.3562045
47	0x3f07f6c2	0.531109
48	0x3d7349b2	0.059396453
49	0xbe8112ee	-0.25209755
50	0x3ea8a3f6	0.32937592
51	0xbec89777	-0.39178059
52	0xbe93c7bb	-0.2886332
53	0x3f058f09	0.5217138
54	0xbe398d63	-0.18120341
55	0xbe98fc0a	-0.2987979
56	0x3e9297f5	0.2863156
57	0x3ea9cdaa	0.33164722
58	0xbee8e772	-0.4548908
59	0xbebe9b52	-0.37227875
60	0xbe63847d	-0.22218509
61	0x3e6050fb	0.21905892
62	0x3d41bb8a	0.04729799
63	0x3e540501	0.20705034
64	0xbef33714	-0.4750296
65	0x3e9598cb	0.29218134
66	0x3ea942ea	0.33058864
67	0xbe03358a	-0.12813392
68	0xbec5928b	-0.38588366
69	0x3e9a22c3	0.30104646
70	0x3eab3686	0.33440036
71	0x3f355beb	0.7084338
72	0x3ce1a73f	0.02754557
73	0x3ecbbc69	0.39792183
74	0xbf0f5e26	-0.56003034
75	0x3ebff963	0.37494954
76	0x3ef29840	0.47381783
77	0xbea987c2	-0.33111387
78	0x3e6b914e	0.23004648
79	0xbd84dd13	-0.06487479
80	0xbdbc1836	-0.09184305
81	0xbdaecd63	-0.08535268
82	0xbeed0700	-0.46294403
83	0x3e2e0bea	0.16996732
84	0xbe946cc5	-0.28989235
85	0xbeef9e38	-0.468004
86	0xbbc320a9	-0.005954821
87	0x3f74bff9	0.9560543
88	0x3e34db3a	0.17661753
89	0xbcb17256	-0.021660965
90	0xbf49333f	-0.7859382
91	0x3ed831a2	0.42225367
92	0x3dd1902c	0.10232577
93	0xbdb701aa	-0.08935864
94	0x3d8fb67a	0.070172265
95	0x3e9cb0db	0.3060368
96	0x3e7267e6	0.23672447
97	0x3f513800	0.81726074
98	0x3f069e35	0.52585155
99	0xbe8a09c0	-0.26960564
100	0x3c3bab72	0.01145445
101	0x3e3688b2	0.17825583
102	0xbe971df5	-0.29515043
103	0x3f2798ed	0.6546772
104	0x3ea6b672	0.3256107
105	0x3eb60902	0.35553747
106	0x3db2ce2b	0.0873073
107	0x3f73fd78	0.9530864
108	0xbf3edaa9	-0.745524
109	0xbf34eaaa	-0.7067057
110	0x3d93efd6	0.072234794
111	0x3cde67c5	0.02714909
112	0x3ddc4471	0.10755242
113	0x3fa7a774	1.3097978
114	0x3e8cdf28	0.27514005
115	0x3e75c5af	0.24001192
116	0x3e12d20f	0.14337943
117	0xbf0e3b8f	-0.5555963
118	0xbdf51202	-0.11966325
119	0x3f06b139	0.5261417
120	0x3f3f443c	0.7471349
121	0xbd251f9c	-0.04031335
122	0xbe8520ef	-0.2600169
123	0xbe9f8991	-0.31159642
124	0x3f200f05	0.6252292
125	0x3e92f37d	0.28701392
126	0x3f16aeef	0.5886068
127	0xbf16cb81	-0.5890427
128	0xbda1ef9c	-0.0790703
129	0x3e83fb04	0.25777447
130	0x3e3c8aaa	0.18412271
131	0xbe712b23	-0.23551612
132	0xbe3a3438	-0.18183982
133	0xbe6660d5	-0.22497876
134	0x3e48727a	0.1957492
135	0x3e255496	0.16145548
136	0xbe795567	-0.24348985
137	0x3ec79c7f	0.38986585
138	0xbd88f195	-0.06686703
139	0x3c40e51f	0.011773377
140	0x3e85a40a	0.26101714
141	0x3d858aff	0.06520652
142	0x3dda8563	0.10669973
143	0x3dfd0c76	0.12355892
144	0x3f149f5a	0.5805565
145	0x3eaa3ef3	0.3325115
146	0x3e4d0e7b	0.20025055
147	0x3d346c03	0.04404832
148	0x3f4d8992	0.8028804
149	0x3ed52e57	0.41636917
150	0x3ec663e4	0.38748085
151	0xb911baea	-0.00013897909
152	0xbc4b5ad4	-0.012411792
153	0x3eb93a65	0.36177364
154	0xbeabdef4	-0.33568537
155	0x3f18bfce	0.5966767
156	0x3ec0c9eb	0.3765405
157	0xbf49bb69	-0.7880159
158	0xbef1955d	-0.47184268
159	0xbbc04e77	-0.0058687287
160	0x3e2f2e76	0.17107567
161	0x3e3ffab8	0.18747985
162	0xbe859285	-0.26088348
163	0xbd1660e2	-0.03671349
164	0xbe54e6d5	-0.2079118
165	0xbccb228a	-0.024796743
166	0xbe28bfcf	-0.16479419
167	0xbf14aaae	-0.58072937
168	0x3d8f21a0	0.06988835
169	0x3f0940db	0.53614587
170	0x3f84ab48	1.0364771
171	0xbdde8f39	-0.10867161
172	0x3dc5d97b	0.09660622
173	0x3f0ee970	0.5582495
174	0x3f743b0d	0.95402604
175	0xbf3e36aa	-0.7430216
176	0x3ea4dbcd	0.32198945
177	0x3f0b815c	0.5449426
178	0x3df124d1	0.117746
179	0xbf1ce528	-0.61287165
180	0xbbd2e4e6	-0.006435978
181	0xbe60dcb8	-0.21959198
182	0xbf8ba16e	-1.090864
183	0x3ea5a489	0.32352093
184	0xbe339dfc	-0.17540735
185	0x3ee01c40	0.43771553
186	0x3ee22b3a	0.44173604
187	0xbd62408f	-0.05523735
188	0xbe472bcb	-0.194503
189	0x3e34a17b	0.17639725
190	0xbb600314	-0.0034181522
191	0xbf0964d6	-0.5366949
192	0xbe683f14	-0.22680312
193	0x3e59fcca	0.21287838
194	0xbf7d7823	-0.9901144
195	0x3eb23d9e	0.34812635
196	0x3ebb85fe	0.36625665
197	0x3e5bb604	0.21456152
198	0x3c907b40	0.017636895
199	0xbece5113	-0.4029623
200	0xbdeaa417	-0.11457079
201	0x3db3d77f	0.08781337
202	0xbec9877a	-0.39361173
203	0x3e95e318	0.2927482
204	0x3e517bd7	0.20457397
205	0xbde7e6fa	-0.11323352
206	0x3d30274b	0.043006223
207	0x3e38f3b6	0.18061718
208	0xbd95bd75	-0.07311527
209	0x3e75541c	0.23957866
210	0x3e6fd371	0.23420502
211	0xbe3f7db8	-0.18700302
212	0x3e33bb22	0.17551854
213	0x3e27e972	0.16397646
214	0xbd872369	-0.06598551
215	0x3f31aa6f	0.69400686
216	0xbecb3384	-0.3968774
217	0x3f257f83	0.6464769
218	0x3f34b2ca	0.7058531
219	0x3ed3634b	0.41286692
220	0x3e8dc0f9	0.2768629
221	0x3e146e61	0.14495231
222	0xbe2c4e70	-0.16826797
223	0x3f5fa291	0.8735743
224	0x3e693a50	0.2277615
225	0xbda440c6	-0.08020167
226	0x3f6ae740	0.9175911
227	0x3e1c7ceb	0.15282027
228	0xbeffd19f	-0.49964616
229	0x3d8b8aaa	0.068135574
230	0xbde430a4	-0.1114209
231	0xbe91682d	-0.28399792
232	0xbf2702b7	-0.6523852
233	0x3f114c47	0.56757015
234	0x3e389ed5	0.1802934
235	0xbe1d31c8	-0.15351021
236	0x3e83210d	0.25611153
237	0x3f7aef52	0.98021424
238	0xbc176e26	-0.00924257
239	0x3e849425	0.25894275
240	0xbea30a51	-0.31843808
241	0xbf297d1d	-0.6620653
242	0x3e643123	0.22284369
243	0x3d8ed371	0.06973923
244	0xbef22eb5	-0.4730126
245	0xbf4e5196	-0.8059324
246	0x3edf4d7e	0.4361381
247	0x3e99c00b	0.3002933
248	0xbdf46613	-0.119335316
249	0xbe82309f	-0.2542772
250	0x3ea2f665	0.3182861
251	0x3eadaa8f	0.33919188
252	0xbea4bf5d	-0.3217725
253	0xbe0b6852	-0.13614014
254	0xbe92740c	-0.28604162
255	0xbf31360f	-0.6922311

model_1/conv2d_4/BiasAdd/ReadVariableOp:0 f4 [20]
0	0xbe88e46e	-0.26736778
1	0x3d1719fb	0.03689001
2	0x3f833b08	1.025239
3	0x3daa511e	0.08316253
4	0x3f28ba1f	0.65909
5	0x3dd588f6	0.10426514
6	0xbdb4c121	-0.08825899
7	0x3e5e52c3	0.21711259
8	0x40652f6f	3.58102
9	0x3dd70b7f	0.105002396
10	0x3e618988	0.2202512
11	0x3ef45789	0.47723034
12	0x3fa62479	1.297988
13	0xbe327d3d	-0.17430587
14	0x3f0629ce	0.5240754
15	0xbf8b5972	-1.0886672
16	0xbe039740	-0.12850666
17	0x3f6e4b42	0.93083584
18	0xbf3c1c3c	-0.7348058
19	0xbea367e1	-0.3191519

model_1/conv2d_3/Conv2D/ReadVariableOp:0 f4 [16, 24, 1, 1]
0	0xbf04801e	-0.5175799
1	0x3d46a4f6	0.048497163
2	0xbed949ec	-0.4243921
3	0xbdc4e754	-0.09614435
4	0x3e757d51	0.23973586
5	0xbe9f64a1	-0.3113146
6	0x3e276662	0.1634765
7	0xbe5225b9	-0.20522203
8	0xbde8d59e	-0.11368869
9	0x3e09acf2	0.1344488
10	0xbf0755cc	-0.5286529
11	0x3ed94198	0.42432857
12	0x3eddaf8b	0.4329799
13	0x3e7b8de8	0.24565852
14	0x3e2d3524	0.16914803
15	0xbe4a23a1	-0.19740154
16	0x3eee655f	0.46561715
17	0xbdddf9d3	-0.10838666
18	0x3ee93b05	0.4555284
19	0xbd79564d	-0.06087332
20	0xbf02ce4c	-0.51096034
21	0xbf777c20	-0.96673775
22	0x3e933a0b	0.2875522
23	0x3e172742	0.1476107
24	0x3e91077b	0.2832602
25	0xbdd4b8b0	-0.10386789
26	0xbdf9d3fd	-0.12198637
27	0xbe9100be	-0.2832088
28	0x3ec5eda0	0.38657856
29	0x3eef44d8	0.4673221
30	0x3f1dda1e	0.61660945
31	0xbf0a52df	-0.540327
32	0xbd1a6087	-0.037689712
33	0x3dcc5f5a	0.09979124
34	0xbd77fb8e	-0.060542636
35	0x3eef5f16	0.46752232
36	0xbdd0b0b7	-0.10189956
37	0xbefc1090	-0.49231386
38	0xbea045f7	-0.3130338
39	0x3fb3b442	1.4039385
40	0xbdc8ebea	-0.09810622
41	0x3d904154	0.0704371
42	0x3e5509be	0.20804498
43	0xbce248a9	-0.027622538
44	0xbe0e954e	-0.13924143
45	0x3eb18578	0.3467214
46	0x3e2260b7	0.15857206
47	0xbc09be85	-0.00840724
48	0x3e6f7254	0.23383456
49	0xbe5314e6	-0.20613441
50	0xbe12300b	-0.1427614
51	0xbf22219c	-0.63332534
52	0xbf1fcb48	-0.6241956
53	0xbac24692	-0.0014822057
54	0x3a920360	0.0011139922
55	0x3daf06d9	0.08546228
56	0xbec4dcc6	-0.38449687
57	0x3ef260e7	0.47339556
58	0x3ed275c0	0.4110546
59	0x3d919fdf	0.07110571
60	0xbeb6b917	-0.35688087
61	0x3e6c1e61	0.23058464
62	0xbf0f6ece	-0.5602845
63	0xbe8c9d35	-0.2746369
64	0x3ded9a8f	0.11601745
65	0x3e219d6d	0.1578271
66	0xbebcf89b	-0.3690842
67	0xbeb33c52	-0.35006958
68	0xbef0a9a3	-0.47004423
69	0x3ee2d29e	0.44301313
70	0xbf6d6ad1	-0.92741114
71	0x3ed56173	0.4167591
72	0xbf39630a	-0.72416747
73	0xbe633419	-0.22187842
74	0xbdcfd717	-0.10148447
75	0x3deaf9d2	0.11473431
76	0xbe32ee37	-0.17473684
77	0x3e9cb39c	0.3060578
78	0xbed4e7d9	-0.41583136
79	0x3e8c5921	0.2741175
80	0x3e3b749f	0.18306206
81	0xbea271d1	-0.3172746
82	0xbe8d5eae	-0.27611297
83	0x3ee8287a	0.4534338
84	0x3ee13ce3	0.43991765
85	0xbde5dfee	-0.11224352
86	0x3c80b9d1	0.015713604
87	0xbf0278a9	-0.5096536
88	0xbf1f0f38	-0.62132597
89	0xbe4dd642	-0.20101264
90	0xbec044fb	-0.37552628
91	0x3ccde054	0.025131382
92	0xbf040ef5	-0.5158532
93	0x3e3ab7a5	0.18234117
94	0xbd0b65b6	-0.034032546
95	0xbe88ba57	-0.26704666
96	0x3dadbed5	0.08483664
97	0x3f45d3ab	0.77276105
98	0xbea6f303	-0.32607278
99	0x3e3cd304	0.18439871
100	0xbc575094	-0.01314177
101	0x3f17f1ed	0.59353524
102	0x3ebb84e1	0.36624816
103	0xbef876d3	-0.48528156
104	0x3d665fcb	0.0562437
105	0x3d3f9695	0.046774466
106	0x3f5af095	0.8552335
107	0xbe494ead	-0.19658919
108	0xbf6360dd	-0.88819677
109	0xbf535da6	-0.8256477
110	0x3da461d8	0.08026475
111	0x3ef6c2a0	0.48195362
112	0x3f6d034a	0.92583144
113	0xbd723bef	-0.05913919
114	0xbf03adfc	-0.51437354
115	0xbd3ea224	-0.046541348
116	0x3bf13adc	0.007361753
117	0xbece114a	-0.40247566
118	0xbe13539f	-0.14387368
119	0x3ee1c04a	0.44092017
120	0x3e19b6d5	0.15011151
121	0xbe931dd8	-0.28733706
122	0xbf1b7927	-0.6073174
123	0x3e46bb9e	0.19407508
124	0x3f033136	0.51246965
125	0xbf0408d5	-0.51575977
126	0x3eae57f9	0.34051493
127	0x3f0e49bb	0.55581254
128	0xbf4134c5	-0.75471145
129	0xbf445fc8	-0.7670865
130	0xbec8017f	-0.3906364
131	0xbca1add4	-0.019736208
132	0xbe3886c9	-0.18020166
133	0x3e63cc15	0.2224582
134	0x3ee67832	0.45013577
135	0xbe956fbb	-0.29186806
136	0xbe06936d	-0.13142176
137	0xbe2e4bd7	-0.17021118
138	0xbd86f68c	-0.06589994
139	0xbb992fbb	-0.0046748794
140	0x3e0a7c5b	0.13524
141	0x3df53d56	0.119745895
142	0x3d076a84	0.033060566
143	0x3f4af6d9	0.7928291
144	0xbdefcbcf	-0.11708795
145	0x3ea10472	0.31448704
146	0x3ef6238a	0.4807399
147	0xbee46b11	-0.44612935
148	0xbf411a9e	-0.7543124
149	0x3e843e74	0.25828898
150	0xbec16f3a	-0.37780172
151	0x3d6ff359	0.058581684
152	0xbec4699a	-0.38361818
153	0x3da47218	0.08029574
154	0x3ee8dc44	0.4548055
155	0xbc3cc399	-0.0115212435
156	0x3dc0473b	0.09388586
157	0x3e03fa2f	0.12888406
158	0xbebee9e3	-0.37287816
159	0x3de11b72	0.10991563
160	0xbe608329	-0.21925034
161	0x3f74c953	0.95619696
162	0x3f727151	0.9470416
163	0xbb8ddf76	-0.004329617
164	0xbcd9f2a9	-0.026604967
165	0x3e0bca21	0.13651325
166	0x3f1dff6e	0.6171788
167	0x3835bf98	4.33322e-05
168	0x3e849fac	0.2590307
169	0x3eab741c	0.33487022
170	0xbf480fae	-0.78148925
171	0x3e671001	0.22564699
172	0xbe0ffb4e	-0.14060709
173	0x3eb42e20	0.3519144
174	0x3e3855ae	0.18001434
175	0x3f30fa03	0.6913149
176	0x3e93fe84	0.28905118
177	0x3ea0c21b	0.3139809
178	0x3eed77cc	0.4638046
179	0xbcd597ac	-0.0260733
180	0x3ddd71e2	0.10812737
181	0x3f072fa9	0.528071
182	0xbdc2ca0b	-0.09511193
183	0xbe2e178a	-0.17001167
184	0x3e3de41c	0.18544048
185	0x3f86f9db	1.0545
186	0x3f435eec	0.76316714
187	0x3e1c0eb2	0.15239981
188	0xbea48960	-0.3213606
189	0xbd24a974	-0.040200666
190	0xbe18eb16	-0.14933428
191	0xbcd1f629	-0.025630074
192	0x3f799be6	0.9750351
193	0xbe9531b9	-0.29139498
194	0xbee0f3fe	-0.4393615
195	0x3dcbe344	0.09955457
196	0x3b074310	0.0020639338
197	0xbd5e2000	-0.054229736
198	0x3f5b6e71	0.85715395
199	0xbd611c63	-0.054958712
200	0x3ee8d419	0.45474318
201	0xbc9948b1	-0.01871142
202	0x3e49cab0	0.19706225
203	0x3e0aaec4	0.1354323
204	0x3f1182d4	0.5684025
205	0x3e19162a	0.14949861
206	0xbe748347	-0.23878203
207	0xbd07b1f9	-0.033128712
208	0xbe8b050d	-0.2715229
209	0xbefd0ddb	-0.49424633
210	0xbe9c50fb	-0.30530533
211	0xbdf7b570	-0.12095153
212	0xbd867b86	-0.06566529
213	0xbf183093	-0.5944912
214	0x3dd31067	0.10305863
215	0xbea88f9d	-0.32922068
216	0xbe38a3a7	-0.18031178
217	0xbba714b2	-0.0050989026
218	0x3d88d45e	0.06681131
219	0x3e43a076	0.1910418
220	0x3da80dcd	0.08205757
221	0xbdce480e	-0.10072337
222	0xbe3e6686	-0.18593797
223	0xbf0ed398	-0.55791616
224	0xbe0d6aa4	-0.13810211
225	0x3e100f4e	0.14068338
226	0x3e1f4b79	0.15556134
227	0x3ecf9b66	0.40548247
228	0xbe076a01	-0.13224031
229	0x3dad8fda	0.08474703
230	0x3edb7523	0.42862806
231	0xbf4dd248	-0.8039899
232	0xbed61320	-0.41811466
233	0xbf232984	-0.6373522
234	0xbe86f11d	-0.2635583
235	0xbe8097e3	-0.2511588
236	0x3e9c277c	0.30498874
237	0xbed2a61c	-0.41142356
238	0xbf53c2d8	-0.8271918
239	0x3f1caa41	0.61197287
240	0xbf2a7382	-0.665825
241	0xbec63c16	-0.38717717
242	0xbdf2261f	-0.11823677
243	0x3dc21431	0.094765075
244	0x3f11b18f	0.5691156
245	0xbf11083b	-0.56653184
246	0xbe49ffa8	-0.19726431
247	0xbe4856e4	-0.19564396
248	0xbf25c146	-0.64748037
249	0x3e0971f3	0.13422374
250	0xbedf0144	-0.43555653
251	0xbe51becc	-0.2048294
252	0xbe3e05cc	-0.18556899
253	0x3eae01f2	0.3398586
254	0x3f29c23a	0.6631199
255	0xbe080a75	-0.13285239

model_1/conv2d_3/BiasAdd/ReadVariableOp:0 f4 [16]
0	0x3de2c3bd	0.1107249
1	0x3e283816	0.16427645
2	0x3d6b0b56	0.057383858
3	0x3e89da62	0.26924425
4	0xbc3b3727	-0.011426724
5	0x3ebc57fb	0.36785874
6	0x3f7bcd3d	0.98360044
7	0x3f1f780c	0.6229255
8	0x3dc0c91a	0.09413357
9	0xbe832551	-0.25614408
10	0x3d45cb2e	0.04828947
11	0x3ecf6838	0.405092
12	0x3f35b46c	0.70978427
13	0x3e884412	0.26614434
14	0xbf0fa36b	-0.5610873
15	0xbc0fd1ba	-0.00877803
