Config/NeuralNets/FieldBoundary/net-uncertainty.onnx (onnx, 78247 bytes, 50 tensors)

model1/stage4-branch3-reduction/Conv2D_weights_fused_bn f4 [16, 48, 1, 1]
0	0xbd245e65	-0.040129084
1	0xbccb2d80	-0.02480197
2	0x3c561414	0.01306631
3	0xbd1d160c	-0.038351104
4	0xbbc0bac1	-0.005881638
5	0xbdb1e543	-0.08686306
6	0xbcb6c462	-0.02231044
7	0xbd5adc76	-0.053432904
8	0xbd9828a0	-0.074296236
9	0x3c987e17	0.018614812
10	0xbc4d34bb	-0.012524779
11	0x3cc185fa	0.023623455
12	0x3cf40dde	0.029791769
13	0x3d17003f	0.03686547
14	0xbd216078	-0.03939864
15	0xbca11b22	-0.019666258
16	0x3d865e60	0.06560969
17	0xbd69f366	-0.05711689
18	0xbc33ecf9	-0.010981792
19	0xbdbc47a4	-0.09193352
20	0x3cfe669c	0.031054787
21	0x3d64abfb	0.055828076
22	0x3da08a73	0.07838907
23	0x3cfe8119	0.031067418
24	0xbd8f0ba9	-0.06984646
25	0x3c0e0455	0.008668025
26	0xbd344318	-0.044009298
27	0xbcc878ca	-0.02447166
28	0xbd6f3b09	-0.05840591
29	0xbb158310	-0.0022813715
30	0x3bdd3e1a	0.006751788
31	0x3c567199	0.013088607
32	0x3d8ee840	0.06977892
33	0x3d709e76	0.05874487
34	0x3dab799f	0.08372807
35	0xbd91ca66	-0.071186826
36	0xbd60fdfc	-0.05492972
37	0xbbab6405	-0.005230429
38	0xbc781156	-0.015140852
39	0xbd29d8c4	-0.04146649
40	0x3d8f1723	0.06986835
41	0xbc02da29	-0.007986584
42	0xbd442fa6	-0.047897004
43	0x3d4e00d0	0.050293744
44	0x3d41c586	0.047307514
45	0xbd38dcfc	-0.045132622
46	0x3d0749cb	0.03302936
47	0x3d87e9b4	0.06636372
48	0xbc62d278	-0.013844125
49	0x3d0abdbe	0.03387236
50	0xbc8735cf	-0.01650515
51	0x3dae1219	0.084995456
52	0x3cd5ddba	0.026106704
53	0x3d2dd5d1	0.04244024
54	0x3cf1b2e3	0.029504245
55	0x3ca83c71	0.020536633
56	0xbdc76dfa	-0.09737773
57	0xbc3f7f0a	-0.011688003
58	0xbd026a51	-0.031839672
59	0x3bf149cc	0.0073635336
60	0x3dc55ee7	0.09637242
61	0x3d6270fe	0.05528354
62	0xbc89448f	-0.016756324
63	0xbd00a100	-0.03140354
64	0x3d3e97d2	0.046531506
65	0xbda1edf1	-0.07906712
66	0x3c017d04	0.007903341
67	0xbe500b54	-0.20316821
68	0xbb981caf	-0.004642091
69	0x3d013b0c	0.031550452
70	0x3d70114f	0.058610257
71	0x3b58fa4c	0.0033108173
72	0xbc303a5c	-0.010756101
73	0xbc1422e2	-0.00904152
74	0xbda79556	-0.081827804
75	0xbda119de	-0.07866262
76	0xbcfb3b9a	-0.030668069
77	0xbb526634	-0.0032104375
78	0x3d0992d8	0.033587307
79	0x3d919a33	0.07109489
80	0xbcfaabab	-0.030599436
81	0x3d3cf505	0.046132106
82	0x3d59e35f	0.053195354
83	0x3bae3c65	0.005317258
84	0xbdb027e3	-0.08601358
85	0x3d688fdb	0.056777816
86	0xbc96a144	-0.018387444
87	0x3c7bb06d	0.015361887
88	0xbc9e4f97	-0.01932506
89	0xbc005c8f	-0.007834568
90	0xbd32e2d5	-0.043673355
91	0x3c60a11a	0.013710285
92	0x3c75fc94	0.015013833
93	0xbba61234	-0.005068088
94	0x3d4336b0	0.047659576
95	0x3b9c6cf5	0.004773731
96	0xbca70051	-0.020385893
97	0xbd37eb3c	-0.04490207
98	0xbccde303	-0.025132662
99	0xbd93c619	-0.072155185
100	0xbd801684	-0.062542945
101	0xbbf03ca7	-0.007331449
102	0xbd358684	-0.044317737
103	0x3bbf4a6e	0.00583773
104	0x3bcf652d	0.0063291998
105	0xbdbe7977	-0.09300511
106	0x3be21a7d	0.0069001303
107	0xbb624723	-0.0034527264
108	0x3d83b411	0.06430829
109	0xbe0bbd64	-0.13646466
110	0xbe05f4e9	-0.13081707
111	0x3e14e5b3	0.14540748
112	0x3cd91df3	0.026503539
113	0x3cde6e75	0.02715228
114	0xbd2489c8	-0.04017046
115	0x3dbb5ebc	0.091489285
116	0xbc9091c6	-0.017647635
117	0x3d3bfa53	0.045893025
118	0xbacbade5	-0.0015539496
119	0x3d338abe	0.043833487
120	0xbd75c800	-0.060005188
121	0xbacaf13e	-0.0015483273
122	0xbca57c17	-0.020200772
123	0x3d6c2953	0.057656597
124	0x3c4ac1f2	0.012375342
125	0x3d17157c	0.036885723
126	0xbdc4d9a5	-0.09611825
127	0xbd205c4e	-0.03915053
128	0x3d1c4fcf	0.03816205
129	0x3d8b6b6d	0.06807599
130	0x3d3b050a	0.045659102
131	0xbdc94889	-0.09828288
132	0xbd9c1d27	-0.07622748
133	0xbd025a83	-0.0318246
134	0xbb70860f	-0.0036701
135	0x3d61b987	0.055108573
136	0x3d59e522	0.053197034
137	0xbcbd91e7	-0.02314086
138	0xbdb0dba1	-0.08635641
139	0x3dcfd995	0.10148922
140	0xbc8b6067	-0.017013742
141	0x3d27484b	0.04084043
142	0xbc5d49d1	-0.013506369
143	0xbc38573e	-0.011251269
144	0xbcaec009	-0.021331804
145	0xbd724bca	-0.05915431
146	0xbbd01056	-0.0063496036
147	0xbd697a4b	-0.057001393
148	0xbd4758d2	-0.04866869
149	0xbccbcd83	-0.024878269
150	0xbd31b926	-0.043389462
151	0x3c2878e8	0.010282733
152	0xbce83b0f	-0.028348474
153	0xbb4473ee	-0.0029976326
154	0x3cd0e1f0	0.02549836
155	0x3cc05e49	0.023482459
156	0xbbb10e6a	-0.0054033296
157	0x3d2b471e	0.04181587
158	0xbc9ff879	-0.01952766
159	0x3c05deeb	0.008170824
160	0x3c648bdf	0.0139493635
161	0x3c8466ee	0.016162362
162	0x3c38bbac	0.011275213
163	0x3c24d848	0.010061331
164	0x3c9351d2	0.01798335
165	0xbcfc1712	-0.03077272
166	0xbc987186	-0.01860882
167	0x3bf42974	0.0074512307
168	0xba1f8f19	-0.0006086692
169	0x3c26d210	0.010181919
170	0x3b72fa6e	0.0037075537
171	0x3ca56618	0.020190284
172	0x3c0fbd45	0.008773153
173	0x3c50574f	0.0127161285
174	0xbc9c67f8	-0.019092545
175	0x3c25c7e9	0.010118463
176	0xbc385f0e	-0.011253132
177	0x3be80ab6	0.007081355
178	0xbd3da0a3	-0.046295773
179	0x3c02fc89	0.007994779
180	0xbb06ae3b	-0.0020550627
181	0xbc1ad8c8	-0.009451099
182	0x3cc2aa38	0.023762807
183	0x3c983165	0.01857824
184	0xbbcae0fb	-0.0061913705
185	0xbc89d398	-0.016824529
186	0xbc23c69a	-0.009996081
187	0xbbd29080	-0.006425917
188	0xbc2abdbc	-0.010421213
189	0x3cfbcdc2	0.030737761
190	0xbcef215e	-0.029190715
191	0xbbb108b9	-0.005402651
192	0xbc8b31a3	-0.016991442
193	0x3bc9b9d0	0.006156184
194	0x3d76dada	0.060267307
195	0xbdd0f096	-0.10202138
196	0xbc986784	-0.018604048
197	0x3de08c88	0.10964304
198	0xbc82392c	-0.015896402
199	0x3d246466	0.04013481
200	0x3c66f24a	0.014095852
201	0xbaef5b90	-0.0018261541
202	0xbd525b3d	-0.051356543
203	0xbcf09c57	-0.029371424
204	0xbdb7da1f	-0.0897715
205	0x3d24cdca	0.04023532
206	0xbda15a62	-0.07878567
207	0xbd02a85a	-0.031898834
208	0x3c524ddd	0.012835947
209	0x3c9f59d0	0.019452006
210	0xbcbf01c4	-0.023316272
211	0xbd04c3f9	-0.032413457
212	0x3cbbe9be	0.022938605
213	0xbd85bc20	-0.065300226
214	0xbc78f36f	-0.015194758
215	0x3d884c23	0.06655147
216	0xbc422429	-0.011849442
217	0xbda73183	-0.081637405
218	0xbd3dc250	-0.04632789
219	0x3d4757ff	0.048667904
220	0x3d8a7323	0.06760242
221	0xbdf95092	-0.12173571
222	0xbd853dbd	-0.06505916
223	0xbcd743a5	-0.026277373
224	0xbaa90506	-0.0012895174
225	0xbbf6db8d	-0.0075334967
226	0xbd9aaee1	-0.07552887
227	0xbcacda87	-0.021100296
228	0x3cc51e90	0.024062425
229	0x3d688b65	0.056773562
230	0x3d82e181	0.06390668
231	0xbc673169	-0.014110901
232	0x3bdccf1b	0.006738556
233	0x3bcc05fc	0.0062262993
234	0x3c0b847c	0.008515473
235	0x3c509138	0.012729935
236	0x3d80873e	0.062757954
237	0xbd40c0da	-0.047058918
238	0xbd62f7b1	-0.055412
239	0x3c7f42b4	0.015579868
240	0x3d7ab724	0.061209813
241	0x3cf5e964	0.030018516
242	0x3c6e5d60	0.0145486295
243	0xbd197475	-0.037464578
244	0xbcde69a0	-0.027149975
245	0x3d5b82db	0.05359159
246	0xbd5dc4ca	-0.05414275
247	0x3d5df3bb	0.054187518
248	0x3cce4202	0.02517796
249	0x3d7fd36d	0.06245749
250	0xbcb11c6a	-0.021619994
251	0xbd02a114	-0.031891897
252	0xbdaa0fb7	-0.083037786
253	0x3acc1e57	0.0015573007
254	0xbd2a87e3	-0.041633498
255	0xbcd6da94	-0.026227273

model1/stage4-branch3-reduction/Conv2D_bias_fused_bn f4 [16]
0	0xbe91edcc	-0.28501737
1	0xbe320515	-0.17384751
2	0x3e6397d1	0.22225882
3	0x3d8743d8	0.06604737
4	0x3e94572c	0.28972757
5	0x3d8bebb4	0.06832066
6	0x3e3a0c4e	0.18168756
7	0x3d6931f0	0.05693239
8	0xbf147412	-0.5798961
9	0x3d46a150	0.048493683
10	0x3f64d49e	0.8938693
11	0xbd16ba88	-0.036798984
12	0x3ef85d8b	0.48508868
13	0x3f4de17e	0.804222
14	0x3eb08a1f	0.34480378
15	0x3f041341	0.5159188

model1/stage4-branch2-reduction/Conv2D_weights_fused_bn f4 [8, 48, 1, 1]
0	0xbe1444f9	-0.14479436
1	0xbdfafcfb	-0.122552834
2	0x3d1f3bd4	0.038875416
3	0xbd1020db	-0.035187583
4	0xbdad0b98	-0.08449477
5	0xbdf2f4a8	-0.11863071
6	0x3d02cf92	0.031936236
7	0xbe7218b8	-0.23642242
8	0xbd3c9b31	-0.04604644
9	0x3c8aa64f	0.016925005
10	0x3c2a4a69	0.010393717
11	0xbc3bc62b	-0.011460821
12	0xbd575f4b	-0.052581113
13	0x3c910d3c	0.017706506
14	0xbe549f02	-0.20763782
15	0x3af461ad	0.0018644832
16	0xbbe27e2b	-0.006912013
17	0xbce0e83e	-0.027454492
18	0xbd90a59c	-0.070628375
19	0xbd06a8d0	-0.032875836
20	0x3bc29390	0.005938001
21	0x3d46cdaa	0.04853598
22	0xbbe6177a	-0.0070218416
23	0xbdcd03a9	-0.10010464
24	0xbd399c11	-0.045314852
25	0x3dc3e421	0.095649965
26	0xbcd71de3	-0.026259368
27	0xbba852cf	-0.0051368247
28	0xbdbe174b	-0.092817865
29	0xbc67ac57	-0.01414021
30	0xbdd9e6ba	-0.10639711
31	0x3ca00425	0.019533226
32	0x3bebe123	0.0071984692
33	0x3d24c4e1	0.04022682
34	0xbb976e51	-0.004621305
35	0xbd8d5b8f	-0.06902229
36	0xbbb82fd1	-0.0056209345
37	0xbcc3af40	-0.023887277
38	0xbcef23be	-0.029191848
39	0xbd80c195	-0.06286923
40	0xbcb81405	-0.022470484
41	0xbc560c0e	-0.0130643975
42	0xbd7d4ae4	-0.061839
43	0xbd370b7d	-0.04468869
44	0x3b744b06	0.0037276163
45	0xbc426492	-0.011864798
46	0x3d1a253e	0.037633173
47	0xbcaee766	-0.021350574
48	0xbea50e02	-0.3223725
49	0xbd5c15c8	-0.05373171
50	0x3e2ae270	0.16687942
51	0x3d8f4172	0.069949046
52	0x3e2f3f38	0.1711396
53	0x3dbe863f	0.09302949
54	0x3e8853ec	0.26626527
55	0xbe8b8b8b	-0.272549
56	0xbcda671a	-0.02666049
57	0xbdc06e88	-0.09396082
58	0xbd203c57	-0.039120045
59	0xbe9cb960	-0.3061018
60	0xbefb1b15	-0.490441
61	0xbe85b065	-0.2611114
62	0xbd77808a	-0.06042532
63	0xbe79dfd0	-0.24401784
64	0x3d90ff1c	0.07079908
65	0xbdfcdcd9	-0.12346811
66	0xbdbc52f9	-0.09195513
67	0x3e82139e	0.25405592
68	0xbaa160e6	-0.0012312203
69	0x3c6bc1e4	0.014389489
70	0xbcd9d699	-0.026591586
71	0xbb694c4c	-0.0035598455
72	0x3ca31099	0.019905375
73	0x3e076639	0.13222589
74	0x3d290e1e	0.04127323
75	0x3e08ea96	0.13370737
76	0xbe403b7e	-0.18772694
77	0xbe1ab25a	-0.15107098
78	0x3e08efb8	0.13372695
79	0x3dea2335	0.114324965
80	0x3e0dc792	0.13845661
81	0x3db83fad	0.0899652
82	0x3c76a803	0.015054706
83	0xbe0ccde7	-0.1375042
84	0xbd302b84	-0.04301025
85	0xbd9dba76	-0.0770158
86	0x3db87eac	0.09008536
87	0xbdd23f63	-0.10265996
88	0xbd963004	-0.07333377
89	0xbe03bb7c	-0.12864488
90	0xbe0b710d	-0.13617344
91	0xbd4d1490	-0.050068438
92	0xbd51023b	-0.051027518
93	0xbd1c9246	-0.038225435
94	0x3e0c35e2	0.1369243
95	0xbd8911a8	-0.06692821
96	0x3e3eff0c	0.1865198
97	0xbe280946	-0.16409788
98	0x3e182d3d	0.14861007
99	0xbe6af99a	-0.22946778
100	0x3aab6f95	0.0013079519
101	0x3e742182	0.23840907
102	0xbe6e27a0	-0.23257303
103	0x3e42fc62	0.19041589
104	0xbc6300a6	-0.013855135
105	0x3e4a89e0	0.19779158
106	0xbe43bd6d	-0.19115229
107	0x3d4d7ec5	0.050169725
108	0x3d311ad0	0.04323846
109	0x3dc41d6d	0.09575925
110	0xbdf76cdf	-0.120813124
111	0xbe1bd5c0	-0.15218258
112	0x3e2bdaf0	0.16782737
113	0xbd20722b	-0.03917138
114	0x3cb50501	0.022097113
115	0xbcfe6ac1	-0.031056764
116	0x3d5a558c	0.05330424
117	0xbe257236	-0.1615685
118	0xbe396379	-0.18104352
119	0x3e076799	0.13223113
120	0xbd2f17bd	-0.042747248
121	0xbe165d90	-0.14684129
122	0x3e1c7e3b	0.15282528
123	0x3d158365	0.03650226
124	0x3e833b27	0.25631067
125	0xbe25c600	-0.16188812
126	0x3b6e6fde	0.0036382596
127	0x3dd0e6e5	0.1020029
128	0xbe5b33b6	-0.21406445
129	0x3d560c9b	0.052258115
130	0xbe390743	-0.18069176
131	0xbd92dfd3	-0.07171597
132	0xbccbd00c	-0.024879478
133	0x3dcc9fcf	0.099914186
134	0xbb1a89c2	-0.0023580645
135	0x3e0e5754	0.139005
136	0xbd654895	-0.055977423
137	0x3dc4929f	0.09598278
138	0x3ca1fa1f	0.019772587
139	0xbe3e2be0	-0.18571424
140	0x3c3a29ad	0.011362475
141	0x3dbde768	0.09272653
142	0x3c38f68d	0.011289251
143	0x3e883454	0.26602423
144	0xbde38828	-0.11109954
145	0x3e2fb245	0.17157848
146	0x3d5c76a8	0.053824097
147	0xbddb100b	-0.10696419
148	0x3e295699	0.1653694
149	0x3e27a6b7	0.1637219
150	0xbdc941bc	-0.09826991
151	0x3e09da30	0.13462138
152	0x3d5d93b9	0.054095957
153	0x3ded10c2	0.11575462
154	0xbe8094e1	-0.25113586
155	0xbe339f58	-0.17541254
156	0xbdeb855f	-0.11500048
157	0x3cc3ddda	0.023909498
158	0x3e447286	0.19184312
159	0x3d420876	0.04737135
160	0xbda7ca12	-0.08192839
161	0x3e34f151	0.1767018
162	0xbd0dbf7c	-0.03460644
163	0xbe9b3e30	-0.30320883
164	0x3d2ad615	0.04170807
165	0xbe401d97	-0.18761288
166	0xbd9a31d3	-0.075290345
167	0x3d142032	0.036163516
168	0x3bd56a36	0.0065129055
169	0xbdca8a49	-0.09889657
170	0x3d803280	0.06259632
171	0xbd060b87	-0.032725837
172	0x3da92526	0.082590386
173	0xbdd66c1a	-0.104698375
174	0x3e91084c	0.28326643
175	0x3db4d5bb	0.08829828
176	0xbe186b0c	-0.14884585
177	0x3c77b7d2	0.01511951
178	0xbcc6a60e	-0.024249103
179	0xbb181aea	-0.0023209401
180	0x3c6eed30	0.014582917
181	0xbca1962c	-0.019724928
182	0x3df791af	0.12088334
183	0x3dffce01	0.12490464
184	0xbd273ea2	-0.040831216
185	0xba618fd5	-0.00086045015
186	0xbdd44de4	-0.10366419
187	0xbe343cee	-0.17601368
188	0x3e0ee537	0.13954626
189	0xbd7e46a4	-0.062079087
190	0x3d08075c	0.033210143
191	0xbe215101	-0.15753557
192	0x3c89a9fe	0.016804691
193	0xbde714b4	-0.11283246
194	0x3cbfa432	0.023393724
195	0xbe148608	-0.14504254
196	0xbdd18c95	-0.10231892
197	0xbc4f6885	-0.012659197
198	0xbc587624	-0.013211761
199	0xbcc9cb70	-0.02463314
200	0x3cbfea0f	0.023427038
201	0x3dd65796	0.104659244
202	0x3db8589a	0.090012744
203	0x3b9fbd8a	0.0048748897
204	0x3d02b869	0.03191415
205	0xbccf3653	-0.025294458
206	0xbd90747f	-0.0705347
207	0xbd072928	-0.032998234
208	0xbc3411bc	-0.010990556
209	0xbae37470	-0.0017353427
210	0xbc467df0	-0.012114987
211	0xbd7ed8f9	-0.06221864
212	0xbcb0f81d	-0.021602685
213	0xbd9548c6	-0.07289271
214	0xbd3a9010	-0.045547545
215	0x3c17867a	0.00924837
216	0x3d2c1a78	0.04201743
217	0x3d67a5e3	0.056554686
218	0x3d92cfe9	0.07168562
219	0xbd655bad	-0.055995632
220	0x3d35805f	0.044311877
221	0x3d5598e0	0.052147746
222	0x3d9b460e	0.07581721
223	0xbd0b88c3	-0.034065973
224	0xbc95701e	-0.018241938
225	0xbc7ac2e4	-0.015305255
226	0xbbee0170	-0.007263355
227	0xbd12668c	-0.035742328
228	0xbd53037b	-0.05151699
229	0xbdab966b	-0.08378299
230	0xbd8e6af7	-0.06953996
231	0xbc56f0c4	-0.013118926
232	0xbd488444	-0.048954263
233	0xbda27ae6	-0.07933597
234	0xbe15d66a	-0.14632574
235	0xbcfb13aa	-0.030649025
236	0x3ca54bba	0.02017771
237	0xbc8fd34e	-0.017556813
238	0xbd8ab82f	-0.067734115
239	0x3c937e99	0.018004702
240	0xbc1dd1fa	-0.009632582
241	0xbe4f1a7c	-0.20224947
242	0x3e1dee9e	0.15423056
243	0xbbd7f324	-0.006590264
244	0xbdb90c40	-0.090355396
245	0xbe182d17	-0.1486095
246	0xbe57c1c7	-0.21070014
247	0xbe20b29e	-0.15693137
248	0x3dd4befd	0.103879906
249	0xbe1cf2f1	-0.1532705
250	0xbca0e677	-0.019641144
251	0x3e116ad4	0.14200908
252	0xbb35f992	-0.0027767164
253	0x3ca7a3cb	0.020463845
254	0xbe894578	-0.26810813
255	0x3e3204f2	0.17384699

model1/stage4-branch2-reduction/Conv2D_bias_fused_bn f4 [8]
0	0x3f199cfe	0.60005176
1	0x3f60f13c	0.87868094
2	0xbe214fbe	-0.15753075
3	0xbd806cb2	-0.06270732
4	0x3e95254d	0.2913002
5	0x3f1e043d	0.6172522
6	0x3f9a6804	1.2062993
7	0x3e9b6b00	0.30355072

model1/stage4-branch2-conv/Conv2D_weights_fused_bn f4 [16, 8, 3, 3]
0	0xbce4f4b8	-0.027948722
1	0xbc2648ae	-0.010149164
2	0x3c294c56	0.010333141
3	0xbdfeb3c1	-0.12436629
4	0xbdd8f0bd	-0.10592792
5	0xbdc5302a	-0.09628327
6	0xbc753867	-0.014967061
7	0xbce67199	-0.02813034
8	0x3d58be91	0.052916113
9	0xbd3970f9	-0.045273755
10	0xbbc6011a	-0.006042612
11	0xbd79d75f	-0.06099641
12	0xbb823ce5	-0.0039745444
13	0xbcacbf99	-0.021087455
14	0xbd06fb3f	-0.03295445
15	0xbcaebd2d	-0.02133044
16	0xba88cd87	-0.0010437228
17	0x3b492359	0.0030691235
18	0x39d58ccf	0.00040731436
19	0xbc8b3eb8	-0.01699768
20	0xba875be9	-0.0010327074
21	0x3d34916e	0.044084005
22	0x3d56ccf0	0.052441537
23	0x3c64c2b3	0.013962436
24	0xbdbbfa5b	-0.09178611
25	0xbd6a0385	-0.057132263
26	0xbd7eaee5	-0.06217851
27	0xbd4e46d7	-0.050360527
28	0xbd1864d6	-0.03720554
29	0xbcef82ec	-0.029237233
30	0xbc36bcc2	-0.011153402
31	0x3bf663ca	0.00751922
32	0xbc7d31c6	-0.015453761
33	0x3cc29a54	0.02375523
34	0x3c9e42d8	0.019318983
35	0xbb3f43da	-0.002918473
36	0xbd0c0d60	-0.034192443
37	0xbcffb16e	-0.031212535
38	0xbc834dda	-0.016028333
39	0xbd5f859e	-0.054570787
40	0xbce88d9e	-0.02838784
41	0xbd777c23	-0.06042112
42	0xbda54f03	-0.08071711
43	0xbd2bdf1e	-0.041960828
44	0xbd4c835c	-0.04992996
45	0xbd734601	-0.059392933
46	0xbc25a1ec	-0.010109406
47	0xbd4c92ec	-0.049944803
48	0xbda1c5c3	-0.07899048
49	0xbde565e0	-0.11201072
50	0xbe2e26ce	-0.1700699
51	0xbc1e0dd7	-0.009646854
52	0xbc8cc174	-0.01718209
53	0xbd7c2a09	-0.061563525
54	0xbc86972b	-0.016429504
55	0xbc87e6c3	-0.016589528
56	0xbcad430a	-0.02115013
57	0xbd904308	-0.07044035
58	0xbd8831dc	-0.06650135
59	0xbd8a1528	-0.067423165
60	0xbb48bb3c	-0.0030629179
61	0x3d4b3449	0.04961041
62	0x3cdadc27	0.026716305
63	0xbdd99858	-0.106247604
64	0xbdb0c052	-0.08630432
65	0xbd907bed	-0.07054887
66	0xbe685c2a	-0.22691408
67	0xbe0de665	-0.1385742
68	0xbe35e2ec	-0.17762345
69	0x3caaa3a6	0.020829987
70	0x3c8000fe	0.015625473
71	0xbca0735a	-0.019586254
72	0xbb192126	-0.0023365705
73	0xbbc653ae	-0.006052456
74	0xbba58ac4	-0.0050519425
75	0x3bf2b2db	0.007406575
76	0x3a12a7a3	0.0005594438
77	0x3cd9338b	0.026513835
78	0xbdd667eb	-0.104690395
79	0xbd44e579	-0.048070405
80	0xbdb2b938	-0.08726734
81	0x3d39e275	0.045381982
82	0x3d8c3ef4	0.06847945
83	0x3d732679	0.059362862
84	0xbcb7e74f	-0.022449164
85	0x3c3d3314	0.0115478225
86	0xbd768195	-0.060182173
87	0xbb3d0cdc	-0.0028846776
88	0xbd481158	-0.048844665
89	0x3cb56559	0.022143053
90	0xbdf7cd2c	-0.1209968
91	0xbe1ac962	-0.15115884
92	0xbe17ec47	-0.14836226
93	0x3d6ef754	0.05834134
94	0x3d4eb49e	0.05046522
95	0x3cf9852f	0.030459015
96	0xbcd29daa	-0.025709946
97	0x3b0385b9	0.0020068719
98	0xbd9a7ae0	-0.07542968
99	0xbc5a93a6	-0.013340866
100	0xbd0c5f43	-0.034270536
101	0xbc56b4bb	-0.013104613
102	0xbd07818b	-0.033082526
103	0xbd498eee	-0.049208574
104	0xbdb3ecf5	-0.0878543
105	0xbe38bac8	-0.18040001
106	0xbe4b6c48	-0.19865525
107	0xbe095088	-0.13409626
108	0x3c646613	0.013940352
109	0xbd4eeed8	-0.050520748
110	0x3cc6f3fe	0.024286266
111	0x3d16c392	0.036807604
112	0xbd9a6bb1	-0.07540072
113	0xbd0d6c83	-0.034527313
114	0xbdd6250f	-0.10456287
115	0xbdb3a492	-0.08771624
116	0xbdf5b064	-0.119965345
117	0xbcb99370	-0.022653311
118	0xbd1b1d52	-0.03786976
119	0xbad9de00	-0.0016621947
120	0x3c9e8afd	0.019353384
121	0x3d03e4da	0.03220067
122	0xba7c2043	-0.00096178445
123	0xbc82d9df	-0.01597303
124	0xbc295aa6	-0.010336554
125	0xbc2e9fa0	-0.010658175
126	0xbd6ceaec	-0.057841226
127	0xbcbe760f	-0.023249654
128	0xbd5aa972	-0.053384252
129	0xbbb4162e	-0.005495808
130	0xbc50c274	-0.012741674
131	0xbd416a51	-0.04722053
132	0xbdab7342	-0.08371593
133	0xbd8865a1	-0.06660009
134	0xbdbdb1fe	-0.09262465
135	0x3d212c49	0.039348874
136	0x3d1ba12f	0.037995514
137	0x3c748c0a	0.014925966
138	0x3b58665b	0.0033019993
139	0xbd4255d0	-0.04744512
140	0xbcfd214b	-0.030899664
141	0xbd2fde30	-0.042936504
142	0xbd82e209	-0.06390769
143	0xba9d55dc	-0.0012003738
144	0xbd2b3438	-0.041797847
145	0x3c43e634	0.01195674
146	0xbcfb5e18	-0.030684516
147	0xbda66a50	-0.08125746
148	0xbdb1c732	-0.086805716
149	0xbd0c7133	-0.034287643
150	0xbe2c3621	-0.16817524
151	0xbe61563b	-0.2200555
152	0xbe4da93f	-0.20084094
153	0x3d4d821d	0.050172914
154	0x3cd270a6	0.02568848
155	0x3d0e4e49	0.034742627
156	0x3d7da493	0.06192453
157	0x3ce3a4d2	0.027788553
158	0x3d7dcf32	0.061965175
159	0xbcaa76a6	-0.02080853
160	0xbb8fdece	-0.004390574
161	0xbd416408	-0.047214538
162	0xbd89946b	-0.067177616
163	0xbdc2c73d	-0.09510658
164	0xbd616e13	-0.055036616
165	0x3c6fe720	0.014642507
166	0x3adb9bf2	0.0016754849
167	0x3cb6f5f3	0.022334075
168	0x3e2cd125	0.16876657
169	0x3df457e3	0.119308256
170	0x3e216279	0.1576022
171	0x3c1fedc5	0.0097612785
172	0x3c38cf0c	0.011279833
173	0x3cf5347e	0.029932257
174	0xbdd426fa	-0.10358997
175	0xbdc8ef49	-0.09811265
176	0xbdc66854	-0.09687868
177	0xbe0957b5	-0.13412364
178	0xbdf0693d	-0.117388226
179	0xbdebd3d2	-0.11515011
180	0xbd933934	-0.07188645
181	0xbd04f2d6	-0.03245815
182	0xbd624759	-0.055243824
183	0x3cb6af57	0.022300405
184	0xbd1d8c22	-0.03846372
185	0xbd050626	-0.032476567
186	0xbb08fb1a	-0.0020901621
187	0xbc86955e	-0.016428646
188	0xbab3b622	-0.0013710896
189	0xbd9242d5	-0.071416534
190	0xbcd0e0fc	-0.025497906
191	0xbd34585f	-0.04402959
192	0xbd10ed9f	-0.035382863
193	0xbbacc20b	-0.005272155
194	0x3b4eab1b	0.0031535092
195	0xbe1c7776	-0.15279946
196	0xbe20011c	-0.15625423
197	0xbe18c9b7	-0.14920698
198	0x3cdcd2d9	0.026956009
199	0xbbe386e2	-0.0069435695
200	0x3c724448	0.014786787
201	0xbd587849	-0.052849088
202	0xbcc4b409	-0.024011629
203	0xbd24cb15	-0.040232737
204	0xbd9ee297	-0.07758062
205	0xbdaf3cac	-0.08556494
206	0xbdd0ae9c	-0.10189554
207	0xbc06d267	-0.008228875
208	0xbd862eb3	-0.06551876
209	0xbd079fd1	-0.033111397
210	0xbd81dde9	-0.06341154
211	0xbdb419f4	-0.08794013
212	0xbd3e822f	-0.04651087
213	0xbe39ad93	-0.1813262
214	0xbe11c737	-0.1423615
215	0xbdd73616	-0.10508363
216	0xbd3a65dc	-0.045507297
217	0xbd1eacd9	-0.03873906
218	0xbc812d78	-0.015768752
219	0xbcbff6d6	-0.02343313
220	0xbd572891	-0.05252892
221	0xbd1648f4	-0.036690667
222	0xbcc8331a	-0.02443843
223	0xbd0c474c	-0.03424768
224	0xbd503528	-0.050831944
225	0x3cfa97b8	0.030589923
226	0x3c8613c0	0.01636684
227	0x3cc5a090	0.024124414
228	0x3ce650dc	0.028114729
229	0x3cc7bc89	0.024381893
230	0x3d7505ae	0.05981987
231	0xbe0e36ab	-0.13888042
232	0xbdf92a5b	-0.12166282
233	0xbdc52376	-0.09625904
234	0xbd47f040	-0.048813105
235	0xbcc3ddde	-0.023909505
236	0xbd585238	-0.052812785
237	0xbb717bbe	-0.0036847438
238	0x3acfc27c	0.0015850808
239	0x3c93a80a	0.018024463
240	0xbe041512	-0.12898663
241	0xbd869920	-0.06572175
242	0xbdaaf50e	-0.08347522
243	0x3c57d44f	0.013173177
244	0x3cc8b900	0.024502277
245	0x3d742f17	0.05961522
246	0xbdcb474d	-0.09925709
247	0xbe048c20	-0.12944078
248	0xbddf15be	-0.10892819
249	0xbdae5986	-0.08513169
250	0xbd9a589c	-0.07536432
251	0xbdf3a7af	-0.118972175
252	0xbd37abd1	-0.04484159
253	0xbb8d5b99	-0.004313898
254	0x39c6fdd8	0.0003795463
255	0x3c1bc5ab	0.009507577

model1/stage4-branch2-conv/Conv2D_bias_fused_bn f4 [16]
0	0x3f8c7daf	1.0975856
1	0x3f07f938	0.5311465
2	0x3f59ee14	0.85128903
3	0x3e0aae95	0.1354316
4	0xbf18193c	-0.59413505
5	0x3e4642da	0.1936144
6	0xbeb460d5	-0.35230127
7	0x3f433581	0.76253515
8	0x3ec1c5fc	0.37846363
9	0x3f087b58	0.5331321
10	0xbf51f5de	-0.8201579
11	0x3d95f500	0.07322121
12	0x3ecc23de	0.39871114
13	0x3e561a6c	0.20908517
14	0x3ec8b125	0.3919765
15	0x3f06e685	0.52695495

model1/stage4-branch1-reduction/Conv2D_weights_fused_bn f4 [4, 48, 1, 1]
0	0x3dcb88e4	0.09938219
1	0x3e688020	0.22705126
2	0x3d7d590f	0.06185251
3	0xbaa274d3	-0.0012394435
4	0x3e9d11de	0.30677694
5	0x3d6deeef	0.058089193
6	0x3d31e2b4	0.04342909
7	0xbda04a16	-0.07826631
8	0x3d075df3	0.03304858
9	0x3deeec7d	0.116662
10	0xbe69112a	-0.22760454
11	0xbe6df5ab	-0.23238246
12	0xbe1cd657	-0.15316139
13	0x3bed614c	0.0072442647
14	0x3ca21e3b	0.019789806
15	0xbe32acdf	-0.17448758
16	0xbe01571e	-0.12630889
17	0xbe2a87e1	-0.16653396
18	0xbd24bddc	-0.040220127
19	0xbe4c430c	-0.19947451
20	0x3d9b55ab	0.07584699
21	0xbdae64e9	-0.08515341
22	0x3c5cc895	0.013475557
23	0xbd84a5cf	-0.06476938
24	0x3e03c28d	0.12867184
25	0x3d82f1d4	0.06393781
26	0x3da722b0	0.08160913
27	0x3df8414b	0.12121829
28	0x3d0468f1	0.032326642
29	0xbe953adc	-0.2914647
30	0x3d40feec	0.047118112
31	0xbcebae66	-0.028769683
32	0x3dce7253	0.10080399
33	0xbdec2997	-0.1153137
34	0x3d9f7348	0.0778566
35	0x3e5ca941	0.2154894
36	0xbc9dfc70	-0.01928541
37	0xbd208828	-0.03919235
38	0x3e02bb95	0.1276687
39	0x3e033dc4	0.1281653
40	0xbd198aa0	-0.03748572
41	0xbd9ffaac	-0.07811484
42	0xbd15c19f	-0.036561605
43	0xbe0a2f93	-0.1349471
44	0x3d997d85	0.07494644
45	0xbcf14b08	-0.029454723
46	0x3b0a9e45	0.0021151465
47	0x3d51dc51	0.0512355
48	0xbe210ced	-0.15727587
49	0x3dd07561	0.10178638
50	0xbe2d2faf	-0.16912721
51	0xbc12d97a	-0.008962983
52	0x3e3ccb58	0.18436944
53	0xbc48aab0	-0.012247726
54	0x3e8ac051	0.2709985
55	0xbe1893a7	-0.14900075
56	0xbd6c0dea	-0.057630457
57	0xbd585726	-0.052817486
58	0xbbeb4ff5	-0.0071811625
59	0xbdcd7102	-0.1003132
60	0xbe5ad774	-0.21371251
61	0xbdbcfc4e	-0.09227811
62	0x3bc99747	0.006152067
63	0xbde4d6d4	-0.11173788
64	0x3c01cc7e	0.00792229
65	0xbda73fab	-0.081664406
66	0xbddc7848	-0.10765129
67	0xbec4e0c5	-0.38452736
68	0xbc08fedb	-0.0083615435
69	0x3de29e7f	0.11065387
70	0xbd3d802e	-0.04626482
71	0xbe2faa8a	-0.17154899
72	0xbdaf622a	-0.08563645
73	0x3d6767e2	0.056495555
74	0xbdb3b782	-0.08775236
75	0x3de06e52	0.10958542
76	0xbe39c47b	-0.18141358
77	0xbd23393e	-0.039849512
78	0x3d26232d	0.04056089
79	0x3e70ef94	0.23528892
80	0x3de0a5b9	0.10969109
81	0xba7a62b5	-0.00095514517
82	0x3dace640	0.08442354
83	0xbdf67cf5	-0.120355524
84	0xbd00d0c9	-0.031449113
85	0x3c8e4863	0.017368501
86	0x3d0a4397	0.033755865
87	0xbd4d345a	-0.050098754
88	0x3d2d6f2c	0.04234235
89	0xbe0b8914	-0.1362651
90	0x3d4e8f5e	0.050429694
91	0xbdde61c5	-0.10858492
92	0xbb4d8d13	-0.0031364604
93	0x3d0c561a	0.0342618
94	0x3d0ebb6f	0.03484672
95	0x3d9fc778	0.078017175
96	0xbdc884cf	-0.09790956
97	0xbe942870	-0.289371
98	0x3d2d0942	0.042245157
99	0x3cdfe1ba	0.027329315
100	0xbe608b81	-0.21928217
101	0xbd81a955	-0.06331126
102	0xbcfddf85	-0.030990371
103	0xbd59f42b	-0.053211372
104	0x3d861023	0.065460466
105	0xbe0949a8	-0.13407004
106	0x3d7cb76a	0.061698355
107	0x3d87455c	0.06605026
108	0x3d3b2c20	0.045696378
109	0xbe0ddf02	-0.13854602
110	0xbec12bd0	-0.3772874
111	0x3d4c9569	0.049947176
112	0x3c3076aa	0.010770479
113	0xbc0a7095	-0.008449693
114	0xbcfe8432	-0.031068895
115	0x3ceb761e	0.028742846
116	0xbcd79b84	-0.026319273
117	0x3cd0de90	0.025496751
118	0xbca83df3	-0.020537352
119	0xbcc7457c	-0.024325125
120	0x3d0136aa	0.031546272
121	0x3d76754e	0.060170464
122	0xbdf17c95	-0.1179134
123	0xbb9a500f	-0.0047092508
124	0xbcc31224	-0.023812361
125	0x3d8d6dc0	0.06905699
126	0xbdfa7ccd	-0.12230835
127	0xbdd7734f	-0.1052004
128	0x3ce213be	0.027597304
129	0x3b3d8371	0.0028917457
130	0x3d4d5116	0.050126158
131	0xbd17908a	-0.037003078
132	0x3da0c4c2	0.078500286
133	0x3d0b6550	0.034032166
134	0xbde9e26b	-0.11420139
135	0xbcaf78a9	-0.02141984
136	0x3dbee1a1	0.09320379
137	0xbc20d18a	-0.009815583
138	0x3d07480c	0.033027694
139	0xbcf12368	-0.029435828
140	0xbd455734	-0.048178867
141	0xbd0ce215	-0.034395296
142	0x3d07db4f	0.033168133
143	0x3c0bc02a	0.008529702
144	0x3dc5eabc	0.09663913
145	0x3e0360b3	0.12829857
146	0x3e182513	0.14857893
147	0x3c2617eb	0.010137538
148	0x3d9c0920	0.07618928
149	0x3e188f06	0.14898309
150	0x3c8ccc36	0.01718722
151	0x3d60e6e1	0.054907683
152	0xbe0899b5	-0.13339885
153	0x3e22337a	0.15839949
154	0xbe742777	-0.2384318
155	0xbc9ea231	-0.019364448
156	0xbd95d695	-0.07316319
157	0x3dbc62d3	0.09198537
158	0xbd29c8c6	-0.041451238
159	0xbcb987b1	-0.02264771
160	0x3d07b54d	0.033131886
161	0xbd5cc86e	-0.053902082
162	0x3dc627b1	0.09675539
163	0xbd92980a	-0.071579054
164	0xbd088b55	-0.033336002
165	0xbcf6ad61	-0.03011197
166	0xbda9812a	-0.08276589
167	0x3c83e4df	0.016100345
168	0xbd2ac71e	-0.0416938
169	0x3c98a889	0.018635051
170	0x3e2eab60	0.17057562
171	0x3c817044	0.015800603
172	0x3d4837f4	0.048881486
173	0xbe7fb709	-0.24972166
174	0x3d3f04ad	0.04663532
175	0x3de1eacc	0.11031112
176	0xbd4ca773	-0.04996438
177	0xbdb32fe3	-0.08749368
178	0xbd887366	-0.066626355
179	0x3d8cae3d	0.06869171
180	0xbd88a74f	-0.066725366
181	0x3a600525	0.00085456885
182	0x3d0101b0	0.03149575
183	0xbda7b706	-0.08189206
184	0xbda6dd4d	-0.081476785
185	0xbdab581a	-0.083664134
186	0xbdf92d81	-0.12166882
187	0xbd9df971	-0.07713593
188	0xbba7a84f	-0.0051164995
189	0x3d5e4806	0.054267906
190	0x3c121a95	0.00891747
191	0xbe1c5245	-0.15265758

model1/stage4-branch1-reduction/Conv2D_bias_fused_bn f4 [4]
0	0x3e4dc87c	0.2009601
1	0x3efd14d6	0.4942996
2	0x3f94ad2e	1.161535
3	0x3d82df7e	0.06390284

model1/stage4-branch1-conv2/Conv2D_weights_fused_bn f4 [16, 8, 3, 3]
0	0x3cfb9652	0.030711327
1	0x3c354db6	0.011065891
2	0x3cf82ba7	0.030294253
3	0xbd1a3f8f	-0.03765827
4	0x3bfe8e81	0.0077684526
5	0xbcc14011	-0.02359012
6	0xbd889d66	-0.06670646
7	0xbd80bff0	-0.06286609
8	0xbdee8a3d	-0.116474606
9	0xbcc32804	-0.023822792
10	0x3cd066a2	0.025439564
11	0xbd13a64b	-0.03604726
12	0xbdc31f30	-0.09527433
13	0xbddcdcd8	-0.1078431
14	0xbdbaa93d	-0.09114311
15	0xbd6b1fcf	-0.057403382
16	0xbdbb773b	-0.09153601
17	0xbd475ff3	-0.04867549
18	0xbdb8ee6b	-0.090298496
19	0xbd2b8940	-0.04187894
20	0xbd394847	-0.045234945
21	0x3abc9baa	0.0014389653
22	0xbc173718	-0.009229444
23	0x3cf92a00	0.030415535
24	0x3bf0e42b	0.0073514185
25	0xbcd08a61	-0.02545661
26	0xbd466bb8	-0.048442572
27	0xbbb9bc7f	-0.0056682224
28	0xbd1ab3f7	-0.037769284
29	0xbc106ea7	-0.008815444
30	0x3c9cccbe	0.019140597
31	0xbc3dd3f6	-0.01158618
32	0x3cd0bd35	0.025480846
33	0xbd95c268	-0.07312471
34	0xbd97411e	-0.07385467
35	0xbdcaed69	-0.09908564
36	0xbd44e0fe	-0.04806613
37	0xbd0f0472	-0.03491635
38	0xbcb37f92	-0.021911416
39	0xbd7164e9	-0.058934126
40	0xbd69a861	-0.057045344
41	0xbd9136f4	-0.070905596
42	0xbdc4fb11	-0.096181996
43	0xbde3ef8a	-0.11129673
44	0xbda7d5a1	-0.08195043
45	0xbd8b9247	-0.068150096
46	0xbdbaa3e1	-0.09113289
47	0xbd78ea1c	-0.06077014
48	0xbd1f83a6	-0.03894391
49	0xbb70f129	-0.0036764836
50	0xbd0dcd93	-0.03461988
51	0xbdb900d2	-0.090333596
52	0xbd7c1360	-0.061541915
53	0xbdbf58e5	-0.09343127
54	0x3a6454b7	0.0008710133
55	0xbcd6bf98	-0.026214406
56	0xbcecb395	-0.028894225
57	0x3d0b5ffc	0.034027085
58	0x3b806268	0.003917981
59	0xbbc443c7	-0.005989525
60	0xbcf860b5	-0.030319551
61	0x3c346644	0.01101071
62	0x3bbe1f82	0.005802096
63	0xbc80374f	-0.015651373
64	0xbc1d65ca	-0.009606788
65	0xbc9e6e66	-0.019339751
66	0x3c8776f6	0.016536217
67	0xbcae5d63	-0.021284765
68	0x3c8d569e	0.017253216
69	0xbd0c3846	-0.034233354
70	0xbc59435b	-0.013260688
71	0xbaff76cc	-0.001949036
72	0x3d93a3f3	0.07209005
73	0x3cd6a9ae	0.026203956
74	0x3d1d0ba3	0.038341176
75	0xbdd616e0	-0.10453582
76	0xbde201f6	-0.1103553
77	0xbda0ec28	-0.07857543
78	0xbbe7a689	-0.007069413
79	0xbd473ba9	-0.04864088
80	0xbd6e20e5	-0.05813684
81	0xbd46c65c	-0.048529014
82	0xbd24be5a	-0.040220596
83	0xbd1684c6	-0.036747716
84	0xbcb9a816	-0.022663157
85	0x3cccaaf6	0.024983864
86	0xbc2bba32	-0.010481404
87	0xbd46a4f0	-0.04849714
88	0xbdc4ce1d	-0.096096255
89	0xbdae6373	-0.08515062
90	0x3bc5ece0	0.0060402006
91	0x3d1babe2	0.038005717
92	0x3c0df8ab	0.008665244
93	0xbd339957	-0.04384741
94	0xbcfdc8f3	-0.03097961
95	0x3c98b913	0.018642938
96	0x3c09117c	0.008365985
97	0x3cb176ca	0.021663088
98	0x3bc1d5e3	0.00591539
99	0x3cd7dd92	0.02635077
100	0x3c9e7861	0.01934451
101	0xbce89c00	-0.0283947
102	0xbc5c6513	-0.013451832
103	0xbc1b85cd	-0.00949235
104	0xbd18d76b	-0.037314814
105	0xbd872b86	-0.06600098
106	0xbdc5ac5f	-0.09652018
107	0xbd99e2c4	-0.07513955
108	0xbb816be3	-0.0039496287
109	0xbd0130d5	-0.03154071
110	0xbc834df2	-0.016028378
111	0xbc9d7609	-0.019221323
112	0xbb8f1b7f	-0.0043672915
113	0xbcf94558	-0.030428573
114	0xbd219f0a	-0.039458312
115	0x3b872800	0.0041246414
116	0xbd087fb9	-0.03332493
117	0xbd7f34d1	-0.06230623
118	0xbd2de00d	-0.04245
119	0xbd85cafc	-0.06532857
120	0xbd299a9d	-0.041407216
121	0x3c84bfba	0.016204704
122	0x3aaa0e6f	0.0012974272
123	0x3d3e34f1	0.046437208
124	0x3c1b59d6	0.009481868
125	0x3d90ce3a	0.070705846
126	0xbb8f7933	-0.0043784617
127	0x3c9bb7d1	0.019008549
128	0xbc9a2108	-0.018814579
129	0x3c87d27c	0.016579859
130	0x3c2f1608	0.010686405
131	0xbc8f912f	-0.017525284
132	0xbcdfb96b	-0.027310094
133	0xbcb9c2ed	-0.022675956
134	0x3d08f451	0.033436123
135	0x3c2ac614	0.010423202
136	0xbd60d0ff	-0.054886814
137	0xbcac531b	-0.021035722
138	0x3cb8fa6e	0.022580352
139	0x3c3aa797	0.011392496
140	0x3cb7ec21	0.022451462
141	0xbcdb595c	-0.026776008
142	0xbd1946fb	-0.037421208
143	0xbd0ea456	-0.03482469
144	0x3c75433b	0.014969642
145	0x3cc35238	0.023842916
146	0x3d036c70	0.032085836
147	0xbd46e7fd	-0.048561085
148	0x3d3d9d5c	0.046292648
149	0xbd6940fd	-0.056946743
150	0xbd984de6	-0.07436733
151	0xbce3fb1d	-0.027829701
152	0xbd6f5f89	-0.05844072
153	0xbd93e317	-0.07221048
154	0xbcf0b19a	-0.029381562
155	0xbdd89ee7	-0.10577183
156	0xbdb3c3e9	-0.08777601
157	0xbd93d947	-0.07219177
158	0xbda2cb0d	-0.07948885
159	0x3d0dc48b	0.034611266
160	0x3da73022	0.081634775
161	0x3d93a905	0.07209972
162	0xbd469196	-0.048478685
163	0xbd1c48d8	-0.038155407
164	0xbd1630fa	-0.0366678
165	0x3cbe178c	0.023204587
166	0x3d8cb840	0.068710804
167	0x3d372b19	0.044718836
168	0xbc9daacd	-0.019246483
169	0x3b97df71	0.0046347906
170	0xbd2133de	-0.039356105
171	0x3cddae03	0.027060514
172	0xbd26e311	-0.04074389
173	0x3c64259e	0.013924984
174	0xbce6bdc3	-0.028166657
175	0xbccbc3fc	-0.024873726
176	0xbbcc734b	-0.00623933
177	0xbcc9fcf1	-0.024656745
178	0x3c8fab8a	0.01753785
179	0xbd474e95	-0.048658926
180	0xbd7f22e9	-0.062289152
181	0xbd9167fd	-0.07099912
182	0xbda02898	-0.07820243
183	0xbdcb2bf3	-0.09920492
184	0xbd8bfed6	-0.068357155
185	0xbe1b73dc	-0.15180916
186	0xbccd87ae	-0.025089111
187	0xbcab9832	-0.020946596
188	0xbd2197da	-0.039451458
189	0xbd00f397	-0.031482305
190	0xbc39e799	-0.011346721
191	0x3ca05075	0.019569615
192	0xbd02ab96	-0.03190192
193	0x3c989b27	0.01862867
194	0xbcfd3c68	-0.030912593
195	0x3d21839f	0.039432164
196	0x3c324436	0.010880521
197	0x3c32c7ec	0.010911923
198	0x3d00ab3a	0.031413294
199	0xbced4c2f	-0.028966991
200	0xbb949db5	-0.0045354017
201	0xbdb597a8	-0.08866817
202	0xbd10a85b	-0.035316806
203	0x3d0d5273	0.034502458
204	0x3d334870	0.043770254
205	0x3cab609a	0.020920087
206	0x3ce852d9	0.028359817
207	0x3bb16866	0.0054140566
208	0x3bb51470	0.005526118
209	0x3d09f4e6	0.03368082
210	0x3d7f775c	0.06236969
211	0x3d187654	0.03722222
212	0x3cbcab6f	0.023030965
213	0xbd732dce	-0.059369855
214	0xbd8cc6f2	-0.06873883
215	0xbcd85912	-0.02640966
216	0x3d1c1303	0.03810407
217	0x3c7e1d76	0.015509954
218	0x3d77b014	0.060470656
219	0xbba9896a	-0.0051738517
220	0x3c45fcc2	0.012084188
221	0x3b9a2f57	0.0047053504
222	0xbd8de935	-0.06929246
223	0xbd83640b	-0.06415566
224	0xbd064155	-0.03277715
225	0x3d6e76d4	0.058218792
226	0x3cec0eb4	0.028815605
227	0x3d032f09	0.032027278
228	0xbd4017af	-0.046897586
229	0xbd2e2027	-0.04251113
230	0xbd18cd77	-0.03730532
231	0xbde39c1c	-0.1111376
232	0xbd8aa71c	-0.06770155
233	0xbdc8e7ee	-0.09809862
234	0xbdc981aa	-0.098391846
235	0xbd0ea3ed	-0.0348243
236	0xbd534a46	-0.051584505
237	0x3d3f038d	0.046634246
238	0x3dc668b2	0.09687938
239	0x3e26a16d	0.16272517
240	0x3cc2fdec	0.02380272
241	0x3d889eaa	0.06670888
242	0x3d826a3d	0.063679196
243	0x3c61ce55	0.013782104
244	0x3c37bf31	0.011215017
245	0xbcb6eb36	-0.022328954
246	0x3bfd7f1b	0.0077360994
247	0xbba3c35a	-0.004997653
248	0xbd10755b	-0.03526817
249	0xbcf3f145	-0.029778132
250	0xbd02acf5	-0.031903226
251	0xbd332287	-0.0437341
252	0xbc9ce32d	-0.019151295
253	0xbd350fcd	-0.044204522
254	0xbd1719b9	-0.036889765
255	0xbdc80e38	-0.09768337

model1/stage4-branch1-conv2/Conv2D_bias_fused_bn f4 [16]
0	0x3f403ec9	0.750958
1	0x3d7395c0	0.059468985
2	0x3eb5df11	0.3552175
3	0x3ebe3fa0	0.37157917
4	0x3e32283a	0.17398158
5	0x3da80e8c	0.082058996
6	0x3db8179b	0.089888774
7	0x3f502bfa	0.813171
8	0x3d064298	0.032778352
9	0xbea74ed0	-0.32677317
10	0x3d64f998	0.055902094
11	0xbe7da90a	-0.24771515
12	0xbc979cac	-0.018507324
13	0x3eed5614	0.46354735
14	0x3e6088b5	0.2192715
15	0x3ef1227a	0.47096616

model1/stage4-branch1-conv1/Conv2D_weights_fused_bn f4 [8, 4, 3, 3]
0	0x3d9642f2	0.073369876
1	0xbd286b19	-0.04111776
2	0x3de48baf	0.11159455
3	0x3e8137f4	0.25238
4	0x3d96f25c	0.07370445
5	0x3e30aa6a	0.17252508
6	0xbe036522	-0.12831548
7	0xbe912c1c	-0.28353965
8	0xbe89a1d0	-0.26881266
9	0xbe6778ba	-0.22604647
10	0x3d929d72	0.071589366
11	0x3dc325c4	0.095286876
12	0x3c2a28cf	0.010385706
13	0xbe246c07	-0.16056834
14	0x3e247500	0.16060257
15	0xbd0e40dc	-0.034729823
16	0xbb98dc82	-0.0046649585
17	0xbe53e231	-0.20691754
18	0xbeb8bdf3	-0.3608242
19	0xbddb4a1f	-0.10707497
20	0xbed269bf	-0.41096303
21	0xbe19ca44	-0.15018564
22	0x3e0d6625	0.13808496
23	0x3d9b5c32	0.07585944
24	0xbced79dd	-0.028988773
25	0x3eb249ea	0.34822017
26	0x3ec75c99	0.38937834
27	0x3e9f9325	0.3116695
28	0x3c7e481c	0.015520122
29	0x3dcb76db	0.09934779
30	0x3de179cf	0.11009561
31	0x3d99e67e	0.07514666
32	0x3d39bf32	0.045348354
33	0x3ba37bb3	0.0049891113
34	0x3e93c153	0.28858432
35	0x3e48f36c	0.19624108
36	0xbde290f9	-0.110628076
37	0x3dd768e6	0.10518055
38	0xbdecb8c7	-0.11558681
39	0x3d4c69a9	0.049905453
40	0x3ce354da	0.027750421
41	0x3e73a3bb	0.23792927
42	0x3e6e1c47	0.23252974
43	0x3db7c467	0.08973008
44	0x3d36c812	0.044624396
45	0xbe0fb563	-0.14034037
46	0xbd95a369	-0.07306559
47	0xbcea84d9	-0.0286278
48	0xbd9458e6	-0.072435185
49	0x3c8ec82f	0.01742944
50	0xbe6def5f	-0.23235844
51	0x3db13528	0.08652717
52	0xbe0f7c19	-0.14012183
53	0x3dd65b18	0.104665935
54	0x3d6d640d	0.057956744
55	0x3dbb5864	0.091477185
56	0x3dc2b7c6	0.09507708
57	0xbea50625	-0.3223125
58	0xbe110bdb	-0.14164679
59	0xbebec00e	-0.372559
60	0x3dc96c3c	0.09835097
61	0x3e83b36c	0.25722826
62	0xbe061de2	-0.13097337
63	0xbdba497e	-0.09096049
64	0x3d129101	0.035782818
65	0xbda87636	-0.08225672
66	0x3ea0c8c2	0.31403166
67	0xbcb372f0	-0.021905392
68	0x3e218bee	0.15776035
69	0x3cc34802	0.023838047
70	0xbcd56430	-0.02604875
71	0x3cf7d087	0.0302508
72	0x3d6dc2fd	0.058047283
73	0x3e2a01a9	0.16602196
74	0x3e0cde02	0.13756564
75	0xbe3b0b9e	-0.1826615
76	0xbe850df2	-0.25987202
77	0xbeb5bb11	-0.35494283
78	0x3f016428	0.5054345
79	0x3c39b5d7	0.011334858
80	0xbdade95d	-0.08491776
81	0xbf0e6099	-0.55616146
82	0x3cc38a1a	0.023869563
83	0x3dc19d6b	0.09453853
84	0x3d929cd2	0.07158817
85	0xbd5958f1	-0.053063337
86	0xbec7c7fd	-0.39019766
87	0x3f3f660a	0.74765074
88	0x3e40d413	0.188309
89	0x3db5b154	0.08871713
90	0x3d8b484e	0.068009004
91	0x3ed11066	0.40832824
92	0x3ecf3994	0.40473616
93	0xbe3550e5	-0.1770664
94	0xbd9404c7	-0.07227474
95	0x3deaa872	0.1145791
96	0x3d850bdc	0.064964026
97	0x3e4a3e80	0.19750404
98	0x3eaec1eb	0.34132323
99	0xbdb9efaa	-0.090789154
100	0xbe5e602c	-0.21716374
101	0xbe26adc9	-0.16277231
102	0x3ea1ad16	0.31577367
103	0x3d8e1380	0.06937313
104	0xbd515100	-0.05110264
105	0x3eb8037d	0.3594016
106	0x3e2de570	0.16982055
107	0x3e3bc5b2	0.18337134
108	0x3e90c6f4	0.2827679
109	0xba2f198e	-0.0006679528
110	0x3bc3797d	0.0059654103
111	0xbcd54185	-0.026032219
112	0xba3f1357	-0.00072889536
113	0xbe8ce214	-0.27516234
114	0x3df698bd	0.12040851
115	0x3e55fe02	0.20897678
116	0x3e3a20f8	0.18176639
117	0x3e8c9ac0	0.27461815
118	0x3dc9c03d	0.0985112
119	0x3e67c68b	0.22634332
120	0xbd9b9472	-0.07596673
121	0xbdb28524	-0.08716801
122	0xbe692d7a	-0.22771254
123	0x3e28ef0f	0.16497444
124	0x3cad4061	0.021148862
125	0xbe8abcc0	-0.2709713
126	0x3ea840c3	0.3286191
127	0x3e7803f5	0.2422026
128	0x3e4c4ecb	0.19951932
129	0x3e1afe75	0.1513613
130	0xbe144329	-0.14478745
131	0xbd376c21	-0.044780854
132	0x3e2cc493	0.16871862
133	0x3e58348a	0.21113792
134	0x3e58be41	0.21166326
135	0x3e5485dd	0.2075419
136	0x3e402f89	0.18768133
137	0x3d179f63	0.037017237
138	0xbc4e76ea	-0.0126015935
139	0xbc1e4ef5	-0.0096623795
140	0x3dc45843	0.09587147
141	0x3e20be7a	0.15697661
142	0x3d2a2698	0.041540712
143	0x3d13b2d3	0.036059212
144	0xbe84077e	-0.25786966
145	0xbe67e192	-0.22644642
146	0xbe1bbfd9	-0.15209903
147	0x3e1eda32	0.15512922
148	0xbe0c8b32	-0.13724974
149	0x3e04d7fa	0.12973014
150	0x3e3704b6	0.17872891
151	0x3e257700	0.16158676
152	0x3f36cb14	0.7140362
153	0x3de9a0ca	0.11407621
154	0xbd98d8b2	-0.07463206
155	0xbd58c13c	-0.052918658
156	0x3ea422a2	0.32057673
157	0x3dbb2a8a	0.09138973
158	0x3e57242e	0.21009895
159	0x3ea2e00f	0.31811568
160	0xbe9304d0	-0.2871461
161	0x3e8c129f	0.27357957
162	0x3e9b5bea	0.30343562
163	0x3e2b9f2e	0.16759941
164	0x3e9d78ba	0.3075617
165	0x3e5cd81a	0.21566811
166	0x3a8af9e6	0.001060304
167	0xbdab5eaf	-0.08367669
168	0x3e2f843c	0.17140287
169	0x3b95b635	0.00456884
170	0x3d391a49	0.045191083
171	0x3e7f5633	0.24935226
172	0x3ebfabce	0.37435764
173	0x3e988c9c	0.29794776
174	0x3ee4e687	0.44707128
175	0x3e0a9412	0.13533047
176	0x3e6188a8	0.22024786
177	0x3e8c3d22	0.2739039
178	0x3e8bccba	0.2730463
179	0x3dbc3ba7	0.09191065
180	0xbe85a2ef	-0.2610087
181	0xbd5c1257	-0.053728428
182	0xbe2681f3	-0.16260509
183	0xbd779f25	-0.060454506
184	0x3d5e5209	0.054277454
185	0xbd42d03e	-0.047561876
186	0x3d482fe6	0.048873805
187	0x3bbed1c6	0.005823347
188	0x3dc82509	0.09772689
189	0xbe77e79e	-0.24209449
190	0xbcbf2c87	-0.023336662
191	0xbd59d1f7	-0.053178754
192	0xbe40c5db	-0.18825476
193	0x3b81679d	0.0039491192
194	0xbe639e92	-0.22228459
195	0x3e1e7155	0.1547292
196	0x3c2ee463	0.010674569
197	0x3dd77d28	0.105219185
198	0x3a43fe51	0.0007476556
199	0xbd835a43	-0.064137004
200	0x3d998610	0.074962735
201	0xbd1d5638	-0.038412303
202	0xbd596ab5	-0.05308028
203	0xbe0a7357	-0.13520561
204	0xbe35996d	-0.17734309
205	0xbddd6c62	-0.10811688
206	0xbe8cdb8d	-0.27511254
207	0xbdd8e8f5	-0.10591308
208	0xbdd8c289	-0.1058398
209	0xbd8932b4	-0.06699124
210	0x3c4bc3b8	0.0124368
211	0x3d990c30	0.07473028
212	0x3de03376	0.109473154
213	0x3cd9668a	0.026538152
214	0x3ddce0df	0.10785078
215	0x3d12e671	0.035864297
216	0xbe4ccaf0	-0.1999929
217	0xbde3283f	-0.11091661
218	0xbe7d8215	-0.24756654
219	0xbe42e9e2	-0.19034532
220	0xbe19add2	-0.15007713
221	0xbea92a53	-0.33040103
222	0x3e376ea4	0.179133
223	0xbd77cd4d	-0.060498524
224	0x3ec005a3	0.375043
225	0x3e81799b	0.2528809
226	0x3d046134	0.032319263
227	0xbe90c559	-0.28275564
228	0xbe8f6d1b	-0.28012928
229	0xbdc55e46	-0.09637122
230	0xbda052fe	-0.078283295
231	0x3d0d6a8f	0.03452545
232	0xbe227a9c	-0.15867084
233	0x3d9d401a	0.07678242
234	0xbe5f0f6e	-0.2178323
235	0xbdfe4ec4	-0.12417367
236	0x3ec61bd9	0.3869312
237	0xbe0e1fc5	-0.13879307
238	0xbe349c3c	-0.17637724
239	0x3d932922	0.0718558
240	0x3bebdbe1	0.0071978425
241	0x3d833e7b	0.064084016
242	0xbd13d45e	-0.0360912
243	0x3ea724d1	0.32645276
244	0x3e93fd85	0.28904358
245	0xbce984ec	-0.028505765
246	0x3cb6498a	0.022251863
247	0x3e6aab43	0.22916894
248	0x3bcbe0a0	0.0062218457
249	0xbe00520e	-0.12531301
250	0xbd83100d	-0.06399546
251	0xbdd5f6f9	-0.10447497
252	0xbe3aaf71	-0.18230988
253	0x3da83f10	0.08215153
254	0xbd823fe4	-0.063598424
255	0xbe8fc4ca	-0.28079826

model1/stage4-branch1-conv1/Conv2D_bias_fused_bn f4 [8]
0	0xbf2982e8	-0.6621537
1	0x3e450465	0.19239958
2	0xbf4778d8	-0.7791877
3	0xbf9d0631	-1.2267514
4	0xc012278f	-2.2836645
5	0x3f997cce	1.1991212
6	0x3f0327e6	0.51232755
7	0x3fdc3fa8	1.7206926

model1/stage3-branch3-reduction/Conv2D_weights_fused_bn f4 [16, 48, 1, 1]
0	0xbc9a948e	-0.018869665
1	0xbdd3bcc7	-0.10338741
2	0xbd22fd9a	-0.039792635
3	0xbd2149e7	-0.03937712
4	0x3cceb161	0.025231065
5	0xbd820748	-0.06349045
6	0x3d0ffc4c	0.03515272
7	0xbe7ee868	-0.24893343
8	0xbe7e170d	-0.2481348
9	0xbd38a679	-0.045080636
10	0x3e471528	0.19441664
11	0x3da318f0	0.07963741
12	0x3dc565a8	0.0963853
13	0x3d91c852	0.07118286
14	0x3d681d08	0.05666831
15	0xbd7fb738	-0.06243059
16	0x3e07573b	0.1321687
17	0xbdeef912	-0.116686
18	0xbd8cc408	-0.068733275
19	0xbd2b24b2	-0.041783042
20	0xbe1f2d7a	-0.15544692
21	0xbe17b97c	-0.1481685
22	0xbbe2024d	-0.006897247
23	0x3c234837	0.009965948
24	0xbdb36294	-0.08759037
25	0xbdb91678	-0.09037489
26	0x3daf8f77	0.085722856
27	0x3d30eb80	0.04319334
28	0x3c0dbe22	0.008651288
29	0x399cd2c8	0.00029911683
30	0x3de8e03b	0.113708936
31	0xbe419fa1	-0.1890855
32	0xbdc8cc95	-0.09804646
33	0x3d926eb7	0.071500234
34	0x3cec0981	0.028813126
35	0x3a7855b5	0.00094732206
36	0xbd8941fd	-0.067020394
37	0xbd2a1c5e	-0.04153096
38	0xbe0b1ad3	-0.13584451
39	0xbdaaf032	-0.08346595
40	0xbd6204ba	-0.05518029
41	0xbc8ee066	-0.017440986
42	0x3cd24f98	0.025672719
43	0xbdb557d5	-0.08854643
44	0x3cd26caf	0.02568659
45	0xbd838aad	-0.06422935
46	0x3c8b4a33	0.017003154
47	0xbdc2ba2d	-0.095081665
48	0x3c31dec4	0.010856334
49	0x3d956cd6	0.072961494
50	0xbe43fc38	-0.19139183
51	0xbc6d583c	-0.014486369
52	0x3d1c1f8c	0.038116023
53	0xbdd1597a	-0.102221444
54	0xbd8cbab0	-0.06871545
55	0xbd919c92	-0.071099415
56	0x3e1c8883	0.1528645
57	0xbd893f4a	-0.067015246
58	0xbd874a90	-0.066060185
59	0x3d8e5e01	0.069515236
60	0xbe685f5e	-0.2269263
61	0xbe3d5a24	-0.18491417
62	0xbcdd0bda	-0.02698319
63	0xbda337d6	-0.07969634
64	0x3dd9a837	0.106277876
65	0xbc51ddcc	-0.012809228
66	0xbe23b4f4	-0.15986997
67	0x3e8e8f1e	0.27843565
68	0xba41de20	-0.0007395465
69	0x3a4ad11c	0.0007736848
70	0xbe18bc86	-0.14915666
71	0x3e08477d	0.1330852
72	0x3e9de1ee	0.30836433
73	0x3dd47cad	0.103753425
74	0x3d985e0b	0.07439812
75	0xbd844f94	-0.06460491
76	0x3da0ff94	0.07861248
77	0xbddf59c6	-0.10905795
78	0xbdb40887	-0.08790689
79	0xbe5d5dd3	-0.21617822
80	0x3cd511d0	0.02600947
81	0x3e965b93	0.2936674
82	0x3c6caf12	0.014446037
83	0x3ca0f202	0.019646648
84	0xbcef27c0	-0.029193759
85	0xbea16492	-0.31522042
86	0x3d87235b	0.065985404
87	0xbcd15b3b	-0.025556197
88	0xbcb5b4d7	-0.022180958
89	0x3dcb2998	0.09920043
90	0xbcced906	-0.02524997
91	0x3dd498e4	0.10380724
92	0xbd05eb37	-0.03269502
93	0x3c1eb13a	0.009685809
94	0x3d6482da	0.055788852
95	0x3cb0fdc0	0.021605372
96	0xbd5ac3b6	-0.0534093
97	0xbd22d8b6	-0.039757453
98	0x3d1dbeb0	0.038511932
99	0xbdfc198f	-0.123095624
100	0x3d428845	0.047493238
101	0xbe0c85de	-0.13722941
102	0xbdec1868	-0.115280926
103	0xbd8da71d	-0.0691664
104	0xbd6c4ef9	-0.0576925
105	0xbc8a80cf	-0.016907124
106	0xbd42d50f	-0.04756647
107	0x3e525820	0.2054143
108	0x3e3be983	0.18350796
109	0x3d89de7d	0.067318894
110	0xbd2acb24	-0.041697636
111	0x3ce687f6	0.028141003
112	0x3df9364c	0.121685594
113	0xbd9ba855	-0.07600466
114	0xbdcdee28	-0.1005519
115	0xbd4b5917	-0.04964551
116	0xbda879ac	-0.08226332
117	0xbdd716cf	-0.10502397
118	0x3d126709	0.035742793
119	0xbd92c696	-0.071667835
120	0x3ddf6036	0.10907023
121	0xbc920599	-0.017824935
122	0x3e0b0e61	0.13579704
123	0x3deeb4ab	0.116555534
124	0xbb93c07f	-0.0045090313
125	0xbd89d3c0	-0.06729841
126	0x3dda4d74	0.10659304
127	0xbdb47974	-0.08812228
128	0x3cbef1f6	0.023308735
129	0x3d08152c	0.033223316
130	0xbcd7eeb9	-0.026358949
131	0xbb98fac0	-0.0046685636
132	0xbdee5ceb	-0.116388164
133	0xbdab886c	-0.0837563
134	0xbe01eb45	-0.12687404
135	0xbe196e82	-0.14983562
136	0xbda8243a	-0.08210035
137	0x3c49cca9	0.012316861
138	0xbdaacd42	-0.08339931
139	0xbdd92723	-0.10603168
140	0xbdfdb1f0	-0.123874545
141	0xbbda25cf	-0.006657339
142	0xbd66c568	-0.056340605
143	0xbda37fae	-0.07983337
144	0xbc9e818f	-0.019348888
145	0x3dbf35ce	0.09336434
146	0x3d04e640	0.032446146
147	0xbc03941f	-0.00803092
148	0xbc7a0a50	-0.015261248
149	0xbc0ef69f	-0.008725791
150	0xbd65dc91	-0.05611855
151	0xbdb86b14	-0.090047985
152	0xbcb0bf95	-0.021575728
153	0x3d18461f	0.037176248
154	0x3da922ba	0.08258577
155	0x3d166e80	0.036726475
156	0x3ca1a476	0.019731741
157	0xbd5ffbb7	-0.054683413
158	0x3ce69755	0.028148333
159	0xbca1da3a	-0.019757379
160	0xbde44fb7	-0.11148017
161	0x3d8203b8	0.063483655
162	0xbc4b2159	-0.012398087
163	0xbd0c6009	-0.034271274
164	0x3d4903a8	0.049075752
165	0x3df0b392	0.11753
166	0xbd2afa0c	-0.04174237
167	0x3c870388	0.016481176
168	0x3b8c5fe4	0.004283892
169	0x3e17ca0f	0.14823173
170	0x3ce8f373	0.028436398
171	0x399c1473	0.00029769875
172	0x3c410709	0.0117814625
173	0xbd668d38	-0.05628702
174	0x3cd18fe5	0.02558131
175	0xbd7eed1a	-0.062237836
176	0xbd802716	-0.06257455
177	0x3d97c72a	0.074110344
178	0x3d25eba4	0.040507928
179	0x39f8316c	0.00047339068
180	0x3a8a1f2f	0.0010537858
181	0xbbb492ea	-0.0055106776
182	0xbd006146	-0.031342767
183	0xbde5cb3d	-0.11220405
184	0xbd012f28	-0.031539112
185	0xbe0b8589	-0.13625158
186	0x3afbee5f	0.001922082
187	0xbda36019	-0.079773135
188	0x3cc8204e	0.024429467
189	0xbaa542f8	-0.0012608459
190	0xbd299ec2	-0.04141117
191	0x3d2dd60b	0.042440455
192	0xbd885fbc	-0.06658885
193	0xbd4a1d3f	-0.049344297
194	0xbd8ecd4a	-0.069727495
195	0x3d33b2b8	0.04387161
196	0xbdffe33e	-0.12494515
197	0xbdbd4bb9	-0.092429586
198	0x3cf9c5fc	0.030489914
199	0x3c778ae6	0.0151088
200	0x3d957dcb	0.07299384
201	0xbd6c23f3	-0.05765147
202	0x3da0743e	0.078346714
203	0xbd38cb45	-0.045115728
204	0xbda5eafc	-0.0810146
205	0xbcc1f89d	-0.023678118
206	0x3c7e3a8a	0.0155168865
207	0xbc8ce552	-0.017199192
208	0xbdf91267	-0.12161713
209	0xbcb8da6e	-0.022565093
210	0x3e0100d5	0.12597974
211	0xbd11718a	-0.03550867
212	0x3de38261	0.11108852
213	0x3dc5ad86	0.096522376
214	0xbd206fcf	-0.03916913
215	0x3cab034c	0.020875596
216	0x3d6c2968	0.057656676
217	0x3e0feed9	0.14055957
218	0x3b80d0d4	0.0039311443
219	0xbd8546e2	-0.065076604
220	0x3cb21399	0.02173786
221	0x3da4ca73	0.080464266
222	0xbd3b1a44	-0.045679346
223	0x3cc2a646	0.023760926
224	0xbdb2d549	-0.08732087
225	0x3d37e670	0.044897497
226	0x3dbdfff5	0.092773356
227	0x3d875ea8	0.06609851
228	0xbce42454	-0.027849354
229	0x3e3ca148	0.18420899
230	0x3b62d54b	0.0034611996
231	0xbe12878e	-0.14309523
232	0x3dc99891	0.09843553
233	0xbd340215	-0.043947298
234	0x3c220045	0.00988776
235	0x3e71009d	0.2353539
236	0x3d834574	0.064097315
237	0x3d97c9d8	0.074115455
238	0xbd62b06b	-0.055344027
239	0x3e16095f	0.14652012
240	0xbd20d867	-0.039268877
241	0x3df65b67	0.12029152
242	0x3dd5407e	0.104126915
243	0xbdb85710	-0.09000981
244	0xbe04b4ae	-0.12959549
245	0xbcd1baa7	-0.025601698
246	0x3d445c4f	0.047939595
247	0x3b859093	0.0040760725
248	0x3c931877	0.017956002
249	0xbcadebf6	-0.021230679
250	0x3dbda314	0.0925962
251	0x3e73f3cc	0.2382347
252	0x3dabb4ee	0.08384119
253	0x3e0de1cd	0.13855667
254	0xbd0fd31e	-0.035113446
255	0xbe0a26dc	-0.13491386

model1/stage3-branch3-reduction/Conv2D_bias_fused_bn f4 [16]
0	0x3f561e7b	0.8364026
1	0xbea85c1a	-0.32882768
2	0x3f27739d	0.65410787
3	0xbdd43e58	-0.103634536
4	0xbe56eb7a	-0.20988265
5	0xbf30c6d4	-0.6905339
6	0xbe50f5ec	-0.20406312
7	0x3dd13868	0.10215837
8	0x3f222d2c	0.63350177
9	0xbfa8e199	-1.3193847
10	0xbf48aac6	-0.7838558
11	0x3e7b5821	0.24545337
12	0x3cbc4000	0.022979736
13	0xbf2ed090	-0.6828699
14	0xbf4c8f46	-0.7990612
15	0x3da95000	0.08267212
