Config/NeuralNets/FieldBoundary/net.onnx (onnx, 74825 bytes, 49 tensors)

model/stage4-branch3-reduction/Conv2D_weights_fused_bn f4 [16, 48, 1, 1]
0	0xbb7fb355	-0.0039016802
1	0x3b8bad63	0.0042626127
2	0xbc1d46f5	-0.009599437
3	0xbb29e5d3	-0.002592434
4	0x3b8fcb24	0.00438823
5	0x3b76c73e	0.0037655379
6	0xbad19b4d	-0.0015991718
7	0x3c015806	0.007894522
8	0x3b0b75ed	0.0021280006
9	0xbb650918	-0.0034948047
10	0xbc35ee42	-0.011104168
11	0xbc6d72e0	-0.01449272
12	0xbc2a3b05	-0.010390048
13	0x39be0127	0.00036240483
14	0xbc66a9ed	-0.014078599
15	0xb9860a53	-0.00025566164
16	0x3abf0da7	0.0014576212
17	0x3b2e195b	0.0026565406
18	0x3a1b7cf9	0.0005931403
19	0x3bd189ac	0.0063945856
20	0xbca5aa16	-0.020222705
21	0xbc0f1244	-0.008732382
22	0xbc023d6b	-0.0079492135
23	0x3b368be6	0.0027854382
24	0xba0a2b56	-0.000527074
25	0xbbf6f897	-0.0075369584
26	0x3b0e919b	0.0021754268
27	0xbb955f7e	-0.0045585027
28	0x372c7cc9	1.0281053e-05
29	0x3c4c00f5	0.0124514
30	0xbc637bee	-0.013884528
31	0x3aa0df24	0.0012273532
32	0xbbf769ed	-0.007550469
33	0xbcbd863d	-0.023135299
34	0xbc233517	-0.009961388
35	0xbc254cfe	-0.010089157
36	0xbc8ff08a	-0.017570753
37	0x3ae3eb88	0.0017388919
38	0x3b3d2207	0.0028859393
39	0x3c4f6a32	0.012659596
40	0xbbfd1db0	-0.0077244863
41	0x3a815d03	0.0009869639
42	0xba233e55	-0.0006227245
43	0x3c24e835	0.010065128
44	0xba66684b	-0.00087893446
45	0xbb3bcbaf	-0.002865534
46	0xba6874f2	-0.0008867524
47	0xbb31f62e	-0.0027154791
48	0x3c1267e4	0.008935902
49	0x3c1addd4	0.009452302
50	0xbbad304a	-0.0052852975
51	0x3bc3590d	0.0059615434
52	0xbb42cbf7	-0.0029723623
53	0x3bc45e1a	0.005992663
54	0x3afd044d	0.001930365
55	0x3b6eb58f	0.0036424135
56	0x3b5e1bd2	0.0033891094
57	0xbc6298e3	-0.013830396
58	0xbd018e61	-0.031629924
59	0xbd1711e0	-0.03688228
60	0xbcf22b4e	-0.029561665
61	0xbc3eacd4	-0.011637885
62	0x3b3f1d24	0.0029161656
63	0x3b12e7f1	0.002241608
64	0x3a64095c	0.00086989044
65	0x3c17c223	0.009262594
66	0x39b46a7f	0.0003441162
67	0x3afe4aa4	0.0019400907
68	0xbd100f4a	-0.03517083
69	0xba24d1f3	-0.00062873884
70	0xbb05c61b	-0.002041227
71	0x3c202c52	0.009776192
72	0xbbcd78d6	-0.0062705083
73	0x3b564630	0.0032695644
74	0xbaa14936	-0.0012305144
75	0xbc27e0f3	-0.010246503
76	0xbc89fc60	-0.016843975
77	0x3c7af7a0	0.015317827
78	0xbc2d9020	-0.010593444
79	0xbbbb83f7	-0.0057225185
80	0xbc00b6b8	-0.007856064
81	0xbc0a2082	-0.008430602
82	0xbc8c9506	-0.017160904
83	0xbc11d5e1	-0.00890109
84	0xbcd10e12	-0.025519405
85	0xbccdc556	-0.025118511
86	0xbb8fc0a4	-0.004386978
87	0x3c0ab3dd	0.008465734
88	0xbc20a3ce	-0.009804679
89	0xbc414478	-0.011796109
90	0xbb49e9f7	-0.003080962
91	0x3bb040e4	0.0053788293
92	0x3aeb1832	0.0017936288
93	0xbc87467a	-0.016513098
94	0x3bf50a31	0.0074780216
95	0x3a74c04c	0.0009336516
96	0x3aa382b6	0.0012474868
97	0x3cb7f354	0.022454895
98	0xbbff33a0	-0.0077881366
99	0xbb6d0c3a	-0.0036170618
100	0xbc953d02	-0.018217567
101	0xbbcef76e	-0.006316117
102	0xbc997957	-0.018734617
103	0xba685437	-0.00088626466
104	0xbc7dfb20	-0.015501767
105	0xbb5e20b4	-0.0033894004
106	0x3ba408c5	0.005005928
107	0x3b9a64e2	0.004711733
108	0xbb3e06d9	-0.002899578
109	0xbc173a8d	-0.009230268
110	0x3b99ba0d	0.0046913684
111	0xbcc9aee8	-0.024619535
112	0xbc0510c8	-0.008121677
113	0x3a8efe18	0.0010909466
114	0xbb7e5c4a	-0.0038812333
115	0xbc077087	-0.008266575
116	0xbb9d7d33	-0.0048061847
117	0x3b512d13	0.0031917735
118	0xba088cb7	-0.00052089564
119	0x3b9beea2	0.004758672
120	0xbc3ac59a	-0.011399651
121	0xbc02a2ae	-0.007973356
122	0xbc1ffbd4	-0.00976463
123	0x3b16f60d	0.0023034841
124	0xbc0a9b78	-0.008459918
125	0x3b32514e	0.0027209106
126	0xbcdfabc4	-0.027303584
127	0xbb1498f6	-0.002267418
128	0xbc0b2a7e	-0.008494018
129	0xbc037437	-0.008023313
130	0xbc4758a7	-0.012167132
131	0x3c31c344	0.010849778
132	0xbbe592c0	-0.0070060194
133	0xbc2852ce	-0.010273648
134	0xbc11bb89	-0.0088948095
135	0xbc3105ba	-0.010804588
136	0xbc450366	-0.012024736
137	0xbc280e8b	-0.010257374
138	0xbcad2b75	-0.021138886
139	0xb8b8e788	-8.81693e-05
140	0xbc609cc5	-0.013709252
141	0x3a7747cc	0.0009433001
142	0xbb2bc761	-0.0026211368
143	0xba9b0ea2	-0.0011829922
144	0x3c0018bc	0.007818397
145	0x3bd13dc1	0.0063855355
146	0xbc62da29	-0.013845959
147	0x3b1b46f9	0.0023693426
148	0xbb9099f7	-0.0044128853
149	0xbc063dbc	-0.00819343
150	0xbb5f648e	-0.0034087035
151	0x3b7a2962	0.0038171639
152	0xbbeb9560	-0.0071894377
153	0xbbffb67e	-0.007803737
154	0xbc62d899	-0.013845586
155	0xbc8a8d31	-0.016913028
156	0xbcee0686	-0.029055845
157	0x3a8bde72	0.0010671152
158	0xbc9e3f4b	-0.01931729
159	0xbb9c9685	-0.0047786855
160	0x3c1ee46c	0.009698015
161	0x3aece84c	0.0018074601
162	0xbc0daa4c	-0.008646559
163	0xbc400583	-0.011720064
164	0xbc415dab	-0.011802117
165	0xbc65cf1f	-0.014026432
166	0x3c03ddb1	0.008048461
167	0x3b13eacc	0.002257037
168	0xb8feabca	-0.00012143662
169	0xbb8d1f53	-0.0043067127
170	0xbb949d20	-0.0045353323
171	0xbc58bad7	-0.01322814
172	0xb99e288d	-0.0003016632
173	0x3af39f24	0.0018586856
174	0xbb6b479f	-0.0035900844
175	0xbb36b613	-0.002787952
176	0x3b08e7c9	0.0020890108
177	0xbc4aed7d	-0.012385723
178	0xbc829662	-0.015940849
179	0x3c3c52e8	0.011494376
180	0xb8aaa3d4	-8.136747e-05
181	0xbc8d8faa	-0.017280418
182	0x3c23e177	0.0100024855
183	0xbba3edb8	-0.0050027035
184	0x3bcbc73e	0.00621882
185	0xbb6f4fde	-0.003651611
186	0xbae8c5e0	-0.0017759167
187	0x3c1a3bf8	0.009413712
188	0x3baadcc3	0.005214305
189	0xbc0bfb87	-0.0085438555
190	0xbbc5c096	-0.006034921
191	0xbc0554e8	-0.008137919
192	0x3b997056	0.004682581
193	0x3bcedf1b	0.0063132173
194	0x3b236310	0.0024930872
195	0x3b2dd0a5	0.0026522067
196	0xba1e349e	-0.0006035062
197	0x39f0895c	0.00045878708
198	0xbc1763c0	-0.009240091
199	0x3c430652	0.011903362
200	0xbc20d419	-0.009816193
201	0xbba42433	-0.005009198
202	0xbca7292d	-0.020405376
203	0xbcf60171	-0.030029984
204	0xbcfaa40e	-0.030595805
205	0xbad8d4b4	-0.0016542883
206	0xbc30b101	-0.0107843885
207	0xbbf93e2f	-0.00760629
208	0xbbc1fe98	-0.0059202425
209	0x3b92ffa6	0.004486042
210	0x3b85c1e0	0.0040819496
211	0x3b2828f8	0.0025659185
212	0xbc184359	-0.009293401
213	0x3bae2a3d	0.005315094
214	0xba8b394b	-0.0010621933
215	0x3b1a0d76	0.0023506559
216	0x3c24afc2	0.01005167
217	0xbc6b2f7b	-0.014354582
218	0x3b4ec1a2	0.003154852
219	0x3c114d1a	0.00886848
220	0xbc0c95a6	-0.008580601
221	0xbb42c4b6	-0.00297193
222	0xbc0dbf83	-0.008651617
223	0xbbbd7655	-0.0057819285
224	0x3be0cd0d	0.0068603815
225	0xbc4f9699	-0.012670183
226	0xbc20687d	-0.009790537
227	0xbb85f12b	-0.0040875874
228	0xbc08696c	-0.008325916
229	0xbc84c1a4	-0.016205616
230	0xb9e5bb36	-0.00043817767
231	0x3c15a0bf	0.009132563
232	0x3bc7ed1e	0.0061012646
233	0x3c0d68aa	0.008630911
234	0x3ab36b73	0.0013688639
235	0x3ad4e6a7	0.0016243056
236	0x39706c89	0.00022928616
237	0xbb7fa473	-0.0039007931
238	0xb9e215d3	-0.0004312234
239	0x3c0a03d0	0.0084237605
240	0x3b8b10c2	0.004243941
241	0x3ca2ee85	0.019889126
242	0xbba7a889	-0.0051165265
243	0xbc9fc323	-0.019502228
244	0xbb061b2f	-0.002046298
245	0xbc11f089	-0.008907446
246	0x3b98a259	0.004658025
247	0x3ac1cf58	0.0014786525
248	0x3bd6a425	0.0065503293
249	0xbc05124f	-0.008122041
250	0xbd677938	-0.056512088
251	0xbd8e825d	-0.069584586
252	0xbd7f4b21	-0.062327508
253	0x3b081486	0.0020764186
254	0xbd05283e	-0.03250908
255	0xba6e769c	-0.00090966537

model/stage4-branch3-reduction/Conv2D_bias_fused_bn f4 [16]
0	0xbe4f6e4e	-0.20256922
1	0xbe7bedce	-0.24602434
2	0xbe96a99a	-0.2942627
3	0xbeafa960	-0.3430891
4	0xbeacd78e	-0.33758205
5	0xbe8a7442	-0.27041823
6	0xbf164922	-0.5870534
7	0xbde9e5b0	-0.114207625
8	0xbec28987	-0.3799555
9	0xbe8f8f9a	-0.28039247
10	0xbdef1c18	-0.1167528
11	0xbe995173	-0.29944953
12	0xbf449d81	-0.7680283
13	0xbdf48168	-0.11938745
14	0xbf15c7dd	-0.5850809
15	0xbeb21370	-0.34780455

model/stage4-branch2-reduction/Conv2D_weights_fused_bn f4 [8, 48, 1, 1]
0	0xbd2ff810	-0.04296118
1	0xbdd7e145	-0.10541014
2	0x3d90ac76	0.07064144
3	0xbe51be21	-0.20482685
4	0xbe35c194	-0.17749625
5	0x3e9ef7c8	0.31048417
6	0xbee7b807	-0.4525759
7	0xbed305d6	-0.4121539
8	0xbe1902d1	-0.1494248
9	0xbecbc231	-0.39796594
10	0x3cd32c24	0.025777884
11	0x3e5874bd	0.21138282
12	0x3e0e5d04	0.1390267
13	0xbe2b70d8	-0.16742265
14	0xbe89f388	-0.26943612
15	0x3e3c050a	0.18361297
16	0xbafed760	-0.0019442849
17	0xbd84702e	-0.06466709
18	0x3c79815b	0.015228595
19	0xbc369466	-0.011143779
20	0xbef16224	-0.47145188
21	0xbe48b730	-0.1960113
22	0x3e5281fb	0.20557396
23	0xbe94827e	-0.29005808
24	0xbe753985	-0.23947723
25	0x3e7a7e29	0.24462189
26	0xbea77cf6	-0.32712525
27	0x3f28b549	0.6590162
28	0xbe20006d	-0.15625162
29	0xbe442df8	-0.1915816
30	0x3f0f90c7	0.5608029
31	0xbe5b675d	-0.21426149
32	0xbe4dcd33	-0.20097809
33	0x3bd11073	0.0063801347
34	0xbf040d59	-0.51582867
35	0x3d51224a	0.05105809
36	0x3eeb0f8b	0.45910296
37	0x3f8a2920	1.07938
38	0xbe0a169a	-0.13485184
39	0xbef8ae16	-0.48570317
40	0x3f086d10	0.53291416
41	0x3d1b7dc5	0.03796174
42	0xbd4ffed1	-0.05078012
43	0x3e6f6765	0.23379286
44	0x3df9c897	0.121964626
45	0x3e0b2a14	0.1359027
46	0x3e5969be	0.21231744
47	0x3e27370c	0.16329592
48	0x3d84deaf	0.06487786
49	0xbd41affe	-0.04728698
50	0xbef40597	-0.47660515
51	0xbe7f9ccb	-0.24962156
52	0xbc955741	-0.018230082
53	0x3e09524f	0.13410304
54	0xbdb4cca9	-0.08828098
55	0x3f14491e	0.5792407
56	0xbf20254a	-0.625569
57	0x3e4d99dc	0.20078224
58	0x3e971f48	0.29516053
59	0xbf3476b4	-0.70493627
60	0xbd51c516	-0.051213346
61	0x3b96fd1d	0.00460781
62	0xbed271dd	-0.41102496
63	0xbf8ead01	-1.1146547
64	0xbe532b05	-0.2062188
65	0x3dbc2496	0.09186666
66	0xbedb2ac7	-0.42806074
67	0xbdbb9b84	-0.091605216
68	0xbecadc65	-0.39621273
69	0x3ed55518	0.41666484
70	0xbdef001f	-0.11669945
71	0xbeb99435	-0.36245885
72	0xbee9571b	-0.4557427
73	0x3f12316a	0.5710665
74	0x3c654692	0.013993876
75	0xbea2d17a	-0.31800443
76	0x3c843e9c	0.016143136
77	0x3c955e8b	0.018233558
78	0xbeb20896	-0.34772176
79	0xbd6db1c7	-0.05803087
80	0xbc2f83ce	-0.010712577
81	0x3f16d0fb	0.5891263
82	0x3e57010c	0.20996493
83	0x3ec7d95c	0.3903302
84	0xbde029af	-0.109454505
85	0xbc8ae6dc	-0.016955785
86	0x3e2412e1	0.16022827
87	0xbdecaa5a	-0.115559295
88	0xbe9d1de5	-0.3068687
89	0x3e4a8dfe	0.19780728
90	0xbea6b8e1	-0.32562926
91	0xbe7541d8	-0.23950899
92	0xbe09a726	-0.13442668
93	0xbe91e129	-0.28492096
94	0xbe69d17e	-0.22833821
95	0x3e0b38e5	0.13595922
96	0x3d7f6557	0.062352505
97	0x3e889183	0.26673517
98	0x3e5cd155	0.21564229
99	0xbb325bd7	-0.0027215385
100	0x3e3f685b	0.18692152
101	0xbc9f4720	-0.019443095
102	0xbe93ca23	-0.28865156
103	0xbeb4d2fd	-0.3531722
104	0xbe590c01	-0.21195985
105	0xbda302d6	-0.07959525
106	0xbcedf2e9	-0.029046493
107	0x3f29cd48	0.6632886
108	0x3e0349e5	0.12821157
109	0xbe3439e4	-0.17600209
110	0x3c93a06c	0.018020831
111	0x3da6d212	0.081455365
112	0xbe668818	-0.22512853
113	0x3e9fbbbd	0.3119792
114	0x3d07c13e	0.033143274
115	0x3d847604	0.06467822
116	0x3f17386b	0.5907046
117	0x3c431177	0.011906019
118	0x3e6ec34f	0.23316692
119	0x3f153da2	0.5829717
120	0xbf3ae0ab	-0.72999066
121	0xbdcf4265	-0.101200856
122	0xbec89486	-0.39175814
123	0x3d9ddc30	0.07708013
124	0xbd0f73db	-0.035022598
125	0xbe842d38	-0.2581575
126	0xbf0c93dd	-0.5491312
127	0xbe3bf95b	-0.1835684
128	0xbebb677b	-0.36602387
129	0xbe64fb06	-0.22361383
130	0xbe06af2a	-0.13152757
131	0xbe9fb9be	-0.31196398
132	0xbf16c6a3	-0.58896846
133	0x3db2ad09	0.0872441
134	0xbe214f27	-0.1575285
135	0x3d2b734b	0.041858
136	0x3e8706d7	0.26372406
137	0xbd03401c	-0.03204356
138	0x3e0c39df	0.13693951
139	0x3df54e4b	0.11977824
140	0x3eaa4c38	0.33261275
141	0xbad30073	-0.0016098156
142	0x3e989d1c	0.29807365
143	0xbdc1bdbf	-0.09460019
144	0xbd58bd10	-0.05291468
145	0xbe21dabe	-0.158061
146	0x3e35b0ef	0.17743276
147	0x3e0e28e8	0.13882792
148	0xbe3c4850	-0.1838696
149	0xbec16d23	-0.37778577
150	0xbd309857	-0.043114033
151	0xbe7b087b	-0.24514954
152	0x3e7c78b3	0.24655418
153	0x3d67dd5a	0.05660758
154	0xbe04528c	-0.12922114
155	0x3e6c0eca	0.23052517
156	0xbe27e508	-0.16395962
157	0xbd19249c	-0.03738843
158	0x3eb425d3	0.35185108
159	0x3da47c09	0.0803147
160	0x3e215b08	0.15757382
161	0x3eb0b176	0.34510392
162	0x3d1580e7	0.036499884
163	0x3e0a5e61	0.13512565
164	0x3eeb1501	0.45914462
165	0xbe328d9c	-0.17436832
166	0x3e7d29a2	0.24722913
167	0xbe77ba22	-0.24192098
168	0x3dece156	0.11566417
169	0x3d7437dc	0.059623584
170	0x3e9ab7f9	0.30218485
171	0xbdcf22ef	-0.10114085
172	0x3d22bd91	0.039731566
173	0xbe2738d5	-0.16330273
174	0x3c81d1c5	0.015847096
175	0xbdb32190	-0.08746636
176	0x3dacda48	0.08440071
177	0xbe52da7c	-0.20591158
178	0x3dc6d7bd	0.097091176
179	0x3e2b6eb9	0.16741456
180	0xbe4b59a1	-0.1985841
181	0x3e2463ef	0.16053747
182	0xbe19e686	-0.15029344
183	0xbdede51a	-0.11615963
184	0xbd7af485	-0.06126835
185	0xbc41b1ed	-0.011822206
186	0xbdb4dd52	-0.08831276
187	0x3e24349f	0.16035698
188	0x3d267da9	0.040647183
189	0xbb6b5958	-0.0035911407
190	0x3c70a44c	0.014687609
191	0xbe413665	-0.18868406
192	0xbd644840	-0.055732965
193	0x3d59a0a0	0.0531317
194	0xbefdb325	-0.4955074
195	0x3e4f8231	0.20264508
196	0xbe46883a	-0.19387904
197	0x3e886488	0.266392
198	0x3db0c073	0.08630457
199	0xbb5d4b0e	-0.003376666
200	0x3e285615	0.16439088
201	0x3e58cc3d	0.2117166
202	0xbe8c5b44	-0.2741338
203	0xbf8a184d	-1.0788666
204	0xbea1b26f	-0.31581447
205	0x3eccc232	0.3999191
206	0xbdc3bfee	-0.09558092
207	0xbdb42fe1	-0.08798195
208	0x3dc72cb6	0.09725325
209	0xbdc55302	-0.09634973
210	0xbea18f5d	-0.3155469
211	0xbe1557a0	-0.14584208
212	0xbe87d72a	-0.26531345
213	0x3d22ccfd	0.039746273
214	0xbd6cc868	-0.05780831
215	0xbe3d7882	-0.18503001
216	0x3e6a7f46	0.22900113
217	0xbf267b33	-0.6503174
218	0x3d3d1355	0.046161015
219	0xbe40d0dd	-0.18829675
220	0xbe0c7aca	-0.13718715
221	0x3e3a4f44	0.181943
222	0xbd259bf1	-0.04043192
223	0x3e620712	0.2207301
224	0xbec8bfb0	-0.39208746
225	0xbe472b9b	-0.19450228
226	0x3e9bd02c	0.3043226
227	0xbdb61f9f	-0.0889275
228	0x3e4eb4c1	0.2018614
229	0x3e0f1152	0.13971451
230	0x3e06311b	0.1310467
231	0x3e8151f5	0.2525784
232	0x3e0fd260	0.14045095
233	0x3e24e094	0.16101295
234	0xbde6ec74	-0.112755686
235	0xbf300955	-0.6876424
236	0xbea53d39	-0.32273272
237	0x3f0e3a9a	0.5555817
238	0x3e5bb45d	0.21455522
239	0x3e0c8603	0.13722996
240	0x3d8506aa	0.06495412
241	0xbe17f301	-0.14838792
242	0xbf1cbfa6	-0.6122993
243	0x3e240f1f	0.16021393
244	0x3d31c9c8	0.043405324
245	0x3d5c2bb0	0.0537526
246	0xbe77892a	-0.24173418
247	0x3e020888	0.12698567
248	0xbe052224	-0.13001305
249	0xbd175534	-0.03694649
250	0x3f080e33	0.53146666
251	0x3d14f0b5	0.03636237
252	0xbdd779ea	-0.105213
253	0xbe1469d6	-0.14493498
254	0x3e200b62	0.15629342
255	0xbe5453ac	-0.20735043

model/stage4-branch2-reduction/Conv2D_bias_fused_bn f4 [8]
0	0x3f558e5e	0.8342036
1	0x3f87e315	1.0616175
2	0x3f4d823f	0.80276865
3	0x3ebc8954	0.36823523
4	0x3f933fd7	1.1503857
5	0x3fc70410	1.5548115
6	0xbe35c6ea	-0.17751661
7	0xbfd2ad0e	-1.6459062

model/stage4-branch2-conv/Conv2D_weights_fused_bn f4 [16, 8, 3, 3]
0	0xbbb740c7	-0.005592439
1	0xbbea5656	-0.0071514053
2	0xbb926eb4	-0.0044687632
3	0xbb893ab6	-0.004187907
4	0x37ce97d5	2.4627816e-05
5	0xbaf36860	-0.0018570535
6	0xb8d37b97	-0.000100842844
7	0x3ae6962e	0.0017592364
8	0x3bb8a694	0.005635092
9	0x3a048da1	0.0005056505
10	0xb9a89b40	-0.00032159127
11	0xbad5064a	-0.0016252485
12	0x3975363a	0.00023385222
13	0xb7f61a59	-2.9337754e-05
14	0x3b0d7a4e	0.0021587792
15	0xb9aa9aeb	-0.0003254035
16	0xb96a2051	-0.00022328018
17	0xba44b8f1	-0.0007504365
18	0xbbd13565	-0.006384539
19	0xbbb91c64	-0.0056491364
20	0xbb34c602	-0.0027583842
21	0xbb8ba972	-0.004262143
22	0xba50e538	-0.00079687266
23	0xb97d2c39	-0.00024144434
24	0xbb2f038f	-0.0026705002
25	0xbb7f2f8e	-0.0038938257
26	0xbac3dca9	-0.0014943081
27	0x39276065	0.00015962271
28	0xbb23ef31	-0.0025014395
29	0xbb95b31a	-0.0045684697
30	0xbb9fc617	-0.004875909
31	0xbafdbd3c	-0.0019358764
32	0xbbd44b16	-0.0064786775
33	0xbbc6e526	-0.006069797
34	0xbbbc2f85	-0.0057429695
35	0xbb1d28bd	-0.002398058
36	0x3a1d5aa7	0.0006002583
37	0x3a69f4c0	0.0008924715
38	0x3930cae4	0.0001686025
39	0xbb9a94be	-0.0047174385
40	0xb92453e2	-0.00015671508
41	0xbb51bccf	-0.0032003408
42	0x394e9729	0.00019702002
43	0xb8e8cc4c	-0.00011100675
44	0xbb1b9113	-0.0023737594
45	0xbb8900f0	-0.00418102
46	0xbb2fef9a	-0.0026845695
47	0xba3f6fcd	-0.00073027314
48	0x3a171401	0.00057631737
49	0xbb5546f1	-0.0032543505
50	0xba463d3f	-0.0007562227
51	0xbb1483fd	-0.002266168
52	0x3b376724	0.002798506
53	0xba505fe7	-0.0007948861
54	0x3b2113ff	0.002457857
55	0x3b9c6760	0.0047730654
56	0x3b411a7b	0.0029465246
57	0x3ad5a87b	0.0016300821
58	0x3a624195	0.00086309883
59	0xbac70208	-0.00151831
60	0x3aa6dd9b	0.0012730838
61	0xbb56ed4e	-0.0032795253
62	0x3b28a9e6	0.0025736033
63	0xbbc9c211	-0.0061571677
64	0xbc1946b5	-0.009355237
65	0xbbf72c36	-0.007543112
66	0xbc11cec5	-0.008899395
67	0xbc19341f	-0.009350806
68	0xbbd22e83	-0.006414236
69	0xb8e5662a	-0.000109386005
70	0x3b5b0299	0.0033418296
71	0x3b94aefb	0.004537461
72	0x3bb839e8	0.0056221373
73	0x3a9843be	0.0011616868
74	0x3be01764	0.006838726
75	0x388450d9	6.3093095e-05
76	0xb937a3a4	-0.00017513201
77	0x3b9dd4f8	0.0048166476
78	0x3c3d2e3f	0.01154667
79	0x3c14633e	0.009056864
80	0x3c35b1cb	0.011089752
81	0xbcea2715	-0.028583089
82	0xbc642009	-0.013923653
83	0xbcb55bb6	-0.022138458
84	0x3995a67f	0.00028543544
85	0xba858753	-0.0010187424
86	0x3afcf8dd	0.0019300241
87	0x3c350515	0.011048575
88	0x3c33ee47	0.010982103
89	0x3c21c8d2	0.009874539
90	0xbb9c9125	-0.0047780448
91	0x3a09ce3d	0.0005256867
92	0xbba8d4b7	-0.0051523107
93	0xbb047def	-0.0020216664
94	0x3b04d325	0.0020267454
95	0xbb1f24f8	-0.002428351
96	0xbd2ea33c	-0.04263614
97	0xbd178c22	-0.036998875
98	0xbd138ec0	-0.03602481
99	0x3b2ddbea	0.0026528784
100	0x3b15c7eb	0.0022854756
101	0x3b873056	0.004125635
102	0xba9004da	-0.0010987774
103	0xba031c6c	-0.00050014886
104	0x3b357b13	0.0027691766
105	0xbc09d61e	-0.008412866
106	0xbbc2f996	-0.005950163
107	0xbbe5e1f1	-0.0070154597
108	0xbbdce62b	-0.0067413053
109	0xbb37334e	-0.0027954164
110	0xbc3f1085	-0.011661653
111	0xb9cbc87c	-0.0003886855
112	0x386ee214	5.6954173e-05
113	0xb856e907	-5.12386e-05
114	0x3ac2bc35	0.0014857115
115	0x3bfa6ed3	0.007642606
116	0x3a154082	0.00056935113
117	0x3b5d1e23	0.0033739887
118	0x3b800a29	0.003907461
119	0x3bcdf849	0.0062857014
120	0x3a5f0955	0.00085081655
121	0x3aaf9c7c	0.0013398076
122	0xba83fb2b	-0.0010069361
123	0xbb82e121	-0.0039941226
124	0xba3a81b6	-0.00071146653
125	0xbab7946a	-0.0014006023
126	0xbb43cbe5	-0.002987617
127	0x3b6dcab3	0.0036284148
128	0xbb1a3019	-0.0023527204
129	0x3c1fa15f	0.009743064
130	0x3bf28394	0.0074009392
131	0x3c27474e	0.010209871
132	0xbc868714	-0.016421832
133	0xbc729d86	-0.014808064
134	0xbc41d967	-0.011831618
135	0xbc05dc82	-0.008170249
136	0xbbbbd728	-0.0057324357
137	0xbb96d70f	-0.0046032737
138	0x3a7acd3a	0.00095673243
139	0x39d6aa45	0.0004094412
140	0xba72538f	-0.00092440186
141	0xbce38616	-0.027773898
142	0xbcb229b0	-0.021748394
143	0xbcd3e23a	-0.02586471
144	0xbcd8704c	-0.026420735
145	0xbcb3c56e	-0.021944728
146	0xbcccb493	-0.024988448
147	0xbc21d23b	-0.009876783
148	0xbd4a94f4	-0.04945846
149	0xbc9f8769	-0.019473748
150	0x3b487958	0.0030589905
151	0xbdac9157	-0.08426159
152	0xbccb1cfd	-0.024794096
153	0xbad4405c	-0.0016193497
154	0x3a802e2d	0.0009779386
155	0x3ba530bd	0.0050412104
156	0xbc76a5c1	-0.015054167
157	0xbce75bfa	-0.0282421
158	0xbaf4dd69	-0.0018681708
159	0xbd4f6976	-0.050637685
160	0xbb4ad3e8	-0.003094906
161	0xbcf2ff68	-0.029662803
162	0x3b536236	0.0032254583
163	0x3bcb7267	0.006208706
164	0x3b3a3837	0.0028414854
165	0x3c85b810	0.01632312
166	0x3c17c964	0.009264324
167	0x3ce4d69c	0.027934365
168	0xbaa1ce03	-0.0012344721
169	0x3bddabe0	0.006764874
170	0xbc0b116e	-0.008488042
171	0x3cabd3a4	0.020974942
172	0x3c33a50f	0.010964646
173	0x3c9c1080	0.019050837
174	0xba4baf2a	-0.0007769937
175	0x3cfc4e76	0.030799132
176	0xbb8f9526	-0.0043817936
177	0xbd6e25f9	-0.058141682
178	0xbd61b633	-0.0551054
179	0xbd239a4b	-0.039942067
180	0x3bc34859	0.0059595522
181	0xbbcb8f70	-0.0062121674
182	0x3ba4e497	0.005032133
183	0xbc442590	-0.011971846
184	0xbc5318b0	-0.012884304
185	0xbc6a754b	-0.014310191
186	0xbcb17a71	-0.02166483
187	0xbbd7b3b9	-0.006582704
188	0xbceef6a4	-0.029170342
189	0x3c98ea00	0.018666267
190	0xbba34577	-0.004982646
191	0x3c9cbbff	0.019132612
192	0xbc0a9659	-0.008458697
193	0xbaa885e2	-0.0012857283
194	0xbc5ef2e6	-0.013607716
195	0x3cf84849	0.030307906
196	0x3d186c96	0.03721293
197	0x3d5848ad	0.052803684
198	0xbcd474f8	-0.025934681
199	0xbd16ecc2	-0.036846884
200	0xbd25348f	-0.040333327
201	0xbd19906c	-0.037491247
202	0xbce22fd6	-0.0276107
203	0xbcdc2e19	-0.02687745
204	0x3b9a157d	0.0047022686
205	0xbcb09357	-0.021554632
206	0xbb9429ab	-0.004521569
207	0xbc8b35d4	-0.01699344
208	0xbc1d2551	-0.009591416
209	0xbc872514	-0.016497172
210	0xbc9f6b21	-0.019460263
211	0xbd0df846	-0.0346606
212	0xbc9cfb1a	-0.019162703
213	0xbd9a43ed	-0.07532487
214	0xbd90e1a4	-0.070742875
215	0xbd7ab557	-0.061208095
216	0xbd02a11c	-0.031891927
217	0xbcc65805	-0.024211893
218	0xbd0314df	-0.032002326
219	0xbc9351c7	-0.01798333
220	0xbc9e0e95	-0.019294063
221	0xbc1c97a3	-0.009557637
222	0xbc6111f1	-0.013737188
223	0xbc54c71d	-0.012986925
224	0xbc19fa8d	-0.009398115
225	0xbb84587e	-0.0040388694
226	0x3bb000a7	0.0053711715
227	0xba81ab13	-0.0009892903
228	0x3b9094ee	0.004412285
229	0x3b967aaf	0.0045922617
230	0xbaa1da4b	-0.0012348382
231	0x3c3803d1	0.011231379
232	0xb9d0f1ef	-0.00039853106
233	0x3c064bd7	0.008196793
234	0xbc261e72	-0.010139095
235	0xbca8da6f	-0.02061197
236	0xbcc88aa5	-0.024480173
237	0xbb33ccdb	-0.0027435336
238	0xbbf6aa65	-0.007527637
239	0xbbbef8bd	-0.0058279918
240	0x3bb11d96	0.0054051382
241	0x3a0640e1	0.0005121362
242	0xbad76d8c	-0.0016435846
243	0xbc95066d	-0.01819154
244	0xbca04ee8	-0.019568875
245	0xbc2c0e04	-0.010501388
246	0x3a5b8e4f	0.00083753926
247	0xbc415c79	-0.011801832
248	0xbbd58c81	-0.0065169935
249	0xbc380ab3	-0.01123302
250	0xbc75116d	-0.014957768
251	0xbbc1621c	-0.005901588
252	0xb98a9dfa	-0.00026439113
253	0xbb214670	-0.0024608634
254	0x3bf92d40	0.007604271
255	0x3c76e3b9	0.015068942

model/stage4-branch2-conv/Conv2D_bias_fused_bn f4 [16]
0	0xbe2084cc	-0.15675658
1	0x3da41bb2	0.08013095
2	0x3df3235a	0.11871977
3	0xbed0b2b5	-0.40761343
4	0xbe27b6da	-0.16378346
5	0xbe836547	-0.25663206
6	0xbea75b5f	-0.32686898
7	0xbeb6adf2	-0.35679585
8	0xbf0e3a96	-0.55558145
9	0x3e3efeee	0.18651935
10	0xbeef5ece	-0.46752018
11	0xbf16a3de	-0.5884379
12	0xbed482fd	-0.41506186
13	0xbef12655	-0.47099558
14	0xbf02dd18	-0.5111861
15	0x3de4a536	0.11164324

model/stage4-branch1-reduction/Conv2D_weights_fused_bn f4 [4, 48, 1, 1]
0	0x3e2a5eab	0.16637675
1	0x3e25ceef	0.1619222
2	0x3e85efd5	0.2615954
3	0xbd9dc580	-0.07703686
4	0x3ea30bfd	0.31845084
5	0xbe598547	-0.21242248
6	0xbec742df	-0.38918206
7	0xbddadd0f	-0.10686695
8	0x3c5aac3c	0.013346728
9	0x3e0b2d29	0.13591446
10	0xbe3a24c8	-0.18178093
11	0x3e28425a	0.16431561
12	0x3e12375a	0.14278927
13	0xbd740096	-0.05957087
14	0xbcee7cec	-0.029112302
15	0x3c9816b0	0.018565506
16	0xbebdae3c	-0.37046993
17	0x3dd3f2e2	0.103490606
18	0x3db43acf	0.08800279
19	0xbd685366	-0.05672016
20	0x3c97d2d6	0.018533152
21	0xbc9a483e	-0.018833276
22	0x3e98e86a	0.29864818
23	0x3ec4dcd7	0.38449737
24	0x3d922e02	0.071376815
25	0x3d7df2e3	0.061999213
26	0xbe29b074	-0.16571218
27	0xbd2d3be0	-0.04229343
28	0x3e53ebe6	0.20695457
29	0xbdd9a786	-0.10627656
30	0x3af7a54b	0.0018893866
31	0xbc9571fb	-0.018242827
32	0xbd31ef75	-0.043441255
33	0xbf360410	-0.7109995
34	0xbcf840b3	-0.030304288
35	0xbe20604e	-0.15661737
36	0x3c45e696	0.012078902
37	0x3d97c2b4	0.074101835
38	0xbe397ea8	-0.18114722
39	0xbd054e93	-0.032545637
40	0x3d9b8f4a	0.075956896
41	0xbdd22528	-0.10260993
42	0x3ca40797	0.02002315
43	0x3d5d8ebf	0.05409121
44	0x3c860eff	0.016364573
45	0xbe390f37	-0.1807221
46	0x3e3df44d	0.18550225
47	0xbdce0ee3	-0.10061433
48	0x3ea7b6cf	0.3275666
49	0xbe841c5f	-0.25802895
50	0x3ed4ac0b	0.41537508
51	0x3e9ef767	0.31048128
52	0xbd4f89ed	-0.050668646
53	0xbd68f409	-0.056873355
54	0xbe0aa5fc	-0.1353988
55	0xbf04b424	-0.5183737
56	0x3e85dd45	0.26145378
57	0xbd6e9fd0	-0.058257878
58	0xbe70ec94	-0.23527747
59	0xbd9ebe91	-0.077511914
60	0xbe699061	-0.22808982
61	0xbea4a9b9	-0.32160738
62	0xbe88cb3d	-0.26717559
63	0x3d78ea9f	0.060770627
64	0x3e0e02cb	0.13868253
65	0x3ebfc653	0.37455997
66	0x3defff83	0.11718657
67	0xbe8a8011	-0.27050832
68	0xbe8a8719	-0.27056196
69	0xbebe8080	-0.37207413
70	0x3e5d3e06	0.21605691
71	0x3e9743c8	0.295439
72	0xbe1642e5	-0.14673956
73	0x3e05aec8	0.13054955
74	0x3dcc018f	0.09961235
75	0x3e905873	0.2819248
76	0x3d0b1705	0.0339575
77	0xbe39e2e4	-0.18152958
78	0x3e954e8b	0.29161486
79	0xbef04c40	-0.46933174
80	0xbe059d99	-0.130484
81	0xbf4f7d9e	-0.8105105
82	0xbead1786	-0.3380701
83	0x3dc80745	0.097670116
84	0x3c3cdad7	0.011526785
85	0x3e20a42d	0.15687628
86	0xbe791932	-0.24326017
87	0xbe97d173	-0.29651985
88	0xbe6e4aa0	-0.23270655
89	0xbbcd8aa3	-0.0062726303
90	0x3df1f9f0	0.1181525
91	0x3e2fb648	0.17159379
92	0x3de4cad0	0.11171496
93	0x3e84e218	0.25953746
94	0x3d5b8044	0.05358912
95	0xbe0e2d61	-0.13884498
96	0x3deec18e	0.116580114
97	0xbde817f4	-0.11332694
98	0x3e829fba	0.25512487
99	0x3dc4b211	0.09604276
100	0x3e9842cc	0.29738462
101	0xbd8c015d	-0.068361975
102	0xbe179c34	-0.1480568
103	0x3d2a826e	0.041628294
104	0x3da05cee	0.07830225
105	0x3e148a7f	0.14505957
106	0xbe2e9285	-0.1704808
107	0xbde796fb	-0.11308094
108	0xbd467c91	-0.04845864
109	0x3d5c4e92	0.053785868
110	0xbd12656f	-0.035741266
111	0xbb028e28	-0.0019921158
112	0xbee5f47b	-0.44913086
113	0x3d0f61de	0.035005443
114	0x3dc777af	0.09739625
115	0x3dd5a761	0.104323156
116	0x3d82ee84	0.063931495
117	0x3da04408	0.07825476
118	0x3e5d788f	0.2162802
119	0x3dc4dbe8	0.09612256
120	0x3e1ad22c	0.15119237
121	0x3e3449bf	0.17606257
122	0xbe637172	-0.22211245
123	0x3d2088cd	0.039192963
124	0x3e484750	0.19558454
125	0xbd041609	-0.032247577
126	0x3e3763f0	0.17909217
127	0xbe228790	-0.15872025
128	0x3de13cae	0.10997902
129	0xbec0c578	-0.37650657
130	0x3dd5db69	0.1044224
131	0xbe77ca8a	-0.24198356
132	0x3d9684fa	0.07349582
133	0x3dc89673	0.09794321
134	0xbe6cfd2d	-0.23143454
135	0x3db9f399	0.09079666
136	0x3e98aea5	0.29820743
137	0xbdcf85b7	-0.10132926
138	0xbcbb1f98	-0.022842214
139	0x3d1bc834	0.038032725
140	0xbbe34011	-0.0069351275
141	0xbeb11cf5	-0.34592405
142	0x3e59ace5	0.2125736
143	0x3dc5266e	0.096264705
144	0x3df174ac	0.117898315
145	0x3d281f80	0.041045666
146	0xbee968ca	-0.4558776
147	0xbe336154	-0.17517596
148	0xbd94fb7e	-0.07274531
149	0x3e546c31	0.20744397
150	0x3c877694	0.016536035
151	0x3e8db13b	0.2767428
152	0xbeb05b76	-0.3444478
153	0x3e88917b	0.26673493
154	0x3dc6dbab	0.09709867
155	0xbe46ac88	-0.19401753
156	0x3be1f4b5	0.0068956264
157	0x3da458d0	0.08024752
158	0xbe8522cf	-0.2600312
159	0xbf05e406	-0.5230106
160	0xbd98931d	-0.07449935
161	0x3dffeeef	0.12496745
162	0xbe9881f6	-0.29786652
163	0xbe8fc9a3	-0.28083524
164	0xbf33cb47	-0.7023205
165	0x3dee8216	0.11645906
166	0xbd0dbc73	-0.034603547
167	0xbe204f65	-0.15655287
168	0xbd9a901a	-0.075470164
169	0x3e158afc	0.146038
170	0xbdf39aaf	-0.11894738
171	0xbe67c18c	-0.22632426
172	0x3ddf00a7	0.10888796
173	0x3de9e24f	0.11420118
174	0xbd4ce088	-0.050018817
175	0xbd1d451b	-0.038395982
176	0xbc1751f4	-0.009235848
177	0x3e293ee0	0.16527891
178	0x3ced7c87	0.028990043
179	0x3bf782e8	0.007553447
180	0xbd6e4979	-0.058175538
181	0xbccdc28e	-0.025117185
182	0x3d39585e	0.04525029
183	0x3d6b62cb	0.057467263
184	0xbe57aa59	-0.21061076
185	0x3e589094	0.21148902
186	0xbe64e9cc	-0.22354811
187	0xbe237b32	-0.15964964
188	0xbe9dcf4a	-0.30822212
189	0x3e8eb1f4	0.27870142
190	0xbd28ca74	-0.0412087
191	0x3cfa99b6	0.030590873

model/stage4-branch1-reduction/Conv2D_bias_fused_bn f4 [4]
0	0x3f023de4	0.5087569
1	0x3f41aba2	0.75652516
2	0xbffacb6e	-1.9593332
3	0x3fbafdcc	1.4608703

model/stage4-branch1-conv2/Conv2D_weights_fused_bn f4 [16, 8, 3, 3]
0	0xbd47138f	-0.048602637
1	0x3ac48387	0.0014992811
2	0xbc9f1490	-0.019418985
3	0xbbe0a564	-0.0068556536
4	0x3d04a1a7	0.032380726
5	0x3b9a2ada	0.0047048153
6	0xbdb1a0bf	-0.08673238
7	0xbe0965ca	-0.13417736
8	0xb9954bfc	-0.00028476107
9	0xbaf4a2ce	-0.0018664242
10	0x3c16aef5	0.009196986
11	0x3c8426b5	0.016131738
12	0xbb06025e	-0.0020448188
13	0xbaf96ed7	-0.0019030225
14	0xbb3289db	-0.0027242813
15	0xbbf92e08	-0.0076043643
16	0x3c677631	0.0141273
17	0x3cb42e07	0.021994604
18	0xbc84657b	-0.01616167
19	0xbca824b1	-0.020525308
20	0xbbf594ef	-0.007494561
21	0x3bcda7fa	0.006276128
22	0x3c256db3	0.010096955
23	0x3a688b39	0.00088708434
24	0xbd618427	-0.05505767
25	0xbcae783f	-0.021297572
26	0xbc408aa5	-0.011751805
27	0x3c079984	0.008276347
28	0xbc0b2d47	-0.008494682
29	0xbbed5e59	-0.007243913
30	0x3d3c01e2	0.045900233
31	0xbcef9603	-0.029246336
32	0xbd1113be	-0.03541922
33	0x3d239458	0.039936393
34	0x3b102116	0.0021992377
35	0x3ccdb99b	0.025112918
36	0xbd6c5b92	-0.057704516
37	0xbc908c8b	-0.017645141
38	0xbd3f69d0	-0.04673177
39	0xbd178769	-0.03699437
40	0xbca1f1fd	-0.01976871
41	0xbd04f772	-0.032462545
42	0xbd145237	-0.03621122
43	0xbd311304	-0.043231025
44	0xbd558dd0	-0.052137196
45	0x3d006024	0.031341687
46	0x3c9fe7b6	0.019519668
47	0x3ccbbc47	0.024870051
48	0x3c278e75	0.0102268355
49	0x3d27a87a	0.040932156
50	0x3d3834c5	0.0449722
51	0xbbee9862	-0.007281349
52	0x3bb54c18	0.0055327527
53	0x3ce4c2d0	0.027924925
54	0x3b9fad7b	0.0048729754
55	0xbc79e574	-0.01525246
56	0x3bae15fc	0.0053126793
57	0xbc139242	-0.009007039
58	0x3b890082	0.0041809687
59	0xbbdd89e3	-0.006760822
60	0xbcfb4a69	-0.03067513
61	0xbc0af1a2	-0.008480461
62	0xbd6c952b	-0.057759445
63	0x3a098d09	0.0005247151
64	0x3c70767a	0.0146766845
65	0xbc72a899	-0.014810705
66	0xbddb7edf	-0.10717558
67	0xbdafe879	-0.085892625
68	0xbe047db4	-0.12938577
69	0xbcb45c4c	-0.022016667
70	0xba6415f1	-0.0008700779
71	0xbc2adc26	-0.010428464
72	0xbd23aa69	-0.039957438
73	0xbda08c98	-0.07839316
74	0x3bcdd6da	0.006281716
75	0x3dbdb86a	0.0926369
76	0x3dfd0acb	0.12355574
77	0xbc62cba7	-0.0138425
78	0xbf02d793	-0.5111019
79	0xbe50589e	-0.20346305
80	0xbf2f4335	-0.68461925
81	0x3d72def7	0.059294667
82	0xbd805cbc	-0.06267688
83	0xbc18c598	-0.009324454
84	0xbd9bf53b	-0.076151334
85	0xbc9fcce7	-0.019506885
86	0xbd758999	-0.059945676
87	0xbda67b3b	-0.08128973
88	0xbc8c179a	-0.017101098
89	0xbc31e41d	-0.010857609
90	0xbd31f441	-0.04344583
91	0x3d01afe4	0.031661883
92	0xbd8aaced	-0.06771264
93	0xbecafbe2	-0.39645296
94	0xbedac4c4	-0.42728245
95	0xbf16340e	-0.5867318
96	0xbd99fb8c	-0.07518682
97	0xbe1b75e0	-0.15181684
98	0xbd8d40ff	-0.06897163
99	0xbd7e0d89	-0.062024627
100	0xbc3f14f7	-0.011662713
101	0x3da5a96f	0.080889575
102	0xbef8fc64	-0.4863006
103	0xbe4d526f	-0.20050977
104	0xbe5838dc	-0.2111544
105	0x3ea5d3ff	0.32388303
106	0x3eec0825	0.46099964
107	0x3eb89cb7	0.36057064
108	0x3da43788	0.08018404
109	0xbc934018	-0.017974898
110	0x3dd5c0bd	0.104371525
111	0xbcf7088f	-0.030155448
112	0xbda0a002	-0.07843019
113	0x3da392a6	0.07986955
114	0xbc33abd6	-0.010966262
115	0xbe036bf5	-0.12834151
116	0xbe2f1f6e	-0.17101833
117	0xbd50a425	-0.05093779
118	0xbd96b05d	-0.073578574
119	0xbe0ce241	-0.13758184
120	0x3dc8004c	0.097656816
121	0xbdc54d25	-0.09633855
122	0xbc843850	-0.016140133
123	0x3e5b0bec	0.21391267
124	0x3e3f21fb	0.18665306
125	0x3e814deb	0.2525476
126	0x3d2698c1	0.04067302
127	0xbd636556	-0.055516563
128	0xbd0e467d	-0.03473519
129	0x3df38728	0.118910134
130	0x3bdde296	0.006771396
131	0xbc8946d2	-0.016757403
132	0xbe23ec55	-0.16008122
133	0xbe48a779	-0.19595136
134	0xbe77de87	-0.24205981
135	0xbe62be3a	-0.22142878
136	0xbe275ed3	-0.16344766
137	0xbd475331	-0.048663322
138	0xbe330d40	-0.17485523
139	0xbe76752c	-0.24068135
140	0xbe52e9b6	-0.20596966
141	0x3e596628	0.21230376
142	0x3db4d14f	0.08828985
143	0x3c3f9599	0.011693382
144	0x3bf9212f	0.0076028327
145	0x3cd4eec1	0.025992753
146	0x3d09b6db	0.03362165
147	0xbcb94070	-0.022613734
148	0xbc15d8ad	-0.009145898
149	0xb9ed0ddf	-0.00045214497
150	0x3cb314a5	0.02186043
151	0xbcb075a6	-0.021540474
152	0x3cf0bd8f	0.029387264
153	0xbdf8774f	-0.12132131
154	0xbde9f5e0	-0.1142385
155	0xbde4cae5	-0.111715116
156	0xbb05e155	-0.0020428498
157	0x3c2d40c1	0.010574521
158	0xba10d0d4	-0.0005524282
159	0x3c0edd85	0.008719807
160	0x3b95a547	0.0045668217
161	0xbaff0650	-0.0019456837
162	0x3a4cd4fa	0.00078137184
163	0xbc563d0b	-0.013076077
164	0xb9f93a73	-0.0004753653
165	0x3c547d58	0.012969337
166	0x3cbc9057	0.023018045
167	0x3caaef2b	0.020865997
168	0xbe3ce43b	-0.18446438
169	0xbe1cd983	-0.15317349
170	0xbe149169	-0.14508595
171	0x3b248258	0.0025102105
172	0xbc52de69	-0.0128704095
173	0xbd1659dc	-0.03670679
174	0x3c285455	0.010274013
175	0x3bbf5d3c	0.005839972
176	0x3b3516ba	0.0027631954
177	0x3cf86e70	0.030326098
178	0x3d8d9001	0.06912232
179	0x3d6e4531	0.058171455
180	0xbdb9f85e	-0.090805754
181	0xbdba463d	-0.09095428
182	0xbddd347f	-0.108010285
183	0x3c938118	0.018005893
184	0xbc9156fe	-0.017741676
185	0xbc868c26	-0.01642425
186	0x3cc676f2	0.02422664
187	0x3bfb3dc8	0.007667277
188	0x3d093831	0.033500854
189	0xbc24854b	-0.010041545
190	0xbc3b667c	-0.011438008
191	0xbad1b8d8	-0.0016000522
192	0xbd85a14a	-0.06524904
193	0xbc39fd4f	-0.011351897
194	0xbbde8402	-0.006790639
195	0x3d1d30b1	0.038376514
196	0x3d0b33a2	0.033984788
197	0x3d03fc1e	0.03222286
198	0x3d71113a	0.05885432
199	0x3d3b6c5a	0.04575763
200	0x3b57675d	0.0032868006
201	0xbbe5225c	-0.0069926213
202	0xb940403c	-0.00018334476
203	0xbbe37e6a	-0.00694256
204	0xbe053dd7	-0.13011871
205	0xbde9adc0	-0.11410093
206	0xbe0b64b5	-0.13612635
207	0x3d548d00	0.05189228
208	0x3d1d2933	0.03836937
209	0xbcbd6e5b	-0.02312391
210	0x3c22e7b1	0.009942935
211	0xbc60b6de	-0.013715474
212	0xbc9d45e4	-0.019198366
213	0x3c958a37	0.018254383
214	0x3be243a1	0.0069050347
215	0x3d1f45d7	0.038884964
216	0x3c93bffe	0.018035885
217	0x3ac4e45b	0.0015021669
218	0x3b80b986	0.003928366
219	0x3cb158e9	0.021648841
220	0x3c6bb983	0.014387491
221	0x3cbeb5fa	0.023280133
222	0x3c8368d9	0.016041206
223	0x3ccf7769	0.025325494
224	0x3cb2526c	0.021767817
225	0x3b290802	0.0025792127
226	0x3b57f987	0.0032955126
227	0xba0fdde4	-0.00054880814
228	0x3c2ddfe0	0.010612458
229	0x3c1ed70f	0.009694829
230	0x3c29ef7e	0.010372041
231	0xbc5a264f	-0.013314798
232	0xbbddc97c	-0.0067684036
233	0x3c06b5eb	0.008222084
234	0x3b5ab5bc	0.0033372482
235	0xbb909ce6	-0.004413235
236	0x3cb8faf5	0.022580603
237	0xbcc28e6c	-0.023749553
238	0x3ce9ebe2	0.02855486
239	0xbd74b92a	-0.0597469
240	0xbbe1ef31	-0.006894969
241	0x3b80439b	0.003914309
242	0xbc6141f2	-0.013748633
243	0x3c401d5c	0.01172575
244	0xbaeb736b	-0.0017963474
245	0x3c16ae50	0.009196833
246	0x3b21d861	0.0024695622
247	0x3c0841d4	0.008316476
248	0xbb8abe99	-0.004234147
249	0x3be52309	0.006992702
250	0xbce40674	-0.027835108
251	0xbb347ac6	-0.0027539
252	0x3c98a705	0.018634329
253	0x3c260151	0.01013215
254	0x3bdbd23b	0.006708411
255	0x3c4dc4c5	0.012559121

model/stage4-branch1-conv2/Conv2D_bias_fused_bn f4 [16]
0	0x3e47a39f	0.1949601
1	0x3f09fbef	0.53900045
2	0xbe844e01	-0.25840762
3	0x3d8f5b47	0.06999832
4	0x3e21f4d6	0.15816054
5	0x3e75abd2	0.23991325
6	0x3e130aec	0.14359635
7	0xbf24f649	-0.644383
8	0x3e862670	0.262012
9	0x3e5f71e8	0.21820796
10	0x3ea03086	0.3128702
11	0x3e9a1970	0.30097532
12	0x3e744c68	0.23857272
13	0xbf16fe08	-0.5898137
14	0xbcf68cf8	-0.030096516
15	0xbf177c31	-0.59173876

model/stage4-branch1-conv1/Conv2D_weights_fused_bn f4 [8, 4, 3, 3]
0	0x3dc01c53	0.093804024
1	0x3cf26834	0.029590704
2	0x3d85ebea	0.06539138
3	0x3e2e0e64	0.16997677
4	0x3db38b9e	0.08766864
5	0x3e50217a	0.2032527
6	0x3d099146	0.03358581
7	0x3cfdf1f9	0.03099917
8	0x3cb7d4f6	0.022440415
9	0xbe8c699b	-0.2742432
10	0xbdf5d3c0	-0.12003279
11	0xbe6878f2	-0.22702387
12	0x3dfe2099	0.12408561
13	0x3e17bf8e	0.14819166
14	0x3e25a758	0.16177118
15	0x3e13953e	0.144124
16	0x3dacf0e8	0.08444387
17	0x3deac2cd	0.114629366
18	0xbdd84166	-0.10559349
19	0xbda97a3c	-0.082752675
20	0xbcdeb336	-0.027185064
21	0xbd2bf69d	-0.041983236
22	0xbd3f1600	-0.04665184
23	0xbcb777be	-0.022395965
24	0xbbe63b87	-0.007026139
25	0xba1f7569	-0.0006082864
26	0xbc6569ae	-0.014002247
27	0xbe1ee16e	-0.15515682
28	0x3b420ca2	0.002960958
29	0xbe03dc03	-0.12876897
30	0xbe1d822a	-0.15381685
31	0xbd6ef60d	-0.05834012
32	0xbdf6b661	-0.12046505
33	0xbd0c1caa	-0.034207024
34	0x3bb1f5eb	0.005430927
35	0x3e06b902	0.13156512
36	0x3ec4e475	0.3845555
37	0x3e2ed7e1	0.17074539
38	0x3ee4237e	0.44558328
39	0x3c8770c5	0.016533265
40	0x3c1df837	0.009641699
41	0xbd61c74a	-0.055121697
42	0xbd25bcae	-0.040463142
43	0x3c75fe5c	0.015014257
44	0x3ccbaf8b	0.024863979
45	0xbe4ad62a	-0.1980826
46	0x3de694d4	0.112588555
47	0xbe3eb812	-0.18624905
48	0x3dddeb02	0.1083584
49	0x3c3d51ac	0.011555117
50	0x3dbcfe0f	0.09228145
51	0xbe1d204b	-0.1534435
52	0xbc956dca	-0.018240828
53	0xbda1c265	-0.07898406
54	0xbe24b615	-0.16085084
55	0xbe05b0fb	-0.13055794
56	0xbe4e056b	-0.20119254
57	0xbc7d47cf	-0.015459015
58	0xbd34c280	-0.044130802
59	0x3d4b7adb	0.04967771
60	0x3e480cfe	0.19536206
61	0xbc64c70a	-0.01396347
62	0xbd638bc4	-0.055553213
63	0xbec675b0	-0.38761663
64	0x3d764742	0.06012655
65	0xbe7b4125	-0.2453657
66	0xbe4fae1f	-0.20281266
67	0x3e3bb995	0.18332513
68	0xbe82132d	-0.25405255
69	0x3d6872c1	0.056750063
70	0x3d5cf094	0.05394037
71	0xbc9b3333	-0.018945312
72	0xbba383b1	-0.004990064
73	0x3b1e1aa4	0.0024124766
74	0xbcc845fc	-0.024447434
75	0x3d9dde23	0.07708385
76	0xbcf9e688	-0.030505434
77	0x3da704cc	0.08155212
78	0x3eb9c45e	0.3628263
79	0x3e0c8d93	0.13725881
80	0x3edd5560	0.43229198
81	0xbee861e8	-0.45387197
82	0xbe6614fb	-0.22468941
83	0xbededf9d	-0.43529978
84	0xbf2c8cbf	-0.6740226
85	0xbe2f51dd	-0.17121072
86	0xbe92661c	-0.28593528
87	0x3e4d35f5	0.20040114
88	0x3be37266	0.0069411276
89	0x3ea53444	0.32266438
90	0x3da243ef	0.079231136
91	0x3d3666b9	0.044531558
92	0x3e18b753	0.14913683
93	0x3d36d56f	0.04463714
94	0x3d418c13	0.047252726
95	0xbd824581	-0.06360913
96	0xbf05892a	-0.5216242
97	0xbf1b232e	-0.60600555
98	0xbf07968c	-0.5296409
99	0x3e928b41	0.28621867
100	0x3d7aa612	0.061193533
101	0xbd396036	-0.04525777
102	0x3d17b626	0.037038945
103	0xbcf79b33	-0.030225372
104	0xbd3b6e19	-0.045759294
105	0x3d1eff8e	0.038817935
106	0x3e3ceb16	0.18449053
107	0x3e692da2	0.22771314
108	0xbbd361ac	-0.0064508524
109	0xbd1870d2	-0.03721697
110	0xbc6e9b34	-0.0145633705
111	0x3e41908f	0.18902801
112	0x3de1a104	0.110170394
113	0x3e1d8cb9	0.15385713
114	0x3db082d5	0.08618704
115	0xbc2eaf7c	-0.010661956
116	0x3cccfa9b	0.025021842
117	0xbe883524	-0.26603043
118	0xbe1641a1	-0.14673473
119	0xbe42638e	-0.1898329
120	0xbd4c25e2	-0.049840815
121	0xbd001067	-0.031265642
122	0x3d827495	0.063698925
123	0x3e493547	0.1964923
124	0x3d0db569	0.034596834
125	0x3db42f0f	0.08798038
126	0x3d8fbe4c	0.07018718
127	0x3dd7bf58	0.10534543
128	0x3dcb07aa	0.09913571
129	0xbe212eac	-0.1574046
130	0xbdfff711	-0.12498296
131	0xbe24468d	-0.16042538
132	0xbe2f2e8f	-0.17107604
133	0xbe11e8a0	-0.14248896
134	0xbdc53cc4	-0.09630731
135	0x3d34e8ef	0.044167455
136	0x3d1aefe6	0.03782644
137	0x3c8e166f	0.017344682
138	0xbdeeb707	-0.116560034
139	0xbc9811ac	-0.018563114
140	0xbe3dbee1	-0.18529846
141	0xbedf7d93	-0.43650493
142	0xbdd62184	-0.10455611
143	0xbe0170f1	-0.1264074
144	0x3e0402c8	0.12891686
145	0x3e5b5037	0.21417318
146	0x3e90febe	0.28319353
147	0x3e0b17fb	0.13583367
148	0xbc109f09	-0.008826979
149	0x3d28e2f8	0.04123208
150	0xbe5f80ff	-0.21826552
151	0xbdaff844	-0.08592275
152	0xbe531e91	-0.20617129
153	0xbe6af347	-0.22944365
154	0x3d0ce925	0.03440203
155	0xbe227d4f	-0.15868114
156	0x3e65ccaf	0.22441362
157	0x3d8e9350	0.069616914
158	0x3e81a654	0.2532221
159	0x3dabc48d	0.083870985
160	0x3a04058b	0.00050362264
161	0xbcb9519b	-0.02262192
162	0xbe5ce19f	-0.21570443
163	0xbe54c725	-0.20779093
164	0xbea73103	-0.3265458
165	0xbe74dfa9	-0.23913445
166	0xbcb6e416	-0.022325557
167	0x3c80f0d9	0.015739845
168	0xbebad543	-0.3649083
169	0xbd8578c1	-0.065171726
170	0xbec39aba	-0.38203984
171	0xbe643281	-0.2228489
172	0x3d919151	0.07107795
173	0xbe28d948	-0.16489136
174	0xbed22ddc	-0.41050613
175	0xbb45be37	-0.0030173191
176	0xbed8f8c0	-0.4237728
177	0xbd12bd23	-0.035824906
178	0x3d2a5004	0.041580215
179	0x3ca37df5	0.019957522
180	0x3e23204e	0.15930292
181	0x3e096000	0.13415527
182	0x3d957d94	0.07299343
183	0xbd7925f9	-0.06082723
184	0x3bde235d	0.006779118
185	0x3e0f670f	0.14004157
186	0xbbe3eb12	-0.006955513
187	0x3dde8131	0.10864485
188	0x3e16d2dd	0.14728875
189	0xbe65f700	-0.22457504
190	0xbc8b8ef8	-0.017035946
191	0xbe4f6bc5	-0.20255955
192	0x3cf6ee19	0.03014283
193	0xbce83f67	-0.028350545
194	0xbd099399	-0.033588026
195	0xbea0eed5	-0.31432214
196	0xbc0fcd01	-0.008776904
197	0x3e09b751	0.13448836
198	0xbd82decc	-0.063901514
199	0xbd677a30	-0.05651301
200	0xbd90250d	-0.07038317
201	0x3de25921	0.11052156
202	0x3baad1f9	0.005213019
203	0xbcaf559d	-0.021403128
204	0xbd04262b	-0.032262962
205	0xbe249aa6	-0.16074619
206	0xbdd00787	-0.10157686
207	0x3ce180c1	0.027527215
208	0x3bc26c95	0.005933354
209	0xbcf7853d	-0.0302149
210	0xbef205aa	-0.47269946
211	0x3d4302de	0.047610156
212	0xbef5550d	-0.4791645
213	0x3e91ce76	0.2847783
214	0x3e473fd4	0.19457942
215	0x3e26ad58	0.16277063
216	0xbea98803	-0.3311158
217	0xbe62ecbe	-0.22160622
218	0xbedd7f5d	-0.43261233
219	0xbc5dc3a3	-0.013535413
220	0xbd9de132	-0.07708968
221	0x3d33505d	0.043777812
222	0x3d0d5606	0.034505866
223	0xbd28df56	-0.041228615
224	0xbc85010f	-0.016235856
225	0xbd9e6e05	-0.07735828
226	0xbd651376	-0.055926763
227	0xbd35c088	-0.044373065
228	0xbe80596c	-0.25068223
229	0xbe46e619	-0.19423713
230	0xbe902981	-0.28156665
231	0x3b866c63	0.004102276
232	0x3d31318a	0.043260135
233	0x3d8c9fe7	0.068664365
234	0xbec8bb57	-0.3920543
235	0xbec5aa38	-0.3860643
236	0xbec13a13	-0.3773962
237	0xbe785749	-0.24252047
238	0xbe60f3b4	-0.21967965
239	0xbeac1072	-0.33606297
240	0xbdad38f9	-0.08458132
241	0xbb44c16d	-0.0030022517
242	0x3da5e770	0.08100784
243	0x3e800701	0.25005344
244	0xbd103dd6	-0.03521522
245	0x3e6e2a8a	0.23258415
246	0x3c28e15b	0.010307635
247	0x3c85e054	0.01634232
248	0xbb74b5de	-0.0037339847
249	0x3b5d6c53	0.003378649
250	0xbda2db74	-0.079520136
251	0x3ceb7ddd	0.02874654
252	0xbe4611d4	-0.19342738
253	0xbd137677	-0.03600165
254	0x3e011835	0.1260689
255	0xbb68b0a2	-0.0035505672

model/stage4-branch1-conv1/Conv2D_bias_fused_bn f4 [8]
0	0xbf80182e	-1.0007379
1	0xbd33bc32	-0.04388065
2	0xbf570c1e	-0.84002864
3	0x3f6486b8	0.89268064
4	0x3e85cbe5	0.26132122
5	0xbc80e818	-0.01573567
6	0x3fbdbdd1	1.4823552
7	0x3ee8c205	0.45460525

model/stage3-branch3-reduction/Conv2D_weights_fused_bn f4 [16, 48, 1, 1]
0	0x3d6c6441	0.057712797
1	0x3c72a338	0.014809422
2	0xbd2ae3c3	-0.041721117
3	0x3d1ad3bd	0.037799586
4	0xbdd2c4c8	-0.10291439
5	0xbb7b14fc	-0.0038312068
6	0x3d953206	0.07284932
7	0xbbf1028a	-0.007355039
8	0x3c227b63	0.009917113
9	0x3d2d02a6	0.042238854
10	0xbc1dbd79	-0.009627693
11	0xbd837054	-0.06417909
12	0xbde7cf01	-0.1131878
13	0xbd7668df	-0.060158607
14	0xbde5d84b	-0.11222895
15	0xbd03bd62	-0.03216303
16	0x3cbd0c44	0.023077138
17	0x3d4da51c	0.05020629
18	0xbd91cd28	-0.071192086
19	0xbce50678	-0.027957186
20	0x3dff2f97	0.12460249
21	0xbdc505af	-0.09620225
22	0x3d29cac7	0.04145315
23	0xbd212ab4	-0.039347365
24	0xbd689893	-0.05678613
25	0x3d6ab09e	0.05729734
26	0x3d80cb40	0.06288767
27	0xbcf66157	-0.030075712
28	0x3c43c379	0.01194846
29	0xbd56b55b	-0.052419048
30	0xbd830a34	-0.063984305
31	0x3d8bde45	0.06829504
32	0x3d01943d	0.03163551
33	0x3da55ff3	0.080749415
34	0x3ccd93fe	0.025094982
35	0xbd253e28	-0.04034248
36	0x3d49d629	0.049276505
37	0x3cd3a986	0.025837671
38	0x3d1a0b74	0.03760858
39	0xbc6af464	-0.014340494
40	0x3c36a312	0.011147277
41	0xbce4171e	-0.027843054
42	0xbd3409c6	-0.043954633
43	0x3d06ba43	0.032892477
44	0xbd24073f	-0.040045973
45	0x3d483bca	0.048885144
46	0xbdefdaf4	-0.11711684
47	0x3d6a1928	0.057152897
48	0x3e86cf8a	0.26330215
49	0xb90253a2	-0.00012428922
50	0xbdd956af	-0.10612237
51	0xbe7be871	-0.24600388
52	0xbe1e6fa7	-0.1547228
53	0x38f7fd5e	0.00011825071
54	0xbd14f78e	-0.0363689
55	0x3e361e3c	0.17784971
56	0x3caae593	0.020861423
57	0x3cd1a6e0	0.025592268
58	0xbe7e041d	-0.24806257
59	0x3db54f7c	0.08853051
60	0x3cbdcea6	0.023169827
61	0xbd63e9e6	-0.055642985
62	0xbe0ce9d5	-0.13761075
63	0x3d4a3e2f	0.04937571
64	0x3d9c10bb	0.076203786
65	0xbebb2bc2	-0.36556822
66	0xbcd31b6e	-0.025769915
67	0x3dbaf0cf	0.09127962
68	0xbd5bf6e1	-0.05370224
69	0x3d8d81aa	0.06909497
70	0x3dfc6eab	0.12325796
71	0xbd4592a9	-0.04823557
72	0xbcec0df1	-0.028815242
73	0xbd734022	-0.059387334
74	0xbdb98d44	-0.090601474
75	0x3de1e671	0.11030281
76	0x3c48fabe	0.012266813
77	0x3dac926d	0.08426366
78	0xbd8fbd75	-0.07018558
79	0x3ceffa9d	0.029294306
80	0xbe9c8c67	-0.30575868
81	0x3d60d8db	0.05489431
82	0x3d07e113	0.033173632
83	0xbcbe66fb	-0.023242464
84	0x3dcb8061	0.09936596
85	0x3d122b72	0.035685964
86	0x3cfd7a83	0.030942207
87	0x3d2bda29	0.0419561
88	0xbb523ab1	-0.003207844
89	0x3cba8774	0.022769667
90	0x3df0671b	0.11738416
91	0x3cc66077	0.02421592
92	0xbcea5712	-0.028605971
93	0x3cf50eaf	0.029914228
94	0xbca809bb	-0.020512452
95	0xbdac2e6f	-0.08407294
96	0xbe9daf1f	-0.3079767
97	0xbc4b3a34	-0.012404013
98	0xbe1a8e0e	-0.15093252
99	0xbd8527c9	-0.06501729
100	0xbc2ac70c	-0.010423433
101	0xbced6781	-0.028980019
102	0x3d886a44	0.066608936
103	0xbe05c254	-0.13062412
104	0x3ca05fc3	0.019576913
105	0xbe6a68f0	-0.22891593
106	0xbd08ede6	-0.033430003
107	0xbda60660	-0.08106685
108	0x3c8f95ab	0.017527422
109	0xbd604ccc	-0.05476074
110	0xbd23c66e	-0.03998416
111	0x3daccc65	0.08437423
112	0xbea105b9	-0.3144968
113	0x3e890754	0.26763403
114	0xbe1a96ef	-0.15096639
115	0x3e1fa804	0.15591437
116	0x3ddd9703	0.10819819
117	0xbe137fb8	-0.1440419
118	0x3d97b049	0.074066706
119	0x3e354816	0.1770328
120	0x3e9cd8dd	0.30634204
121	0x3d495523	0.04915346
122	0x3d922884	0.07136634
123	0xbdd99572	-0.106242076
124	0xbda208c9	-0.07911832
125	0xbe6792d7	-0.22614609
126	0x3cb86bbe	0.022512313
127	0x3d90ed68	0.07076532
128	0xbe222bdb	-0.15837042
129	0xbe54d4c1	-0.20784284
130	0xbe0ce222	-0.13758138
131	0x3c9a9c79	0.01887344
132	0x3e24b299	0.16083755
133	0xbdf0c229	-0.11755783
134	0x3d7af988	0.061273128
135	0x3dfae117	0.12249964
136	0xbe076cdc	-0.1322512
137	0xbcccee45	-0.02501596
138	0x3c56c753	0.013109046
139	0x3d71d947	0.059045102
140	0x3e610e16	0.2197803
141	0xbd8633a9	-0.06552822
142	0xbe749afe	-0.2388725
143	0xbd100b5e	-0.03516709
144	0xbd548143	-0.051881086
145	0xbbc8e43a	-0.0061307224
146	0x3c376f79	0.011196011
147	0xbd57efbb	-0.05271886
148	0xbe36d62f	-0.17855142
149	0x3c54754f	0.012967422
150	0x3db21cb5	0.08696882
151	0x3cc0894a	0.023502965
152	0xbb8c87ff	-0.004288673
153	0xbd69e04f	-0.057098683
154	0xbe65b30f	-0.22431587
155	0xbd5a38c1	-0.05327678
156	0x3d9be2f6	0.07611649
157	0x3dbdfccc	0.09276733
158	0x3df12db1	0.11776293
159	0x3dbd5f5b	0.09246703
160	0xbdb5c799	-0.08875961
161	0xbd455a3e	-0.048181765
162	0xbc76adee	-0.0150561165
163	0x3dae0e59	0.0849883
164	0xbe4ae9ef	-0.19815801
165	0xbda3214f	-0.079653375
166	0xbdae1c15	-0.0850145
167	0xbce639c3	-0.028103715
168	0x3d4d7b33	0.05016632
169	0x3c188acf	0.009310438
170	0x3df6b4c8	0.120462
171	0x3d3175ce	0.043325238
172	0xbdec0ca1	-0.11525846
173	0x3ccaf57c	0.02477526
174	0x3d4bb7c4	0.0497358
175	0xbd42c539	-0.047551367
176	0xbd92545a	-0.07144995
177	0x3d907f1f	0.070554964
178	0x3d6d58ad	0.057945896
179	0xbd330dfd	-0.043714512
180	0xbd8c28b5	-0.06843702
181	0xbdd3d0f5	-0.1034259
182	0xbadba4c3	-0.0016757477
183	0x3c477782	0.012174489
184	0xbdec96eb	-0.11552223
185	0x3b8515ca	0.0040614353
186	0x3dabe8f8	0.08394045
187	0xbc5139c2	-0.012770118
188	0x3db8851d	0.09009764
189	0xbdfc0497	-0.12305563
190	0x3d4aaaae	0.04947918
191	0x3d22a4f8	0.039708108
192	0xbc02e624	-0.00798944
193	0xbb34576a	-0.0027517923
194	0xbb0b650e	-0.002126995
195	0x3be749a5	0.0070583397
196	0x3d0a3214	0.033739164
197	0xbc5b2222	-0.013374837
198	0x3dc3d988	0.09562975
199	0xbdf9c22f	-0.12195241
200	0xbcc3cce6	-0.023901414
201	0xbd2a8841	-0.041633848
202	0x3d375add	0.04476439
203	0xbdc8bd3e	-0.0980172
204	0x3cab946e	0.0209448
205	0x3c2de21a	0.010612989
206	0xbde5390e	-0.11192523
207	0x3d95822d	0.0730022
208	0x3db7a7c6	0.08967547
209	0xbdc67273	-0.09689798
210	0xbb8ec0a2	-0.0043564597
211	0xbdee1348	-0.11624771
212	0x3dd62701	0.10456658
213	0x3d9e195f	0.07719683
214	0xbb26fb73	-0.0025479465
215	0xbd736960	-0.059426665
216	0xbd57fffe	-0.052734368
217	0x3d6ee9b9	0.058328364
218	0xbbdeb7a8	-0.006796796
219	0x3dbb4206	0.09143452
220	0x3cb7272d	0.022357548
221	0x3d388ff4	0.04505916
222	0x3d451738	0.048117846
223	0xbd5bf404	-0.05369951
224	0xbd1791a7	-0.03700414
225	0x3b41fb68	0.0029599313
226	0xbd80467b	-0.06263443
227	0xbdc42eba	-0.09579225
228	0xbe0d0dc7	-0.13774787
229	0xbc4a3355	-0.01234134
230	0xbe37fc99	-0.17967452
231	0xbca05eed	-0.019576514
232	0x3df9b117	0.1219198
233	0xbd733051	-0.05937225
234	0xbd25b3be	-0.04045462
235	0x3d09f134	0.033677295
236	0xbd485c1a	-0.04891596
237	0xbd509487	-0.050922897
238	0xbd182fe7	-0.03715506
239	0x3da7e1e9	0.08197386
240	0xbd0793c9	-0.033099923
241	0x3ca8ff5b	0.020629575
242	0x3cd4039b	0.025880625
243	0xbbf22520	-0.0073896796
244	0xbc108735	-0.008821298
245	0x3cfeb85e	0.031093773
246	0xbdf9c43d	-0.121956326
247	0xbca6ccb1	-0.020361276
248	0x3b7f415e	0.0038948874
249	0xbcb423bc	-0.021989696
250	0x3cedb54d	0.029017115
251	0x3e32b780	0.17452812
252	0xbd22469d	-0.039618123
253	0x3dec789f	0.11546444
254	0x3ddb8b12	0.10719885
255	0x3e3e26d5	0.185695

model/stage3-branch3-reduction/Conv2D_bias_fused_bn f4 [16]
0	0x3f00a2dd	0.5024851
1	0xbf538bbb	-0.82635087
2	0x3f429694	0.76011014
3	0x3e8fbf57	0.28075668
4	0x3ea0fe51	0.31444028
5	0xc01ee926	-2.4829803
6	0x3f17d930	0.59315777
7	0xbee4abe0	-0.4466238
8	0xbf92f3fc	-1.1480708
9	0xbf3fda3a	-0.7494236
10	0x3ce830b0	0.028343529
11	0x3e90d7f4	0.2828976
12	0x3eda9da1	0.42698386
13	0xc01616e4	-2.3451471
14	0x3f9c81bd	1.2227093
15	0x3ff97204	1.948792
