Config/NeuralNets/BallPerceptor/classify.onnx (onnx, 34214 bytes, 13 tensors)

model_1/dense_4/MatMul/ReadVariableOp:0 f4 [16, 1]
0.4332384 0.060629465 -0.4659944 0.37206727 0.29564282 0.01937529 -0.40797746 -0.7193582
-0.62710136 -0.5546641 0.29633912 0.13112354 -0.6590428 -0.36753306 0.23285651 -0.06272113
00000000: 6cd1 dd3e 9a56 783d d196 eebe 9a7f be3e
00000010: 7f5e 973e eeb8 9e3c 6ce2 d0be dc27 38bf
00000020: b789 20bf 77fe 0dbf c3b9 973e 4045 063e
00000030: 07b7 28bf 4b2d bcbe f071 6e3e f073 80bd

model_1/dense_3/MatMul/ReadVariableOp:0 f4 [64, 16]
0.1883156 0.037425715 -0.06709741 -0.077071324 0.011201783 -0.13821697 -0.106608145 -0.48587504
-0.354535 -0.20606007 0.1322891 -0.2627312 -0.23468098 0.018955264 -0.0068967035 0.05425281
0.37403163 0.06685119 0.00073295226 0.37630197 -0.13900118 -0.1389569 -0.34938222 0.088128865
-0.28980657 0.07232313 0.20960446 0.008639453 -0.022170324 0.16920537 -0.14235222 0.071734115
0.038861874 0.014575652 -0.061178163 -0.17621513 0.25250772 0.35102713 -0.073608324 0.09409923
-0.14411221 0.03105197 0.22521885 -0.08597461 -0.1621054 0.047958966 0.09872184 0.10706422
0.09311881 -0.058760762 -0.0025434638 0.05437092 -0.09520288 -0.25470325 -0.06932276 -0.053012334
-0.23730287 -0.22903456 -0.0020564504 0.044175167 -0.123734735 -0.005955671 0.018440168 0.006678671
0.16601478 0.23669526 -0.07061765 0.15630986 -0.28169397 0.055147137 -0.38603562 -0.07818173
-0.3153478 -0.09368616 0.1618414 -0.1543945 -0.09586005 0.018469606 -0.1470443 0.113045864
-0.12807322 0.15531796 -0.061811678 -0.27738744 -0.034003098 -0.18149662 0.04489906 -0.03712553
0.37329757 0.14192651 -0.14112805 -0.07426692 -0.07834716 0.18881534 -0.5145933 -0.14051892
-0.14458919 0.18899582 0.2134858 -0.42800075 -0.44529694 -0.28027564 -0.15369578 0.18219405
-0.10126495 0.36990234 -0.16805422 -0.10258037 0.061946135 0.23366745 -0.107729696 0.16138983
0.04645977 0.01698404 0.27576602 0.27211216 0.056068324 0.108165234 -0.024466025 -0.12976745
0.15178646 0.14731188 0.15838696 0.27516294 0.17463921 0.13270168 -0.10603812 0.1364849
-0.12063905 -0.062380873 0.1496229 0.1018235 -0.06701918 -0.28296173 0.13383648 0.3974801
-0.05356616 0.17771688 -0.15895136 -0.0779166 -0.03948214 0.14718589 -0.47915405 0.12664734
0.20314692 0.14024618 -0.053385783 0.10623658 -0.16024129 0.258394 -0.09658003 -0.07898537
-0.13999277 -0.029686008 -0.016535146 0.00063879736 0.0364889 0.029295128 0.029117733 0.17658816
0.19031264 -0.03169291 -0.05767612 0.19731835 -0.2370662 -0.022768078 -0.20579761 -0.3047183
-0.21595806 0.07517806 -0.11182959 0.08753413 0.021710474 0.0042257286 0.053574104 -0.039892904
0.16686735 -0.1577881 -0.09785875 0.3490444 0.07580668 0.21443322 -0.22306503 -0.1750749
-0.28942007 0.019089993 0.14816017 -0.20334192 -0.26897207 0.15940131 -0.07676097 -0.13894963
-0.10441689 0.18000747 0.008325152 -0.3012663 -0.16183083 0.016312499 -0.023571331 0.051019046
0.3985791 -0.027817367 0.15309286 0.060243245 0.31054667 0.4800864 -0.4952435 0.117128424
-0.15936115 0.12655492 0.09871594 -0.06644357 -0.2509736 -0.07374476 0.16787376 0.049697194
0.026875362 -0.049063705 -0.40894818 0.07758587 -0.20419008 0.1742842 -0.7103525 0.4624579
-0.387322 0.0804414 -0.07878357 -0.4178141 -0.3904204 -0.09206531 0.057148177 -0.2603021
0.31382748 -0.06767785 -0.22310285 -0.059579283 0.11398029 0.23270448 -0.3563968 0.44578695
-0.028065208 -0.00030200632 -0.040280845 -0.19877979 0.2891862 -0.09726842 -0.091940105 -0.113040835
-0.20944233 0.13908166 0.15927352 0.36520126 -0.032404378 0.03818862 -0.027964745 0.0705408
00000000: ced5 403e b54b 193d 5e6a 89bd 92d7 9dbd
00000010: af87 373c c088 0dbe 5f55 dabd 9dc4 f8be
00000020: 9d85 b5be 6901 53be cb76 073e b484 86be
00000030: 3650 70be 1248 9b3c befd e1bb 3238 5e3d
00000040: 1381 bf3e 47e9 883d 9823 403a a7aa c03e
00000050: 5356 0ebe b84a 0ebe 3ae2 b2be e87c b43d
00000060: 8761 94be 261e 943d 8da2 563e 7e8c 0d3c
00000070: 8a9e b5bc 2c44 2d3e c8c4 11be 56e9 923d
00000080: a12d 1f3d b7ce 6e3c f495 7abd bd71 34be
00000090: b148 813e d4b9 b33e f6bf 96bd 19b7 c03d
000000a0: 2792 13be b360 fe3c c59f 663e 7513 b0bd
000000b0: f5fe 25be 9f70 443d ad2e ca3d 7c44 db3d
000000c0: 13b5 be3d 20af 70bd 3eb0 26bb 0bb4 5e3d
000000d0: baf9 c2bd 7768 82be 17f9 8dbd 7623 59bd
000000e0: 86ff 72be 0988 6abe 83c5 06bb 05f1 343d
000000f0: a368 fdbd ca27 c3bb d60f 973c c1d8 da3b
00000100: c7ff 293e 3e60 723e fd9f 90bd b10f 203e
00000110: 313a 90be f7e1 613d 76a6 c5be be1d a0bd
00000120: 4475 a1be 88de bfbd c1b9 253e 9819 1ebe
00000130: 4652 c4bd 924d 973c c892 16be 9784 e73d
00000140: a025 03be ac0b 1f3e 3e2e 7dbd ba05 8ebe
00000150: d546 0bbd 40da 39be 14e8 373d f110 18bd
00000160: dc20 bf3e 2f55 113e df83 10be 4119 98bd
00000170: 7a74 a0bd cf58 413e 63bc 03bf 31e4 0fbe
00000180: 300f 14be 1f88 413e 069c 5a3e ea22 dbbe
00000190: f6fd e3be 4a80 8fbe 6d62 1dbe 1491 3a3e
000001a0: 0064 cfbd d763 bd3e 6816 2cbe a815 d2bd
000001b0: 3bbb 7d3d 8546 6f3e 63a1 dcbd 6043 253e
000001c0: 9a4c 3e3d 1d22 8b3c 3431 8d3e 4952 8b3e
000001d0: e6a7 653d bc85 dd3d f96c c8bc c2e1 04be
000001e0: e96d 1b3e edd8 163e 3130 223e 28e2 8c3e
000001f0: 9fd4 323e f3e2 073e 842a d9bd b3c2 0b3e
00000200: 9b11 f7bd 1683 7fbd bf36 193e d788 d03d
00000210: 5a41 89bd 5ce0 90be 6e0c 093e 8382 cb3e
00000220: 3168 5bbd 6afb 353e 25c4 22be bd92 9fbd
00000230: 06b8 21bd e6b7 163e ae53 f5be d7af 013e
00000240: bf05 503e b29c 0f3e 0dab 5abd 9092 d93d
00000250: 4b16 24be 384c 843e c0cb c5bd 15c3 a1bd
00000260: 445a 0fbe 1230 f3bc b774 87bc f774 273a
00000270: 6375 153d 56fc ef3c 5088 ee3c 87d3 343e
00000280: 51e1 423e 6dd0 01bd cc3d 6cbd d20d 4a3e
00000290: 7bc1 72be 1f84 babc 9cbc 52be 0904 9cbe
000002a0: 1c24 5dbe f4f6 993d e906 e5bd 1845 b33d
000002b0: 2ada b13c fb77 8a3b 8570 5b3d be66 23bd
000002c0: 46df 2a3e 3493 21be 2b6a c8bd f3b5 b23e
000002d0: 8840 9b3d 6294 5b3e 296b 64be d646 33be
000002e0: de2e 94be 9e62 9c3c 4db7 173e dd38 50be
000002f0: b5b6 89be 193a 233e db34 9dbd d048 0ebe
00000300: 86d8 d5bd e153 383e 3866 083c 943f 9abe
00000310: fbb6 25be caa1 853c aa18 c1bc 59f9 503d
00000320: 8f12 cc3e 3fe1 e3bc 60c4 1c3e 9fc1 763d
00000330: f9ff 9e3e e2cd f53e 8e90 fdbe 07e1 ef3d
00000340: 922f 23be 9d97 013e 952b ca3d 9113 88bd
00000350: 9d7f 80be 7e07 97bd 19e7 2b3e 498f 4b3d
00000360: b829 dc3c 06f7 48bd a861 d1be 57e5 9e3d
00000370: 3417 51be 8f77 323e a9d9 35bf 48c7 ec3e
00000380: 124f c6be 76be a43d 4859 a1bd bbeb d5be
00000390: 2fe5 c7be bd8c bcbd 3514 6a3d 5146 85be
000003a0: ffad a03e af9a 8abd 1375 64be 6809 74bd
000003b0: 806e e93d 154a 6e3e a479 b6be 303e e43e
000003c0: 02e9 e5bc 9a56 9eb9 87fd 24bd ee8c 4bbe
000003d0: 3710 943e aa34 c7bd 184b bcbd f481 e7bd
000003e0: 0d78 56be 6c6b 0e3e 9918 233e a9fb ba3e
000003f0: 74ba 04bd ac6b 1c3d 5216 e5bc b277 903d

model_1/dense_3/BiasAdd/ReadVariableOp:0 f4 [16]
0.963386 -0.036441743 -0.13345897 1.1239084 1.2017245 0.14133684 -0.040251467 -0.81703997
-0.6578078 -0.298221 0.8266825 0.33036518 -0.47237414 -0.53761977 0.2446877 -0.10746499
00000000: 77a0 763f f043 15bd 78a9 08be 3bdc 8f3f
00000010: 1cd2 993f 9bba 103e b9de 24bd 8829 51bf
00000020: 1866 28bf 6cb0 98be 77a1 533f a025 a93e
00000030: 06db f1be 73a1 09bf 6a8f 7a3e 9b16 dcbd

model_1/dense_2/MatMul/ReadVariableOp:0 f4 [32, 64]
0.15770027 -0.1800274 -0.15057954 0.19555141 0.25983065 -0.122144945 -0.042554863 -0.29583624
-0.05592228 -0.19142292 0.2475363 0.016257927 -0.23639955 -0.30082357 -0.06771208 -0.029305609
0.20849748 -0.03719888 -0.30158514 0.045096267 -0.48656934 -0.444839 -0.694344 0.09226042
0.006062691 0.016106397 0.1434991 0.026080081 -0.08555862 -0.020682286 -0.3346153 -0.005964337
-0.32161817 -0.0948127 -0.33851218 -0.3969363 0.4147262 0.32127818 -0.28772283 0.11586629
0.09678782 -0.040428463 0.0077274167 0.047652468 -0.40156358 -0.36106467 -0.20415011 0.45294964
-0.04319317 -0.32070193 0.09590009 0.39958873 0.00785701 -0.2568687 0.032079548 0.20015638
-0.17204116 0.1129554 0.06408217 -0.26643014 -0.20602204 0.032238886 0.22903413 0.25557676
0.08054313 0.25729337 0.2661279 0.34763274 -0.13744202 -0.10884731 -0.3711589 0.32296076
-0.18319012 0.35152513 0.20602255 0.008498536 -0.064401016 -0.16279647 -0.030460373 0.35424995
-0.11243895 0.014044042 -0.31808552 -0.18608457 0.110177934 -0.42862493 0.028551854 0.19986442
0.33534837 0.20347016 0.23361734 -0.13056935 -0.42145693 -0.11594947 -0.22032158 -0.3436927
0.0059311716 -0.054664087 0.06036945 -0.14435315 -0.11452906 -0.14658001 -0.3558931 0.15851784
-0.20068331 0.15523499 0.24490757 0.14819852 -0.17633401 -0.06021026 0.45060623 -0.10539646
-0.2737499 0.00070442253 0.29333436 0.47187665 0.04585099 0.014404256 0.011917303 -0.059524097
0.25082016 0.14584689 -0.104018725 0.0756345 0.08073862 0.34673238 -0.046513412 0.2364506
-0.13165608 -0.11181126 0.06944088 0.31309602 -0.10948419 -0.0803389 0.15325454 0.31641996
0.069413796 0.17606108 -0.19096014 0.13815871 0.028752005 -0.016071929 -0.0067232633 0.011482541
-0.1830461 0.043105844 -0.052473783 0.06878151 -0.16345066 0.55621034 0.1384495 -0.20942856
-0.16289452 -0.33690324 -0.10839192 -0.16843328 0.37928846 0.03856148 -0.3115355 0.19401631
0.23838203 -0.0651914 0.20528948 0.20054913 0.004859553 -0.24429035 -0.33327052 0.07020828
-0.21934682 0.09454166 -0.29536706 0.17368963 0.26143226 0.0713651 -0.08042189 -0.22802064
0.24800853 -0.1767178 0.07645401 0.11897704 -0.3433556 0.2418166 -0.084961005 -0.026761532
0.15580574 0.5592477 -0.027575344 -0.15223466 -0.52756137 0.073204815 -0.26590034 -0.18147741
-0.072126076 0.14964956 -0.22327378 -0.29752147 0.14073205 -0.099333 -0.24877797 0.13937421
0.14363125 -0.41450438 0.71629655 0.02597696 0.030283289 -0.103732914 -0.05096865 0.06225909
0.08989646 -0.004687716 -0.3332249 -0.09543484 -0.3634387 -0.10824977 0.05166838 0.09156225
-0.040906105 0.058620606 -0.37547508 0.13328233 -0.58702123 -0.0022009765 -0.46149915 0.5921603
-0.303949 -0.066137075 -0.13296448 -0.06136849 -0.13251065 0.07901941 0.21344513 -0.5472936
0.26025668 -0.087767884 0.022008112 -0.10414595 0.23447779 -0.22280158 -0.17528434 0.21103087
-0.25053835 0.013898923 -0.12391145 -0.44978964 0.15765357 -0.11230128 -0.074973874 0.16599695
-0.14014179 0.023180336 0.22712328 0.010680372 0.002913665 -0.25748223 0.25729796 0.117715284
00000000: 2e7c 213e 1a59 38be 8631 1abe a13e 483e
00000010: 8608 853e 2127 fabd 024e 2ebd d977 97be
00000020: c30e 65bd 5f04 44be 287a 7d3e 582f 853c
00000030: b912 72be 8c05 9abe a2ac 8abd 5112 f0bc
00000040: 5d80 553e da5d 18bd 5e69 9abe ddb6 383d
00000050: 9e1f f9be f0c1 e3be 87c0 31bf 08f3 bc3d
00000060: 8aa9 c63b 90f1 833c 6ef1 123e e5a5 d53c
00000070: 5c39 afbd e66d a9bc b252 abbe 7c70 c3bb
00000080: 23ab a4be 292d c2bd 7851 adbe 3c3b cbbe
00000090: fe56 d43e 937e a43e 6850 93be 4e4b ed3d
000000a0: b138 c63d 5198 25bd 4536 fd3b 3c2f 433d
000000b0: be99 cdbe 78dd b8be ba0c 51be 04e9 e73e
000000c0: 52eb 30bd 0b33 a4be 4467 c43d e596 cc3e
000000d0: b0ba 003c 4b84 83be d865 033d cbf5 4c3e
000000e0: 8f2b 30be 2955 e73d 833d 833d 8869 88be
000000f0: 71f7 52be ec0c 043d ec87 6a3e f5da 823e
00000100: ccf3 a43d f5bb 833e eb41 883e ebfc b13e
00000110: 9abd 0cbe 57eb debd 8a08 bebe 1d5b a53e
00000120: 3196 3bbe 1afb b33e 93f7 523e 723d 0b3c
00000130: aee4 83bd 1eb4 26be 0888 f9bc 4060 b53e
00000140: 6446 e6bd fb18 663c 1bdc a2be f48c 3ebe
00000150: f8a4 e13d ba74 dbbe 94e5 e93c 42a9 4c3e
00000160: c8b2 ab3e 7b5a 503e 6239 6f3e f9b3 05be
00000170: 34c9 d7be ea76 edbd fb9b 61be 7df8 afbe
00000180: 465a c23b 73e7 5fbd f545 773d 50d1 13be
00000190: 368e eabd 1219 16be 9f37 b6be 8052 223e
000001a0: ed7f 4dbe ecf5 1e3e 0dc9 7a3e 5ac1 173e
000001b0: e790 34be 099f 76bd dcb5 e63e 19da d7bd
000001c0: f228 8cbe ffa8 383a ec2f 963e d199 f13e
000001d0: 3fce 3b3d d4ff 6b3c cb40 433c 8acf 73bd
000001e0: 806b 803e e358 153e c507 d5bd 43e6 9a3d
000001f0: 4a5a a53d e886 b13e d984 3ebd 1b20 723e
00000200: dad0 06be 4dfd e4bd 0537 8e3d 1f4e a03e
00000210: 3f39 e0bd b988 a4bd c2ee 1c3e cc01 a23e
00000220: d228 8e3d 5b49 343e 0e8b 43be 7a79 0d3e
00000230: 5389 eb3c 47a9 83bc d24e dcbb 4521 3c3c
00000240: 7070 3bbe c18f 303d c0ee 56bd 52dd 8c3d
00000250: 9c5f 27be cd63 0e3f b5c5 0d3e 7174 56be
00000260: d2cd 26be 957e acbe 95fc ddbd c679 2cbe
00000270: 1932 c23e a4f2 1d3d 9581 9fbe 36ac 463e
00000280: 6b1a 743e 1283 85bd 6837 523e c05c 4d3e
00000290: e33c 9f3b 4027 7abe 6fa2 aabe 5cc9 8f3d
000002a0: 749c 60be 0f9f c13d 5a3a 97be b2db 313e
000002b0: 73da 853e de27 923d 3bb4 a4bd 3e7e 69be
000002c0: f3f5 7d3e 83f5 34be ec93 9c3d 3caa f33d
000002d0: 4ecc afbe c59e 773e 0900 aebd 003b dbbc
000002e0: 8a8b 1f3e db2a 0f3f b0e5 e1bc 67e3 1bbe
000002f0: 430e 07bf 68ec 953d 1724 88be 37d5 39be
00000300: d6b6 93bd bc3d 193e e2a1 64be bc54 98be
00000310: 101c 103e 1a6f cbbd a7bf 7ebe 1db8 0e3e
00000320: 1214 133e eb39 d4be 365f 373f a2cd d43c
00000330: a914 f83c ec71 d4bd 81c4 50bd 6303 7f3d
00000340: a31b b83d 699b 99bb 749c aabe 5773 c3bd
00000350: a314 babe 0eb2 ddbd 39a2 533d fd84 bb3d
00000360: 298d 27bd 291c 703d 453e c0be 2a7b 083e
00000370: 0647 16bf 423e 10bb 9e49 ecbe d197 173f
00000380: 349f 9bbe e072 87bd d727 08be 875d 7bbd
00000390: dfb0 07be eed4 a13d 5c91 5a3e 6f1b 0cbf
000003a0: 5d40 853e a6bf b3bd 5b4a b43c 794a d5bd
000003b0: f21a 703e 1926 64be bd7d 33be 7a18 583e
000003c0: 9046 80be 4fb8 633c 49c5 fdbd d44a e6be
000003d0: f06f 213e 37fe e5bd e78b 99bd 1bfb 293e
000003e0: 5481 0fbe b0e4 bd3c 0193 683e bafc 2e3c
000003f0: 30f3 3e3b b6d4 83be 8fbc 833e b614 f13d

model_1/dense_2/BiasAdd/ReadVariableOp:0 f4 [64]
0.68121684 -0.025768302 -0.094369434 0.7947233 0.8497476 0.09994031 -0.028462142 -0.57773453
-0.46514037 -0.21087377 0.5845528 0.2336034 -0.33401942 -0.38015458 0.17302014 -0.07598915
0.5129832 0.121675566 0.5293582 0.39797428 -0.74296856 -0.55652165 -1.0999401 0.677817
0.21952592 0.21888034 0.4854461 -0.034206145 0.4048252 0.30520537 -0.46212545 -0.09094566
-0.45074978 0.036835764 -0.38016126 -0.58368987 0.62967736 0.99090266 -0.29632276 0.5928193
0.10499239 0.20156328 0.34704933 -0.27441847 -0.95529234 -0.35355523 -0.202912 0.8679356
0.041546788 -0.2858311 0.38076755 0.6112039 0.121400595 -0.5916257 0.48926434 0.21929063
-0.3069239 0.1047549 0.11397212 0.083540894 -0.24531062 -0.41018325 0.12780023 0.1976151
00000000: 3a64 2e3f 0c18 d3bc c344 c1bd fc72 4b3f
00000010: 0f89 593f 81ad cc3d 7029 e9bc 69e6 13bf
00000020: e126 eebe 4bef 57be 41a5 153f bb35 6f3e
00000030: 9804 abbe 9fa3 c2be 312c 313e 33a0 9bbd
00000040: de52 033f 0a31 f93d 0584 073f 49c3 cb3e
00000050: 3033 3ebf 3478 0ebf d6ca 8cbf 6a85 2d3f
00000060: 67cb 603e 2b22 603e 648c f83e be1b 0cbd
00000070: 4045 cf3e e143 9c3e b59b ecbe b841 babd
00000080: adc8 e6be 19e1 163d 7fa4 c2be b36c 15bf
00000090: 8932 213f ccab 7d3f 9eb7 97be 01c3 173f
000000a0: 4006 d73d 9b66 4e3e 73b0 b13e 9480 8cbe
000000b0: 0a8e 74bf 3105 b5be 2ac8 4fbe 0731 5e3f
000000c0: f72c 2a3d 7458 92be f7f3 c23e dc77 1c3f
000000d0: e0a0 f83d c874 17bf db80 fa3e b98d 603e
000000e0: 2125 9dbe bd89 d63d 376a e93d 7d17 ab3d
000000f0: b532 7bbe 8a03 d2be 10de 023e 9d5b 4a3e

model_1/dense_1/MatMul/ReadVariableOp:0 f4 [128, 32]
0.060669094 -0.121580034 -0.03622014 -0.02188796 0.025136204 -0.01573574 0.050356667 0.024433058
-0.01392129 -0.11235194 0.10276649 -0.073848754 -0.29619846 -0.16692527 -0.06637768 -0.010365653
0.0549278 -0.22433496 -0.04188461 0.14867972 -0.29074466 -0.12216978 -0.042811193 0.16072932
-0.05345079 -0.011602899 0.0011120122 -0.06852138 -0.0086744595 0.00083973975 -0.18791202 -0.08814063
0.06564855 -0.06720402 -0.11687281 -0.15967987 0.05514962 -0.0069065504 -0.048914086 0.12876259
0.19382994 -0.04063622 0.19006711 0.06958535 -0.06695523 0.054874986 -0.09237046 -0.25755513
-0.104758725 -0.16569105 0.064534865 -0.050433595 -0.10323162 -0.21313746 0.2050146 0.19701852
-0.08004464 0.17113434 -0.20246527 -0.04742336 -0.11730521 -0.044319056 0.043242164 -0.041973222
0.109707125 -0.022469511 -0.05110745 0.043000124 0.077407956 0.18611981 -0.109794505 0.10058819
0.02782681 0.14174856 0.37404934 -0.085449144 -0.116212785 -0.10844354 0.082979895 0.2530572
-0.073694505 -0.08434666 0.017186277 -0.0032199265 0.024775993 -0.143686 0.025119128 -0.025923528
0.1111941 0.12743762 0.10041392 -0.014599315 0.1482547 -0.050377168 0.06798813 -0.21410452
0.28645563 0.070660375 -0.19947988 -0.13954434 -0.10343654 -0.22233199 0.032778613 -0.3311171
-0.048754185 0.32485953 0.31762877 -0.2505364 -0.23810527 -0.2942302 0.17623936 0.27619663
0.051823445 -0.00051224674 -0.121341616 -0.25357062 -0.3063597 -0.24793708 -0.2269032 -0.27401507
0.38481233 0.22551246 0.25760037 -0.35676935 -0.0008408087 -0.16020705 -0.5246109 0.14697088
0.012918647 0.07400137 -0.030857287 -0.003999197 -0.02087694 0.04608366 0.02593557 -0.06843911
-0.011465386 0.043760765 -0.034989186 -0.028960058 -0.03772165 -0.032609962 0.08424281 0.049593266
-0.021039678 0.048931144 0.0423362 0.037725057 -0.036100276 -0.07349811 -0.0017676792 -0.09107207
0.0037068427 -0.018906923 0.010943298 -0.003016264 0.07858369 0.015639143 -0.079554625 0.013869759
0.03569886 -0.3390143 -0.23891771 -0.48176515 -0.03395563 0.1039335 -0.25750172 0.011269367
0.094843626 0.33429077 0.26884973 0.2064485 0.12774405 0.088650376 0.34426475 -0.20956281
0.51438856 -0.30936724 -0.053440064 -0.12274495 -0.037549235 -0.04732721 0.061666664 0.030734062
0.078590244 0.41265634 0.114636 0.16595384 -0.40973285 0.023514295 -0.20907786 -0.40056762
0.07786993 0.2140799 -0.19921032 -0.17794853 0.11790048 -0.05587119 -0.14394814 -0.003066903
0.3648965 -0.21537332 0.32127562 0.12580498 -0.28240216 -0.19020861 0.07711992 -0.07975863
-0.24615848 -0.025400154 -0.0794574 -0.4361163 -0.29639015 -0.34356165 0.11376866 -0.36552325
-0.022888428 -0.41820166 -0.5558148 0.056659322 -0.11868716 -0.035167426 -0.6721192 0.4832677
0.02083162 -0.056310274 0.17065924 -0.08365357 0.029835755 -0.15502325 -0.01119345 -0.5240068
-0.04618308 -0.08678609 -0.002481936 0.196046 0.43271488 0.31881294 -0.1720649 0.06129205
0.15313503 0.03492955 0.033580747 -0.3601539 0.19558273 -0.08766235 0.017642861 0.2879782
-0.029758168 0.16646607 0.083044805 0.006083217 -0.06631839 -0.269407 0.10376608 0.1764985
00000000: 2880 783d f4fe f8bd 925b 14bd 614e b3bc
00000010: 71ea cd3c 3de8 80bc cb42 4e3d d627 c83c
00000020: 1f16 64bc c618 e6bd 3d77 d23d 043e 97bd
00000030: 53a7 97be 75ee 2abe 05f1 87bd b3d4 29bc
00000040: f9fb 603d 10b8 65be 328f 2bbd 7f3f 183e
00000050: 7cdc 94be 2634 fabd ca5a 2fbd 3a96 243e
00000060: 37ef 5abd 161a 3ebc f0c0 913a f054 8cbd
00000070: 521f 0ebc fb21 5c3a 026c 40be 1383 b4bd
00000080: bf72 863d 43a2 89bd 035b efbd 1f83 23be
00000090: 91e4 613d 5850 e2bb 235a 48bd 57da 033e
000000a0: 5b7b 463e 2a72 26bd f4a0 423e c482 8e3d
000000b0: d31f 89bd 98c4 603d b92c bdbd 44de 83be
000000c0: be8b d6bd eaaa 29be db2a 843d 7593 4ebd
000000d0: 196b d3bd b540 5abe 59ef 513e 39bf 493e
000000e0: 72ee a3bd d73d 2f3e 0e53 4fbe ff3e 42bd
000000f0: b73d f0bd e687 35bd b21e 313d 1dec 2bbd
00000100: 21ae e03d fb11 b8bc 0c56 51bd e620 303d
00000110: 1088 9e3d 3196 3e3e f1db e0bd 2e01 ce3d
00000120: 0df5 e33c 8926 113e 6583 bf3e f6ff aebd
00000130: f800 eebd a617 debd 5df1 a93d b790 813e
00000140: 25ed 96bd f1bd acbd 3cca 8c3c 6705 53bb
00000150: 06f7 ca3c 6c22 13be a1c6 cd3c 945d d4bc
00000160: bbb9 e33d 027f 023e d0a5 cd3d f731 6fbc
00000170: 14d0 173e 4a58 4ebd 5c3d 8b3d 373e 5bbe
00000180: 50aa 923e 63b6 903d 7444 4cbe b6e4 0ebe
00000190: 89d6 d3bd ffaa 63be de42 063d 2e88 a9be
000001a0: 78b2 47bd fd53 a63e 3da0 a23e 4f46 80be
000001b0: ded1 73be 57a5 96be 1778 343e a569 8d3e
000001c0: d244 543d 4c48 06ba f481 f8bd 02d4 81be
000001d0: 2edb 9cbe 38e3 7dbe 5059 68be b44b 8cbe
000001e0: 1f06 c53e bdec 663e 32e4 833e 79aa b6be
000001f0: b769 5cba 510d 24be e64c 06bf 897f 163e
00000200: bca8 533c 088e 973d 6cc8 fcbc b20b 83bb
00000210: 1e06 abbc 38c2 3c3d d576 d43c ce29 8cbd
00000220: 50d9 3bbc 7d3e 333d d250 0fbd a53d edbc
00000230: 0482 1abd 0692 05bd 7f87 ac3d 4f22 4b3d
00000240: 675b acbc 066c 483d b968 2d3d 9785 1a3d
00000250: e2dd 13bd 2d86 96bd 79b1 e7ba fe83 babd
00000260: 80ee 723b b1e2 9abc 854b 333c 83ac 45bb
00000270: 7cf0 a03d a91d 803c 89ed a2bd fc3d 633c
00000280: f838 123d 4893 adbe d8a6 74be eca9 f6be
00000290: 0f15 0bbd 16db d43d 44d7 83be 27a3 383c
000002a0: 603d c23d 2928 ab3e aca6 893e 3c67 533e
000002b0: 56cf 023e 548e b53d 7843 b03e a297 56be
000002c0: f8ae 033f 6265 9ebe f8e3 5abd b461 fbbd
000002d0: 3acd 19bd 2dda 41bd 2f96 7c3d 00c6 fb3c
000002e0: ecf3 a03d b147 d33e 47c6 ea3d ceef 293e
000002f0: 81c8 d1be 0da1 c03c 8218 56be 3317 cdbe
00000300: 457a 9f3d c337 5b3e cafd 4bbe 2438 36be
00000310: cf75 f13d 30d9 64bd 2467 13be 18fe 48bb
00000320: b7d3 ba3e d38a 5cbe 3d7e a43e 05d3 003e
00000330: 0497 90be 0cc6 42be 0cf1 9d3d 7e58 a3bd
00000340: f810 7cbe fc13 d0bc 90ba a2bd a34a dfbe
00000350: 73c0 97be 50e7 afbe 8bff e83d dd25 bbbe
00000360: 8380 bbbc 871e d6be e149 0ebf 9b13 683d
00000370: 4112 f3bd b80b 10bd 0110 2cbf dd6e f73e
00000380: 13a7 aa3c 9aa5 66bd 4cc1 2e3e 9052 abbd
00000390: 1d6a f43c 6abe 1ebe bb64 37bc 4f25 06bf
000003a0: 782a 3dbd e8bc b1bd faa7 22bb 48c0 483e
000003b0: ce8c dd3e 733b a33e c831 30be 5f0d 7b3d
000003c0: 6ecf 1c3e 4a12 0f3d f78b 093d 1866 b8be
000003d0: d746 483e 5188 b3bd c387 903c e171 933e
000003e0: 67c7 f3bc 1576 2a3e 6513 aa3d b955 c73b
000003f0: f0d1 87bd b7ef 89be 5083 d43d 06bc 343e

model_1/dense_1/BiasAdd/ReadVariableOp:0 f4 [32]
0.81010795 -0.030643608 -0.112224735 0.9450904 1.0105258 0.118849665 -0.033847105 -0.687046
-0.5531482 -0.25077266 0.69515437 0.27780288 -0.39721826 -0.4520825 0.20575674 -0.09036693
0.6100433 0.14469773 0.62951654 0.4732738 -0.88354343 -0.6618195 -1.3080565 0.8060648
0.26106182 0.26029396 0.57729596 -0.040677972 0.481421 0.3629523 -0.5495629 -0.10815324
00000000: 3c63 4f3f 4e08 fbbc 15d6 e5bd 72f1 713f
00000010: e958 813f 7467 f33d 43a3 0abd 3fe2 2fbf
00000020: 1f9b 0dbf 4665 80be a3f5 313f 2e3c 8e3e
00000030: 3160 cbbe 5c77 e7be e5b1 523e 4c12 b9bd
00000040: cc2b 1c3f a42b 143e ff27 213f f250 f23e
00000050: e72f 62bf 016d 29bf 656e a7bf 435a 4e3f
00000060: e5a9 853e 4045 853e abc9 133f f29d 26bd
00000070: d07c f63e e2d4 b93e 27b0 0cbf 727f ddbd

model_1/batch_normalization_3/batchnorm/sub:0 f4 [16]
-0.64102817 -0.40668437 0.2360064 -1.1978254 -1.1946769 0.08138156 0.119458705 0.108347654
0.85898495 0.2341398 -0.31577513 -0.16545114 0.43118885 -1.044285 0.7997863 -0.90523976
00000000: 6c1a 24bf ef38 d0be a9ab 713e 5852 99bf
00000010: 2ceb 98bf 60ab a63d c4a6 f43d 60e5 dd3d
00000020: 70e6 5b3f 58c2 6f3e 47ad a1be 066c 29be
00000030: c9c4 dc3e 22ab 85bf ccbe 4c3f cbbd 67bf

model_1/batch_normalization_3/batchnorm/mul:0 f4 [16]
0.27938637 0.48618403 1.079541 0.6614306 0.56850326 0.9802067 0.570055 0.23665273
0.3575242 0.69168913 0.36336994 0.6244026 0.6528595 1.1334296 1.3200103 0.73564076
00000000: bb0b 8f3e 1ded f83e 662e 8a3f 8453 293f
00000010: 6e89 113f d4ee 7a3f 20ef 113f 1855 723e
00000020: 690d b73e 8a12 313f a00b ba3e d9d8 1f3f
00000030: cd21 273f 3914 913f 19f6 a83f f452 3c3f

model_1/batch_normalization_2/batchnorm/sub:0 f4 [64]
-0.5621043 0.015334219 -0.04219356 -0.8894949 -0.846465 0.043072686 0.040965825 -0.21277753
0.27185777 0.35125226 -0.23240304 -0.8327787 0.1503869 0.15035805 -0.056462348 0.039981455
-0.6305295 -0.026284367 0.3668083 -0.2745529 0.37419152 -0.0046085417 0.28442174 -0.76750827
-0.32594895 -0.21418862 -0.72234845 0.21967602 -0.14308964 -0.21702385 0.41371253 0.011966914
0.063129574 0.04133579 0.03124395 0.3426504 -0.8060592 -0.8684126 0.11423269 -1.0364816
-0.27892503 -0.03519255 -0.3275044 0.068724565 0.7811914 0.5345456 0.22853035 -0.6979847
-0.026550382 -0.040177643 -0.6236835 -0.71265125 -0.15666743 0.23237455 -0.19413751 -0.4833208
-0.13166592 -0.6535257 -0.29275146 0.014453486 0.050729215 0.27445677 -0.47879228 -0.93504703
00000000: 11e6 0fbf 603c 7b3c 28d3 2cbd f0b5 63bf
00000010: eeb1 58bf fc6c 303d c8cb 273d 5ae2 59be
00000020: f130 8b3e 56d7 b33e 10fb 6dbe fc30 55bf
00000030: 06ff 193e 76f7 193e 1045 67bd 98c3 233d
00000040: 626a 21bf 5052 d7bc 4cce bb3e 3392 8cbe
00000050: 0896 bf3e 4003 97bb ba9f 913e 6c7b 44bf
00000060: c8e2 a6be 4354 5bbe d4eb 38bf c0f2 603e
00000070: 1786 12be 803b 5ebe 21d2 d33e e010 443c
00000080: 144a 813d b84f 293d 50f3 ff3c e06f af3e
00000090: e559 4ebf 4a50 5ebf d4f2 e93d 6eab 84bf
000000a0: 43cf 8ebe 1026 10bd a8ae a7be 77bf 8c3d
000000b0: 29fc 473f fbd7 083f dc03 6a3e 20af 32bf
000000c0: 3080 d9bc 5091 24bd b9a9 1fbf 5070 36bf
000000d0: 6d6d 20be 98f3 6d3e fccb 46be d375 f7be
000000e0: 6ed3 06be 764d 27bf 85e3 95be 50ce 6c3c
000000f0: 70c9 4f3d 9985 8c3e 4324 f5be 3e5f 6fbf

model_1/batch_normalization_2/batchnorm/mul:0 f4 [64]
0.8141467 1.3129007 1.022343 0.84439427 0.95539564 0.41061014 0.5720546 0.5241018
0.5280762 1.4508795 0.5084317 2.0098116 0.36460948 0.42269233 0.57705516 1.4804097
0.88584703 0.74308115 0.33170477 0.66358185 0.39926046 0.3787171 0.2770594 1.0312136
0.7716858 0.9073016 0.9097695 1.8226151 0.45647857 0.4346151 0.7656792 0.96485037
0.32489386 0.38434505 0.6736001 0.5907822 1.13901 0.73067397 1.1076088 1.0035388
1.0276635 0.41822278 0.36232212 0.7565119 1.3180209 1.4619143 0.8686631 0.73178923
0.43537563 0.24729279 0.83386165 1.1604048 0.7490617 0.3546502 0.39638868 1.3441436
0.9998039 1.1206354 0.9895408 0.27076373 0.7789848 1.3612783 1.1916406 0.36210772
00000000: eb6b 503f 210d a83f 23dc 823f 392a 583f
00000010: cf94 743f 7e3b d23e 2c72 123f 892b 063f
00000020: 0030 073f 6bb6 b93f 9428 023f c1a0 0040
00000030: 18ae ba3e 216b d83e e3b9 133f 117e bd3f
00000040: dfc6 623f 913a 3e3f 35d5 a93e 80e0 293f
00000050: de6b cc3e 35e7 c13e bbda 8d3e cffe 833f
00000060: 338d 453f eb44 683f a7e6 683f 744b e93f
00000070: 8fb7 e93e df85 de3e 8d03 443f 6f00 773f
00000080: 7d58 a63e e0c8 c43e 0e71 2c3f 813d 173f
00000090: 14cb 913f 730d 3b3f 20c6 8d3f f673 803f
000000a0: 7a8a 833f 4c21 d63e 4982 b93e c4aa 413f
000000b0: e9b4 a83f 0220 bb3f b460 5e3f 8a56 3b3f
000000c0: 8ee9 de3e 523a 7d3e f577 553f 2588 943f
000000d0: 82c2 3f3f b694 b53e 75f3 ca3e e60c ac3f
000000e0: 26f3 7f3f fb70 8f3f 8c52 7d3f 8ba1 8a3e
000000f0: 8c6b 473f 5e3e ae3f ae87 983f 2f66 b93e

model_1/batch_normalization_1/batchnorm/sub:0 f4 [32]
-2.429262 -0.51940155 0.4000554 -1.500362 -1.0875454 -0.2392074 -0.36746106 0.8856407
0.13493623 0.20997006 -0.7834117 0.31541395 0.0038148463 0.10507798 -0.34906763 -0.47096604
0.07341683 -0.5851948 -0.3344207 -0.04369682 0.5648229 0.4385534 1.6964313 -0.11059931
-0.65368456 0.12617213 -0.82410324 0.46373147 -0.51159954 -0.10569709 0.392689 -0.13662231
00000000: 0779 1bc0 80f7 04bf 10d4 cc3e dd0b c0bf
00000010: b034 8bbf c9f2 74be db23 bcbe 59b9 623f
00000020: b92c 0a3e 6402 573e ab8d 48bf f07d a13e
00000030: 8002 7a3b 2033 d73d feb8 b2be 7622 f1be
00000040: 905b 963d 54cf 15bf 3139 abbe 70fb 32bd
00000050: 3c98 103f 128a e03e a924 d93f e481 e2bd
00000060: df57 27bf 4433 013e 6ef8 52bf 366e ed3e
00000070: 30f8 02bf b777 d8bd 880e c93e b8e6 0bbe

model_1/batch_normalization_1/batchnorm/mul:0 f4 [32]
1.8959326 0.71924174 0.36275434 0.9206364 0.42289358 0.6372966 0.6925274 0.55279815
1.0475178 0.5650275 0.6883159 0.38297468 0.28831688 0.2634028 0.3758342 0.5976809
0.63095874 0.5210938 1.0259265 0.43376544 0.34212908 0.2098961 1.0106694 0.22155252
0.7112615 0.8421053 0.58516973 0.5899229 0.5875748 1.0598141 0.25162297 0.6593256
00000000: ebad f23f 3a20 383f f0ba b93e d4ae 6b3f
00000010: 8285 d83e df25 233f 7a49 313f 2e84 0d3f
00000020: 1015 863f a4a5 103f 7935 303f 4215 c43e
00000030: 459e 933e bbdc 863e 576d c03e 9e01 193f
00000040: 8386 213f 6766 053f 8f51 833f 8116 de3e
00000050: 8b2b af3e 01ef 563e 9d5d 813f aade 623e
00000060: 3c15 363f 3794 573f afcd 153f 3005 173f
00000070: 4d6b 163f fda7 873f bad4 803e 90c9 283f
