Config/NeuralNets/BallPerceptor/corrector.onnx (onnx, 29691 bytes, 12 tensors)

model_1/dense_3/MatMul/ReadVariableOp:0 f4 [64, 3]
0	0x3d7f12f3	0.06227393
1	0x3e00ba4b	0.12571065
2	0x3fbbb92c	1.4665885
3	0x3d5d7878	0.054069966
4	0x3ea426c6	0.32060832
5	0x3ea7dda0	0.32786274
6	0x3c5059a5	0.012716685
7	0x3ee50a9a	0.4473465
8	0x3f49284a	0.785771
9	0xbe79bd6f	-0.2438867
10	0xbdc68b3c	-0.096945256
11	0xbe55470d	-0.20827885
12	0xbe5a096a	-0.21292654
13	0xbeff9a11	-0.4992223
14	0xbe2eb922	-0.1706281
15	0x3e2a92dc	0.16657585
16	0xbd952041	-0.072815426
17	0x3dfc0695	0.12305943
18	0xbaedfc84	-0.001815692
19	0x3be530dd	0.0069943503
20	0x3c046b47	0.008082218
21	0xc01a1ab9	-2.407881
22	0xbd8e6f8d	-0.069548704
23	0xbddb11db	-0.10696765
24	0xbd1a2195	-0.037629683
25	0x3f311c65	0.6918395
26	0x3f24a2b4	0.64310765
27	0xbc74a7a2	-0.014932545
28	0x3e714d1b	0.2356457
29	0x3deceff3	0.11569204
30	0xbd2dff3f	-0.04247975
31	0xbe55589e	-0.20834586
32	0x3d8f2f19	0.06991405
33	0x3c739a2a	0.014868299
34	0x3fa669f5	1.3001086
35	0x3f721d95	0.9457639
36	0x3e1fcf32	0.15606382
37	0xbeee4f5b	-0.46544918
38	0x3e318a2c	0.17337865
39	0x3eb0d6e9	0.34538963
40	0x3ea15783	0.3151208
41	0xbe96e5a6	-0.29472083
42	0xbcc5e82d	-0.024158562
43	0x3f535670	0.8255377
44	0x3dae50b0	0.08511484
45	0x3e1132be	0.14179513
46	0x3f3c37aa	0.73522437
47	0xbd5f2b63	-0.054484736
48	0xbe37293a	-0.1788682
49	0x3e06e94f	0.13174938
50	0xbdc9d6b2	-0.09855403
51	0x3ba3010e	0.004974491
52	0x40127295	2.2882435
53	0xbf1c3df9	-0.6103206
54	0x3e213169	0.15741505
55	0xbd107dca	-0.03527621
56	0xbe176ab6	-0.147868
57	0xbd4898cc	-0.048973843
58	0x3ea36664	0.31914055
59	0x3e415b76	0.18882546
60	0xbe8a8133	-0.27051696
61	0x3ca9f2b3	0.02074561
62	0x3e0ad1ae	0.13556549
63	0x3d02c829	0.03192917
64	0xbed8752e	-0.422769
65	0x3e1126b0	0.14174914
66	0x3e6ceba2	0.23136762
67	0x3cf99840	0.030468106
68	0xbe0762da	-0.13221303
69	0xbb995b2f	-0.0046800594
70	0x3dd11c0d	0.102104284
71	0x3fe91f39	1.8212653
72	0xbea037ba	-0.31292516
73	0x3c898d71	0.016791077
74	0x3ea99ad0	0.33125925
75	0x3eef4385	0.467312
76	0x3f309c88	0.6898885
77	0x3da91f24	0.08257893
78	0xbf16f33f	-0.58964914
79	0x3dd86482	0.10566045
80	0xbc45c09e	-0.012069849
81	0xbf00cef9	-0.50315815
82	0x3e5ee89c	0.21768421
83	0x3e52a02a	0.2056891
84	0x3ca61ac8	0.020276442
85	0x3e3a8af2	0.18217066
86	0x3cdd2e60	0.026999652
87	0xbcdfc49f	-0.027315436
88	0xbf539b6b	-0.82659024
89	0xbe3dfe64	-0.18554074
90	0xbbf531d7	-0.007482748
91	0xbfdb26ea	-1.7121251
92	0x3ebd88f1	0.3701854
93	0xbd2d38a3	-0.04229034
94	0xbe0e94d8	-0.13923967
95	0x3fcc49e4	1.596005
96	0x3db210b4	0.08694592
97	0xbe89a58b	-0.26884112
98	0xbe271a46	-0.16318616
99	0xbf30f1ff	-0.69119257
100	0xbce3bf44	-0.027801163
101	0x3d861e44	0.065487415
102	0xbd4e4651	-0.050360028
103	0x3ea3e897	0.3201339
104	0x3f9d6f6e	1.2299631
105	0xbc4f275e	-0.012643663
106	0xbfada51c	-1.3566012
107	0x3ea8a4dd	0.3293828
108	0x3e5ac61c	0.21364635
109	0xbbf9c317	-0.0076221335
110	0xbee38ab6	-0.44441766
111	0xbdaf2412	-0.08551802
112	0x3d08594a	0.033288278
113	0x3de63e37	0.11242335
114	0x3f12299b	0.57094735
115	0xbdca6a2a	-0.098835304
116	0xbee37f2f	-0.4443297
117	0x3e7cec34	0.2469948
118	0xbdfdc501	-0.12391091
119	0xbe718cf9	-0.23588933
120	0x3e7fca21	0.2497945
121	0x3dbdd13c	0.09268424
122	0x3aec9b72	0.0018051697
123	0xbe1d46c7	-0.1535903
124	0xbe7afa35	-0.24509509
125	0xbee0e64a	-0.43925697
126	0x3ea83403	0.32852182
127	0x3c2201a3	0.009888086
128	0x3e067d84	0.13133818
129	0xbd0dd60a	-0.03462795
130	0xbea221a7	-0.316663
131	0x3e047639	0.12935723
132	0x3f9ee038	1.2412176
133	0xbce2e592	-0.027697358
134	0x3b118d42	0.002220944
135	0x3e357833	0.17721634
136	0xbd988104	-0.07446483
137	0xbb6a2d0c	-0.0035732416
138	0x3d8a332d	0.06748042
139	0xbea645ee	-0.32475227
140	0x3e1b3f87	0.15160953
141	0x3eb0574d	0.34441605
142	0x3f1006bc	0.56260276
143	0x3f1c2d90	0.6100702
144	0xbdac4f87	-0.08413606
145	0x3e9904c0	0.29886436
146	0xbe70ab56	-0.2350286
147	0x3d8263ad	0.06366668
148	0xbe9c37d9	-0.30511358
149	0x3e673f6f	0.22582792
150	0xbbedec83	-0.0072608604
151	0xbb9c38fd	-0.0047675357
152	0x3ca58ba1	0.020208182
153	0xbd4f99de	-0.05068385
154	0x3ef32d5e	0.4749555
155	0xbdc12a14	-0.09431854
156	0x3d538307	0.05163863
157	0xbed8ae7d	-0.42320624
158	0xbe7b1e4c	-0.24523276
159	0xbebf5f6d	-0.37377492
160	0xbeba34ae	-0.36368316
161	0xbe17363a	-0.1476678
162	0xbec05372	-0.37563664
163	0x3f5d7d25	0.8651908
164	0x3f125655	0.5716298
165	0xba057f70	-0.0005092537
166	0xbc23989b	-0.009985114
167	0xbd9ea402	-0.07746126
168	0xbe454e83	-0.19268231
169	0xbd3fbfa8	-0.046813637
170	0xbecb33bd	-0.3968791
171	0xbe463a03	-0.19358067
172	0xbe75cfe4	-0.24005085
173	0xbdf3d32c	-0.11905512
174	0xbdeb8a2f	-0.11500966
175	0x3eb1075f	0.34575936
176	0x3dd4b165	0.10385398
177	0x3e972258	0.2951839
178	0x3ae0a2a7	0.0017138318
179	0xbd371db7	-0.044706073
180	0x3ce723e0	0.028215349
181	0xbf5ae25b	-0.8550164
182	0x3eb9de22	0.36302286
183	0xbd8de352	-0.069281235
184	0x3ebe87cc	0.3721298
185	0xbf11c329	-0.56938416
186	0x3f93734a	1.1519558
187	0xbd6565af	-0.056005176
188	0xbdec86a2	-0.11549117
189	0x3c14ffc2	0.009094181
190	0xbca04aad	-0.019566858
191	0xbb20b900	-0.002452433

model_1/dense_3/BiasAdd/ReadVariableOp:0 f4 [3]
0	0x3fda55f5	1.7057482
1	0x3f95c656	1.1701152
2	0xbd3650fc	-0.044510826

model_1/dense_2/MatMul/ReadVariableOp:0 f4 [32, 64]
0	0xbf2098c8	-0.62733126
1	0x3dc7e00f	0.09759533
2	0xbe98a0bd	-0.29810134
3	0xbe86ee72	-0.26353794
4	0xbd353f37	-0.04424974
5	0x3d03e345	0.032199163
6	0xc00be5e3	-2.1859062
7	0x3e71c3c0	0.23609829
8	0x3ea7937e	0.32729715
9	0xbeecf7cb	-0.462828
10	0x3de27e3a	0.11059232
11	0xbdea367e	-0.11436175
12	0xbe57ff83	-0.21093564
13	0xbf922184	-1.1416478
14	0x3e247000	0.1605835
15	0xbe81d15b	-0.25355038
16	0xbedc1e27	-0.42991754
17	0x3e93e57d	0.28886023
18	0x3ed84b6d	0.42245045
19	0x3eee89a2	0.4658938
20	0xbdfaba7e	-0.12242602
21	0xbe88b27f	-0.26698682
22	0x3e199e3b	0.15001766
23	0xbfe8629c	-1.8155093
24	0x3ec9d7f4	0.39422572
25	0x3f5af2f0	0.85526943
26	0xbe0cdc35	-0.13755877
27	0xbe6ec8e5	-0.23318823
28	0x3f229b28	0.63518
29	0x3e99ca09	0.30036953
30	0x3e112d8a	0.14177528
31	0xc00b2284	-2.1739817
32	0xbed14b07	-0.40877554
33	0xbee4cad9	-0.4468601
34	0xbf1bc938	-0.6085391
35	0x3df0d87e	0.117600426
36	0x3f8694d1	1.0514165
37	0x3ca430bf	0.020042775
38	0x3df89bbd	0.1213908
39	0x3ec3b4cd	0.38223878
40	0xbdffd1d3	-0.12491193
41	0x3fc1375d	1.509502
42	0xbe467854	-0.19381839
43	0xbf271a86	-0.65274847
44	0x3e554560	0.20827246
45	0x3ee367bc	0.4441508
46	0x3d8a4a41	0.06752444
47	0xbece1f51	-0.40258268
48	0x3f18ec55	0.59735614
49	0x3d80d2b6	0.0629019
50	0x3f4b05a2	0.7930547
51	0xbec9bc92	-0.3940168
52	0xbde33fa2	-0.11096121
53	0xbdc74a9a	-0.09731026
54	0x3e6cefba	0.23138323
55	0x3c9ab5be	0.01888549
56	0x3fcd4cf6	1.6039112
57	0xbf6d21d0	-0.9262972
58	0xbe5298f0	-0.20566154
59	0xbfa14653	-1.2599586
60	0x3da66ae8	0.081258595
61	0x3f69c70c	0.91319346
62	0xbd553866	-0.05205574
63	0x3f008daf	0.5021619
64	0xbda899d5	-0.08232466
65	0xbd7dbedc	-0.061949596
66	0x3d8bba20	0.0682261
67	0xbd7e2df6	-0.06205555
68	0xbe50da2e	-0.20395729
69	0xbd8f66ee	-0.07002054
70	0xbc219d03	-0.009864095
71	0x4011395d	2.2691262
72	0xbec16884	-0.37775052
73	0x3bde92fa	0.0067924233
74	0xbdbdd820	-0.09269738
75	0x3e22ce66	0.15899047
76	0xbdca6954	-0.09883371
77	0x3cd41223	0.025887555
78	0xbd418b8e	-0.04725223
79	0xbdd4b90e	-0.10386859
80	0x3f0512ae	0.5198163
81	0xbda58b63	-0.080832265
82	0xbe384a9a	-0.17997208
83	0xbe158e24	-0.14605004
84	0x3e98fa07	0.29878256
85	0xbe25afbf	-0.16180323
86	0xbe810da5	-0.25205722
87	0xbe71b83f	-0.2360544
88	0x3c5e2ebd	0.013560948
89	0xbe725b6f	-0.23667692
90	0x3cfcff2f	0.0308834
91	0xbe90ae78	-0.2825811
92	0xbe85a813	-0.26104793
93	0xbd954c66	-0.072899625
94	0xbd1f1722	-0.03884042
95	0xbd07556b	-0.033040445
96	0x3c9b1e1f	0.018935261
97	0x3ef5fcf2	0.48044544
98	0xbdd05588	-0.10172564
99	0xbe713ef9	-0.23559178
100	0xbea6d1b3	-0.32581863
101	0xc035698e	-2.8345675
102	0xbdb3c84a	-0.087784365
103	0xc091c61d	-4.5554338
104	0x3e8a872c	0.27056253
105	0x3c12470b	0.008928071
106	0xbe48a1e9	-0.19593014
107	0xbb9cdaae	-0.004786811
108	0x3fbe8c2b	1.4886526
109	0xbe803b57	-0.25045273
110	0x3d68349a	0.05669079
111	0xbde3ee8a	-0.11129482
112	0xbe3f9146	-0.18707761
113	0xbf155db8	-0.5834613
114	0x3e63a8e8	0.22232401
115	0x3c9d24d9	0.01918261
116	0xbdb4c998	-0.088275135
117	0x3d4583a4	0.048221245
118	0xbe30a53e	-0.17250535
119	0xc00d63d7	-2.2092187
120	0xbee90d29	-0.45517853
121	0x3db954b8	0.09049362
122	0xbccae328	-0.02476652
123	0xc08dfe56	-4.437297
124	0xbeda19b4	-0.42597735
125	0x3e8abdff	0.2709808
126	0x3ff8f526	1.9449813
127	0xbde91600	-0.11381149
128	0x3d55eda2	0.052228577
129	0xbe7a0ffa	-0.24420157
130	0xbe474605	-0.19460304
131	0x3c4449ea	0.011980513
132	0x3e0a4cf1	0.13505913
133	0xbe8fb01a	-0.28064042
134	0x3eec9f9a	0.46215516
135	0x3ffffa2e	1.9998224
136	0xbd7fdb8b	-0.062465232
137	0x3ddd98e1	0.10820175
138	0x3e46b9dd	0.19406839
139	0xbe08fa5f	-0.13376759
140	0xbe2b83a0	-0.1674943
141	0xbc155c47	-0.009116239
142	0x3e9da111	0.30786946
143	0x3e0def0c	0.1386072
144	0x3e3b25e0	0.18276167
145	0x3ce0f7f0	0.027461976
146	0xbe06d2b7	-0.13166319
147	0xbe49d391	-0.19709612
148	0x3e833c05	0.2563173
149	0xbeccfd6d	-0.400371
150	0xbd73cced	-0.059521604
151	0x3e43182a	0.19052187
152	0x3dc3b68f	0.09556305
153	0xbd94ac84	-0.07259467
154	0x3cf290be	0.029610034
155	0xbeaf97ab	-0.342954
156	0x3db84deb	0.08999237
157	0xbef8f4b6	-0.486242
158	0xbe309406	-0.17243966
159	0x3ed07161	0.407115
160	0xbe22fe32	-0.1591728
161	0xbd5b772f	-0.05358046
162	0x3eca51ec	0.39515626
163	0x3e9cef9c	0.30651557
164	0x3df481b4	0.119388014
165	0xc02425c7	-2.5648057
166	0x3cbf22a7	0.023331953
167	0xc08160f6	-4.043086
168	0xbf7ecad5	-0.9952825
169	0xbdb66cdb	-0.08907481
170	0xbea7d404	-0.32778943
171	0x3eb09d85	0.34495178
172	0x3fa3d3af	1.2798976
173	0xbd1eca69	-0.038767252
174	0xbea3aea7	-0.31969187
175	0x3e975896	0.29559773
176	0xbda6f0d7	-0.08151405
177	0x3cdba9c1	0.026814343
178	0x3e3dadf0	0.18523383
179	0x3e9fdf5d	0.312251
180	0x3d5dc2c7	0.054140832
181	0xbf6d11ad	-0.92605096
182	0x3e61d8f2	0.22055414
183	0xc000be5c	-2.0116186
184	0x3dc49e87	0.09600549
185	0xbed9eb73	-0.42562446
186	0xbebcd3d4	-0.36880362
187	0xc081424d	-4.0393434
188	0xbe9ba94a	-0.30402595
189	0xbec63d8b	-0.3871883
190	0x3fd9b8f3	1.7009567
191	0x3f0d7a3e	0.5526465
192	0xbd9ed5ea	-0.077556446
193	0xbf199205	-0.59988433
194	0xbcdee56c	-0.027209006
195	0xbe9ba18e	-0.30396694
196	0x3e5bb24a	0.2145473
197	0x3e3c2072	0.18371752
198	0xbcd0ce80	-0.025489092
199	0xbcb1b057	-0.02169053
200	0x3d6e09c0	0.058114767
201	0x3f2127be	0.62951267
202	0xbe0a5c55	-0.13511784
203	0xbea469f3	-0.32112083
204	0xbf2af22e	-0.66775787
205	0x3f158440	0.5840492
206	0x3e1ee968	0.15518725
207	0xbd6ae7dd	-0.05735003
208	0xbe112e3d	-0.14177795
209	0x3e4edb11	0.20200755
210	0x3daca099	0.08429069
211	0x3d981eb9	0.07427735
212	0x3e2e9f0d	0.1705286
213	0xbe4ab1ce	-0.1979439
214	0xbea3462c	-0.31889474
215	0xbea2bf47	-0.31786558
216	0x3f75bd18	0.9599166
217	0x3f01e82d	0.507449
218	0xbe1d5c6e	-0.1536729
219	0x3e7813cd	0.24226303
220	0x3ef8e16e	0.4860949
221	0xbdcfcc10	-0.10146344
222	0x3d46f415	0.04857262
223	0xbd493886	-0.04912617
224	0x3f8f222d	1.1182305
225	0x3ea82e0e	0.32847637
226	0x3e920468	0.28518987
227	0xbdeb6d3b	-0.114954434
228	0x3f7081b2	0.939479
229	0xbebaacf8	-0.3646009
230	0x3d9c18c1	0.07621909
231	0x3ed2e628	0.4119122
232	0xbe7d3267	-0.24726258
233	0xbf024d29	-0.5089899
234	0xbf6e5426	-0.9309715
235	0x3f4a032d	0.78911096
236	0xbd23513c	-0.039872393
237	0x3f04fc70	0.5194769
238	0xbf334e10	-0.7004099
239	0x3f03383e	0.51257694
240	0xbd3d16ba	-0.046164252
241	0xbf401737	-0.75035423
242	0x3ebb9949	0.36640385
243	0x3f4b4955	0.7940877
244	0xbb8f5134	-0.004373694
245	0x3eb7a641	0.3586903
246	0xbdf20f87	-0.11819368
247	0xbe0ca42e	-0.13734505
248	0x3eb76a2d	0.35823193
249	0x3f2fdf60	0.6870022
250	0xbf84aa25	-1.0364424
251	0xbd60fa13	-0.05492599
252	0xbddd126a	-0.10794528
253	0x3f878d68	1.0590029
254	0x3db497c2	0.08818008
255	0x3e480cb5	0.19536097

model_1/dense_2/BiasAdd/ReadVariableOp:0 f4 [64]
0	0xbcb764ad	-0.022386873
1	0xbef16118	-0.4714439
2	0xbebad228	-0.36488461
3	0x3e936cb5	0.28793874
4	0x3d1a871d	0.03772651
5	0x3c7312cc	0.0148360245
6	0xbe8b4bd0	-0.27206278
7	0x3f70a130	0.9399595
8	0x3f5e02ae	0.8672284
9	0xbd9a3d89	-0.07531268
10	0x3f8c6d1c	1.0970798
11	0xbee3c4fe	-0.4448623
12	0xbf11b7f6	-0.5692133
13	0xbeac27c2	-0.33624083
14	0x3f508cee	0.8146504
15	0x3eeeb5a8	0.46622968
16	0xbf032ffe	-0.51245105
17	0x3e428de6	0.18999442
18	0x3e233927	0.1593977
19	0x3eda4f59	0.42638662
20	0x3f523a45	0.8212016
21	0xbf86b8bf	-1.052513
22	0x3f2fa372	0.6860877
23	0xbeadcf9a	-0.3394745
24	0x3f49a01a	0.7875992
25	0x3f5750e0	0.8410778
26	0x3d251027	0.040298607
27	0x3f79c63d	0.9756811
28	0x3f6d916d	0.9280003
29	0xbf2cb17f	-0.6745834
30	0x3d3eb8f2	0.046563096
31	0xbf62cdd1	-0.885953
32	0x3f111e2c	0.56686664
33	0xbec3e122	-0.382577
34	0xbefd2c9b	-0.49448094
35	0xbf2b9d58	-0.6703696
36	0x3f198512	0.59968674
37	0x3e817891	0.25287297
38	0xbfa47e83	-1.2851108
39	0x3d992ecd	0.0747963
40	0x3e8a9397	0.27065727
41	0xbec47351	-0.3836923
42	0x3e2dbe42	0.16967109
43	0x3f039430	0.5139799
44	0x3efab492	0.4896589
45	0xbf2a4e4a	-0.6652571
46	0x3f09d479	0.5383983
47	0xbd7d6e72	-0.061872907
48	0xbfcaebd3	-1.5853218
49	0xbe5f0bfe	-0.21781918
50	0x3ed02423	0.4065257
51	0x3e3b635f	0.18299626
52	0xbdaca685	-0.084301986
53	0xbf045b0e	-0.5170144
54	0x3f85a16a	1.0439885
55	0x3d454607	0.048162486
56	0xbe0c5a73	-0.13706379
57	0x3db19852	0.08671631
58	0xbf1ac3a8	-0.604548
59	0xbefd16ce	-0.4943146
60	0xbf1b736e	-0.60723007
61	0x3f35abcb	0.7096526
62	0xbd6ba21d	-0.05752765
63	0x3f54247f	0.8286819

model_1/dense_1/MatMul/ReadVariableOp:0 f4 [128, 32]
0	0xbe92baf8	-0.2865827
1	0xbe31e793	-0.17373495
2	0x3e21695a	0.15762845
3	0x3e33fd79	0.17577161
4	0x3e8c9c2a	0.27462894
5	0x3eb0fab3	0.34566268
6	0xbe9cc881	-0.30621722
7	0xbd9b8bea	-0.07595046
8	0xbe24852c	-0.16066426
9	0xbec4aeb5	-0.3841454
10	0x3bd2095d	0.0064098076
11	0x3e915b7d	0.28390113
12	0x3ea30dba	0.3184641
13	0x3d9dfd1a	0.07714291
14	0x3ea971c6	0.33094615
15	0xbe473a05	-0.19455726
16	0xbf05b44f	-0.52228254
17	0xbe05b16b	-0.13055961
18	0xbdbc4bf0	-0.091941714
19	0x3ea29b1d	0.31758967
20	0xbe4c84d0	-0.19972539
21	0x3d76725b	0.06016765
22	0xbe4bd329	-0.1990477
23	0xbe124528	-0.14284194
24	0x3f1365f2	0.5757743
25	0x3ee9bfc2	0.45654112
26	0x3e481297	0.19538341
27	0x3e520b0b	0.20512025
28	0x3f23b236	0.63943803
29	0x3e66076b	0.22463767
30	0x3d5fc626	0.05463233
31	0xbea3b7d1	-0.31976178
32	0xbdd12848	-0.10212761
33	0x3f3d920e	0.74050987
34	0x3ee046bd	0.4380397
35	0x3e8891f7	0.26673862
36	0x3f19ee52	0.6012927
37	0xbf2cae67	-0.67453617
38	0xbe8a1037	-0.26965496
39	0x3de339b1	0.11094988
40	0x3d8c8f54	0.06863275
41	0xbde7108b	-0.11282452
42	0xbf1bb997	-0.6083006
43	0x3d81ba19	0.063343234
44	0xbecd8862	-0.40143114
45	0x3e6254f8	0.22102726
46	0x3f180f1d	0.5939806
47	0x3f03c2f0	0.51469326
48	0xbe35e9a9	-0.17764916
49	0xbecabac9	-0.3959563
50	0x3e156318	0.14588583
51	0x3f19823c	0.59964347
52	0x3f0c92a4	0.54911256
53	0x3f4024bc	0.7505605
54	0xbf3c0201	-0.7344056
55	0x3ea5cd16	0.3238303
56	0x3eb85060	0.3599882
57	0x3f3af8bf	0.73035806
58	0x3da1c5c9	0.07899053
59	0x3eeb2c6b	0.45932326
60	0x3f71a0ad	0.94385797
61	0xbda70689	-0.08155543
62	0x3f61a397	0.88140243
63	0x3edf24ba	0.43582708
64	0xbe71fd50	-0.23631787
65	0xbed55f87	-0.41674444
66	0x3ddd6f98	0.108123004
67	0xbf1588ef	-0.5841207
68	0x3ed4dca4	0.41574585
69	0x3e874500	0.2641983
70	0x3e29e085	0.16589554
71	0x3ec5a8ad	0.38605252
72	0x3d5c1ed4	0.053740337
73	0xbd5ff349	-0.054675374
74	0x3e23c516	0.15993151
75	0x3e8b4e51	0.27208188
76	0xbf1e813d	-0.6191595
77	0x3de33886	0.11094765
78	0xbf49f41a	-0.78888094
79	0xbda8bfe9	-0.08239729
80	0x3dc574b9	0.09641404
81	0x3e02b6cb	0.12765042
82	0x3e8b21cd	0.27174225
83	0xbd1f771b	-0.038931947
84	0x3eb6ed86	0.3572809
85	0x3e3d54ff	0.18489455
86	0x3e1920b2	0.14953879
87	0xbdb7ef78	-0.08981222
88	0xbf06d704	-0.5267184
89	0xbedddc77	-0.43332264
90	0x3ed784f0	0.4209361
91	0xbe2dde9e	-0.16979453
92	0x3e215d75	0.15758307
93	0x3ee55c7c	0.44797122
94	0xbe91088c	-0.28326833
95	0x3e5de889	0.21670736
96	0xbef5e097	-0.4802291
97	0x3f5af1e0	0.8552532
98	0x3f393fff	0.72363275
99	0xbce83f82	-0.028350595
100	0x3f18c6dc	0.59678435
101	0xbcbb7263	-0.022881692
102	0x3ea14050	0.3149438
103	0x3ee7fec1	0.4531155
104	0x3f1e2ec6	0.6179012
105	0xbe8b7f1b	-0.2724541
106	0xbee9a2fc	-0.4563216
107	0xbf8528ae	-1.040304
108	0x3e5e3085	0.21698196
109	0xbee1f93f	-0.44135472
110	0x3f341fb6	0.7036089
111	0x3e812238	0.2522142
112	0x3f1e38ad	0.6180523
113	0x3f03b55a	0.51448596
114	0x3e92eb8e	0.2869534
115	0x3e7a9320	0.24470186
116	0x3f58bab4	0.84659886
117	0x3e61b622	0.22042134
118	0x3c1676ad	0.009183568
119	0x3f13aa72	0.57681954
120	0x3cc06c53	0.023489153
121	0x3ec41923	0.38300428
122	0xbea7ba69	-0.32759407
123	0x3ea49fe8	0.3215325
124	0x3e3a1322	0.18171361
125	0x3dc9f558	0.09861249
126	0x3e9763fb	0.29568467
127	0x3e1edead	0.15514632
128	0xbdf0569f	-0.11735272
129	0x3e0641ec	0.13111085
130	0x3d8ad618	0.067791164
131	0x3f39eb31	0.726245
132	0x3ba2c113	0.004966864
133	0x3e948706	0.29009265
134	0xbd253674	-0.040335134
135	0xbe84eb2f	-0.2596068
136	0x3f2039c9	0.62588173
137	0x3cd75c0e	0.026289012
138	0x3e9c4ebf	0.30528829
139	0xbf36c3b1	-0.7139235
140	0xbf057380	-0.52129364
141	0x3ebc595c	0.36786926
142	0x3f27859d	0.6543825
143	0x3dedd47c	0.11612794
144	0xbe3caf50	-0.18426251
145	0x3f385225	0.7200034
146	0xbf100669	-0.5625978
147	0xbe34d910	-0.17660928
148	0xbdcf9d4a	-0.101374224
149	0xbcfd0bc4	-0.0308894
150	0xbdca4d30	-0.098780036
151	0x3f327d5c	0.69722533
152	0x3f8899a8	1.0671892
153	0x3d40f775	0.047110993
154	0xbed063ae	-0.4070105
155	0x3e48eced	0.1962163
156	0xbeb85de4	-0.36009133
157	0x3ef039db	0.4691914
158	0xbdb214c0	-0.08695364
159	0xbdf21aeb	-0.118215404
160	0xbf9f55c4	-1.2448049
161	0x3c02d312	0.007984893
162	0x3e0e96b2	0.13924673
163	0xbef5e5aa	-0.48026782
164	0x3e24e690	0.16103578
165	0x3e81a89b	0.25323948
166	0x3ea7e998	0.32795405
167	0x3f2a47e5	0.6651595
168	0xbd81a813	-0.06330886
169	0xbf93b098	-1.1538267
170	0xbf5edfb2	-0.8706008
171	0x3f48abb0	0.78386974
172	0xbec71cf4	-0.38889277
173	0xbf532885	-0.824837
174	0xbd3bcd5e	-0.04585015
175	0x3ef43813	0.4769903
176	0xbed33202	-0.4124909
177	0xbe960319	-0.29299238
178	0x3f4614ef	0.7737569
179	0x3f459248	0.7717633
180	0x3f30b6ac	0.69028735
181	0x3f55c319	0.8350082
182	0xbf02df29	-0.51121765
183	0x3e8e49ea	0.27790767
184	0xbe924afe	-0.2857284
185	0x3e93e687	0.28886816
186	0x3e1a4a23	0.15067343
187	0x3d5da3ae	0.054111175
188	0x3fb5747e	1.4176176
189	0x3df24965	0.11830405
190	0x3f70b4e8	0.9402604
191	0x3f7c6561	0.9859219
192	0x3e84aaae	0.25911468
193	0x3e9ff3ce	0.31240696
194	0x3e33301b	0.1749882
195	0xbee207d2	-0.4414659
196	0xbd6c5eac	-0.057707474
197	0xbe0800af	-0.13281511
198	0xbe46939d	-0.19392247
199	0xbf2aeeef	-0.66770834
200	0xbeddc705	-0.43315902
201	0x3e2c9ddd	0.16857095
202	0xbe68a291	-0.22718264
203	0xbee80bdf	-0.45321557
204	0xbebfd872	-0.37469822
205	0xbddd258a	-0.10798176
206	0xbe7eb9ae	-0.24875519
207	0x3da05b5d	0.07829926
208	0xbe800e54	-0.25010931
209	0xbea00c12	-0.3125921
210	0x3d8db0bf	0.06918477
211	0xbe7eb34b	-0.24873082
212	0x3f04ba3d	0.5184668
213	0xbe40864c	-0.1880123
214	0xbea0c08b	-0.313969
215	0xbd031d30	-0.032010257
216	0xbdf1531d	-0.11783431
217	0xbe86f83e	-0.2636127
218	0x3ebeab89	0.37240246
219	0xbf1aa917	-0.6041426
220	0xbedbaa88	-0.42903543
221	0x3e7143ed	0.23561068
222	0xbe1a19a3	-0.15048842
223	0xbe60e7e2	-0.21963456
224	0xbe72d80d	-0.2371523
225	0x3d146695	0.036230642
226	0x3df526bb	0.11970278
227	0x3e090133	0.13379364
228	0xbe0f3464	-0.13984829
229	0xbec3794b	-0.38178477
230	0xb94bdaf5	-0.00019441156
231	0x3e5a019a	0.21289673
232	0x3e8e7d90	0.27830172
233	0x3e4457d6	0.19174132
234	0xbf01fae1	-0.50773436
235	0xbe0769cc	-0.13223952
236	0x3e0234d5	0.12715466
237	0xbdeaff00	-0.11474419
238	0x3eca7e01	0.39549258
239	0x3ed9b362	0.4251967
240	0xbe397d51	-0.1811421
241	0xbd2f1ac3	-0.04275013
242	0x3ddf8239	0.1091351
243	0x3ec82cfe	0.39096826
244	0x3eac1cde	0.33615774
245	0x3e431b12	0.19053295
246	0x3e0a2fd9	0.13494815
247	0x3f6096bd	0.8773001
248	0x3df6f40f	0.12058269
249	0x3f23fe0f	0.6405954
250	0xbeb0c42d	-0.3452467
251	0x3d9b3ec0	0.07580328
252	0x3e8845ce	0.26615757
253	0xbeac68d6	-0.33673733
254	0x3ea672d6	0.32509488
255	0x3ec8c4c3	0.39212617

model_1/dense_1/BiasAdd/ReadVariableOp:0 f4 [32]
0	0x3d8fb6ec	0.070173115
1	0xbe015842	-0.12631324
2	0xbf1dc8ad	-0.6163433
3	0x3eadc65f	0.33940408
4	0x3ebbfeff	0.36717984
5	0x3e945a1c	0.28974998
6	0xbeb15bcc	-0.34640348
7	0x3f66ec7e	0.9020461
8	0x3f83836c	1.0274482
9	0xbda63473	-0.08115473
10	0x3f84ac5e	1.0365102
11	0xbef6dd42	-0.4821568
12	0xbf001cbf	-0.50043863
13	0xbef72446	-0.48269862
14	0x3ea5e6b5	0.32402578
15	0x3f319860	0.6937313
16	0xbf666eb1	-0.9001265
17	0x3dd511e7	0.10403805
18	0x3e10818b	0.14111917
19	0x3e939246	0.28822535
20	0x3fab7d18	1.339755
21	0xbf9314ce	-1.1490724
22	0x3e5aeb71	0.21378876
23	0xbed04450	-0.40677118
24	0x3f3f2469	0.7466493
25	0x3f04a3f2	0.5181266
26	0x3e83b8cc	0.25726926
27	0x3f7443f0	0.95416164
28	0x3f99e86a	1.2024052
29	0xbf10d4e5	-0.5657485
30	0xbf1075f6	-0.56429994
31	0xbf96f3e4	-1.179318

model_1/batch_normalization_3/batchnorm/sub:0 f4 [3]
0	0xc0e74824	-7.227556
1	0x3fb3bb60	1.4041557
2	0x407b1d28	3.9236546

model_1/batch_normalization_3/batchnorm/mul:0 f4 [3]
0	0x413b7a54	11.717365
1	0x40d90d77	6.7828937
2	0x3f9acd46	1.2093894

model_1/batch_normalization_2/batchnorm/sub:0 f4 [64]
0	0xbf64dc52	-0.8939868
1	0xc00b0768	-2.172327
2	0xbf1b4135	-0.60646373
3	0xbf60034e	-0.8750504
4	0x3d9fa150	0.0779444
5	0xbf39d76b	-0.72594327
6	0x3fd5517b	1.6665491
7	0xc0769f4d	-3.853473
8	0xc0bd0461	-5.9067845
9	0x3dfad62b	0.122478805
10	0x3f09d7ff	0.5384521
11	0xbff8732c	-1.9410148
12	0x3f8142ed	1.0098549
13	0x3ef40b0c	0.47664678
14	0x3f6c597e	0.92324054
15	0x3f78e646	0.9722637
16	0x3f42af74	0.7604897
17	0xc05b8b72	-3.430386
18	0x3e6dea71	0.23233964
19	0xbfdbc42d	-1.7169243
20	0x3ebac5b0	0.3647895
21	0x3fa566fa	1.2922051
22	0xbfcb96d9	-1.590541
23	0x401fe979	2.498625
24	0xbf0a4e0e	-0.5402535
25	0xc066db76	-3.6071448
26	0x3f905785	1.1276709
27	0xc0460286	-3.093904
28	0x3e53b540	0.2067461
29	0xc069648a	-3.6467614
30	0xc0681dc4	-3.6268167
31	0x3f2e5654	0.68100476
32	0xc06822b2	-3.6271176
33	0xbf889936	-1.0671756
34	0xbd9700ea	-0.07373221
35	0xbfe6c25c	-1.8028064
36	0xbd3911b8	-0.045182914
37	0x3fb98483	1.4493564
38	0x40601272	3.5011258
39	0x3f1b2818	0.60608053
40	0x3f33b424	0.7019675
41	0xbeb806e2	-0.3594275
42	0x3f76551e	0.9622363
43	0x3f537b56	0.8261007
44	0xc063a51e	-3.556953
45	0xbfa199ba	-1.2625039
46	0x3fd9ddae	1.7020776
47	0x3f746651	0.9546862
48	0x40790b40	3.8913116
49	0xbc78acd0	-0.01517792
50	0x4035ec9d	2.8425667
51	0x3fe1ac0e	1.7630632
52	0x4014f0cf	2.3271978
53	0xc01ac13a	-2.4180436
54	0xbfead975	-1.8347613
55	0xbc097cd1	-0.008391575
56	0xbeba1ae7	-0.3634865
57	0xbf7d810a	-0.99025023
58	0xbfc38fa8	-1.5278215
59	0x3e88bae2	0.2670508
60	0xbfbcc8d4	-1.4748788
61	0xbf970746	-1.1799095
62	0xc05a214a	-3.4082818
63	0x3f6dac8d	0.92841417

model_1/batch_normalization_2/batchnorm/mul:0 f4 [64]
0	0x3f7a9f85	0.9789966
1	0x3faefd3c	1.3671031
2	0x3f28139f	0.6565494
3	0x3f3dbf91	0.7412043
4	0x3fb3f5b8	1.4059362
5	0x3f36a265	0.71341544
6	0xbb7cf74b	-0.0038599547
7	0x3ec15bca	0.37765342
8	0x3fe90c72	1.8206923
9	0x3cf0705b	0.02935045
10	0x3d640506	0.055668853
11	0x3e9bd148	0.30433106
12	0x3f4a90ed	0.7912739
13	0x3f0159d0	0.5052767
14	0x3f237c22	0.63861287
15	0x3e8d63ec	0.27615297
16	0x3ec10059	0.37695578
17	0x3ebb61a1	0.36597922
18	0x3f7ee58c	0.9956901
19	0x3f18dd3a	0.59712565
20	0x3f5ae178	0.8550029
21	0x3f890101	1.0703431
22	0x3f6d2128	0.9262872
23	0x3ea53c6f	0.3227267
24	0x3f1659a9	0.5873056
25	0x3f9ca999	1.2239257
26	0x3fde889c	1.738544
27	0x3fc597a5	1.5436903
28	0x3e062a65	0.1310211
29	0x3f0ab091	0.5417567
30	0x3edcdb18	0.43135905
31	0x3eb454eb	0.35221037
32	0x3f9a6737	1.2062749
33	0x3f1467bb	0.5797078
34	0x3eeba7da	0.46026498
35	0x3eb3308d	0.3499798
36	0x3ee1c665	0.44096676
37	0x3e3af324	0.18256813
38	0x3fecf8af	1.8513392
39	0x3d137b88	0.03600648
40	0x3ef2e1a7	0.47437784
41	0x3f6cce22	0.92502034
42	0x3f424c55	0.75897723
43	0x3fb402bb	1.4063333
44	0x3f09dea1	0.5385533
45	0x3f68f67a	0.91001093
46	0x3f7e2997	0.9928221
47	0x3f564783	0.8370287
48	0x3f82cda8	1.0219011
49	0x3f15a0e8	0.5844865
50	0x3b338957	0.0027395093
51	0x3f3aff9d	0.73046285
52	0x3eefb071	0.46814302
53	0x3fe6591e	1.7995946
54	0x3fd09578	1.6295614
55	0x3961de30	0.00021540443
56	0x3efc0c34	0.4922806
57	0x3fb6a3ea	1.4268773
58	0x3fb656a9	1.4245197
59	0x3ce9c3d2	0.028535757
60	0x3eb48fa4	0.3526584
61	0x3f501608	0.81283617
62	0x3f012be6	0.5045761
63	0x3c89b370	0.016809195

model_1/batch_normalization_1/batchnorm/sub:0 f4 [32]
0	0x3ed6e323	0.41970167
1	0x3d2e72c0	0.042589903
2	0x3ef35374	0.47524607
3	0xbbfa9740	-0.007647425
4	0x3ef7c809	0.48394802
5	0xbda7acfe	-0.081872925
6	0x3f31daec	0.69474673
7	0x3cca70c0	0.024711967
8	0x3e0ce37f	0.13758658
9	0x3e594647	0.21218215
10	0x3e5b3c2a	0.2140967
11	0x3da97711	0.08274663
12	0x3ebf47af	0.37359378
13	0x3f1e43c8	0.61822176
14	0xbeab3420	-0.33438206
15	0xbf68eb68	-0.909842
16	0x3f2bbd42	0.6708566
17	0x3efbfb40	0.49215126
18	0x3f3e3564	0.7430022
19	0xbf8e5dfe	-1.1122434
20	0xbf43448d	-0.76276475
21	0xbf7ff671	-0.99985415
22	0x3f46dada	0.7767769
23	0x3f204ea2	0.62619984
24	0xbdb6b838	-0.08921856
25	0xbda68ec8	-0.08132702
26	0x3fed5de7	1.8544282
27	0x3f302d4e	0.6881913
28	0x3eac466c	0.33647478
29	0x3f470984	0.77748895
30	0xbf2d6348	-0.67729616
31	0xbe3eaa20	-0.18619585

model_1/batch_normalization_1/batchnorm/mul:0 f4 [32]
0	0x3d34810c	0.04406838
1	0x3e5b2903	0.21402363
2	0x3e5f2f8e	0.21795484
3	0x3e0427e7	0.12905847
4	0x3df33ae4	0.11876467
5	0x3dac1463	0.08402326
6	0x3dfa3e2b	0.12218889
7	0x3e358132	0.17725065
8	0x3dbb1a8c	0.09135923
9	0x3d3675fb	0.04454611
10	0x3e28f38b	0.16499154
11	0x3dd684b7	0.10474532
12	0x3dbe8eaa	0.09304555
13	0x3d48391e	0.048882596
14	0x3ea84c9c	0.32870948
15	0x3e0feb48	0.14054596
16	0x3d12e3de	0.035861842
17	0x3d983954	0.074328095
18	0x3df21b9d	0.11821673
19	0x3db4beb8	0.08825439
20	0x3e150f55	0.1455663
21	0x3dd37fb0	0.10327089
22	0x3e34c242	0.17652228
23	0x3e5f2302	0.21790698
24	0x3e71c5d2	0.23610619
25	0x3e299bff	0.16563414
26	0x3d3a9faf	0.045562442
27	0x3e98acfb	0.29819474
28	0x3e95bde7	0.29246446
29	0x3e029423	0.12751822
30	0x3d917b56	0.071036026
31	0x3e27fa1a	0.16404
