Config/NeuralNets/BallPerceptor/encoder.onnx (onnx, 36011 bytes, 8 tensors)

model_1/conv2d_4/BiasAdd_weights_fused_bn f4 [32, 16, 3, 3]
0	0x3cbf9f12	0.02339128
1	0xbd928d0e	-0.0715581
2	0xbddc8206	-0.107669875
3	0x3c460c63	0.012087914
4	0xbd97676d	-0.07392774
5	0x3cbd960c	0.023142837
6	0xbc8ac180	-0.016937971
7	0xbd9d61ef	-0.07684695
8	0x3cddc92f	0.02707347
9	0x3d1f3da9	0.038877163
10	0x3d7ab999	0.061212156
11	0x3cdcd3b6	0.02695642
12	0x3ce57694	0.028010644
13	0x3bf060ad	0.0073357434
14	0x3b55f889	0.003264936
15	0x3ca25ef6	0.019820672
16	0xbb3978a4	-0.0028300667
17	0xbc29c761	-0.010362477
18	0x3c12603e	0.008934079
19	0x3d79899c	0.06092225
20	0x3dbc29c6	0.09187655
21	0x3c248697	0.010041854
22	0x3d9b1771	0.075728305
23	0x3ddc67ea	0.107620075
24	0x3d1a4cb2	0.0376708
25	0x3d855cd0	0.06511843
26	0x3d0ab35a	0.03386245
27	0x3cae8aec	0.021306477
28	0x3c9da177	0.019242031
29	0x3c7e820b	0.015533934
30	0x3c328bca	0.010897586
31	0x3d31f877	0.043449845
32	0x3ceafac6	0.028684031
33	0xbd0f20b2	-0.03494329
34	0x3c0b6299	0.008507394
35	0xbbea4afb	-0.0071500516
36	0x3c359294	0.01108231
37	0x3ba3972e	0.0049923873
38	0xbd4277c9	-0.047477517
39	0x3c16530f	0.009175076
40	0xbb88b98f	-0.004172511
41	0xbc7a82d7	-0.015289984
42	0xbcddfe7c	-0.027098887
43	0xbaeb95f0	-0.0017973762
44	0xbc72e28d	-0.014824522
45	0xbd0d994d	-0.034570027
46	0xbd166a04	-0.036722198
47	0xbdf9c71b	-0.121961795
48	0xbb4c2d62	-0.003115498
49	0xba8a7e3a	-0.0010566183
50	0xbdada8df	-0.08479475
51	0x3e442fc5	0.19158848
52	0x3c858c2c	0.01630219
53	0x3df10196	0.117678806
54	0xbd6c39b7	-0.05767223
55	0x3c7586b6	0.014985731
56	0xbd96b16a	-0.07358058
57	0xbbbdd2ce	-0.005792952
58	0x3d600743	0.054694425
59	0x3d438a2d	0.047739197
60	0x3aadcc1f	0.0013259685
61	0x3d9d5d27	0.07683783
62	0x3c7dcdab	0.01549093
63	0x3d251c8d	0.04031043
64	0x3d37ebe4	0.044902697
65	0xbb170c43	-0.002304808
66	0x3c9c0c00	0.01904869
67	0x3d35e408	0.04440692
68	0x3d35261c	0.044225797
69	0xbc342d7e	-0.010997174
70	0x3d3f1147	0.046647336
71	0x3cf6007d	0.03002953
72	0x3d32a281	0.043612007
73	0x3c2a7a13	0.010405081
74	0xbbdc1437	-0.006716277
75	0x3d640466	0.055668257
76	0x3d141205	0.036149997
77	0xbc02b326	-0.007977283
78	0x3d1bffab	0.03808562
79	0x3dabdada	0.08391352
80	0x3d0a3bd2	0.033748455
81	0xbca3b679	-0.01998447
82	0x3dba82c8	0.09106976
83	0x3dd53e85	0.10412315
84	0x3d17f54d	0.03709917
85	0x3cd760ae	0.026291218
86	0x3cb324fe	0.021868225
87	0x3d0157d9	0.03157792
88	0xbc255551	-0.010091142
89	0x3af6e62f	0.0018836911
90	0xbb8d35c0	-0.004309386
91	0x3b225561	0.0024770128
92	0x3d612dfe	0.054975502
93	0x3aaa7752	0.0013005531
94	0xb9f39892	-0.00046462246
95	0x3c946c9b	0.018118193
96	0xbcecf280	-0.028924227
97	0xbcddaa8f	-0.027058868
98	0xbd18e64b	-0.037329
99	0x3db4cf07	0.0882855
100	0x3bc2d765	0.005946087
101	0xbd1846b9	-0.03717682
102	0x3da98ee1	0.08279205
103	0x3d596f43	0.053084623
104	0x3d5540e8	0.052063853
105	0x3df116db	0.117719375
106	0x3dc81e7b	0.09771439
107	0x3d7c0b47	0.061534192
108	0xbcad77f2	-0.021175358
109	0xbdbc5443	-0.09195759
110	0xbe31c2ab	-0.17359416
111	0xbd2b39c8	-0.04180315
112	0xbd34cfed	-0.044143606
113	0xbdffc1fc	-0.124881715
114	0xbdb30006	-0.08740239
115	0x3cf4fe38	0.029906377
116	0xbd9b05a8	-0.07569438
117	0xbbd6c269	-0.006553937
118	0xbc418ae4	-0.011812899
119	0xbdf31b22	-0.118704095
120	0x3b444595	0.00299487
121	0x3bbf470d	0.0058373273
122	0xbd403010	-0.046920836
123	0xbd3eb9a5	-0.046563763
124	0x3d130cf2	0.035901017
125	0xbc56efc3	-0.013118687
126	0xbd87d8c4	-0.06633142
127	0xbcc28719	-0.02374606
128	0xbdcd51df	-0.10025381
129	0xbdc5ffcc	-0.0966793
130	0xbdcd1ac7	-0.10014873
131	0xbded4236	-0.11584894
132	0xbcd42628	-0.0258971
133	0xbd38344f	-0.04497176
134	0xbd8007cb	-0.062514864
135	0xbc561635	-0.013066818
136	0xbba08095	-0.0048981407
137	0xbe59ccd7	-0.21269546
138	0xbd667faf	-0.056274112
139	0xbca2486e	-0.019809928
140	0xbdeb88ca	-0.115007
141	0xbd48cb04	-0.049021736
142	0x3c34e89c	0.0110417865
143	0xbd69be51	-0.057066265
144	0xbdd68cc4	-0.10476068
145	0xbddc5434	-0.10758248
146	0xb9237af6	-0.00015590698
147	0x3bd384b8	0.0064550303
148	0x3cb215b1	0.021738859
149	0x3a9dceed	0.0012039818
150	0x3d972a24	0.073810846
151	0x3db3e679	0.087841935
152	0xbcc25f73	-0.023727154
153	0xbddc3b2f	-0.10753476
154	0xbe0dbb52	-0.13840988
155	0xbd5e1a1a	-0.05422411
156	0x3ddfeeae	0.109341964
157	0x3cb09cef	0.021559207
158	0xbd0fd086	-0.035110973
159	0xbdbe59b7	-0.092944555
160	0xbda91490	-0.08255875
161	0xbd4390be	-0.04774546
162	0xbce2f1d4	-0.027703203
163	0xbcbb850c	-0.02289059
164	0xbd59348a	-0.05302862
165	0xbdf1221e	-0.117740855
166	0xbdb3a629	-0.08771927
167	0x3cf6451e	0.030062255
168	0xbdf26ad6	-0.118367836
169	0xbdb28bb1	-0.0871805
170	0xbccc97ae	-0.02497467
171	0x3d8b7579	0.068095155
172	0x3d49bfd8	0.049255222
173	0xbc200237	-0.009766153
174	0x3ba8f3ae	0.005156002
175	0xbd2db32e	-0.042407207
176	0xbd34b0d2	-0.04411394
177	0xbc9921cc	-0.018692873
178	0x3d1042ef	0.035220083
179	0xbcdd034d	-0.026979113
180	0xbbd28a75	-0.006425197
181	0xbd77b3ec	-0.06047432
182	0xbd0a8851	-0.033821408
183	0x3e04eee5	0.12981756
184	0x3cb76a6d	0.022389615
185	0xbaf54017	-0.0018711117
186	0xbd6c6480	-0.05771303
187	0xbda555f4	-0.08073035
188	0x3c9231c9	0.017846005
189	0xbe9e7c56	-0.30954236
190	0xbe9596ac	-0.29216516
191	0xbe05e0d3	-0.13074045
192	0xbe83db3d	-0.25753203
193	0xbdd1f59c	-0.102519244
194	0x3d670f3e	0.05641102
195	0xbe24e2ef	-0.16102193
196	0x3df8565f	0.12125849
197	0x3df6ee12	0.12057127
198	0x3dcfedf4	0.10152808
199	0x3c99c495	0.018770495
200	0xbe3ce134	-0.18445283
201	0x3cbae47b	0.022814026
202	0xbd92fa4b	-0.07176646
203	0xbe0c4105	-0.13696678
204	0xbd23991c	-0.03994094
205	0xbd199978	-0.037499875
206	0xbc0a61bb	-0.008446152
207	0x3db07659	0.08616323
208	0x3d387e8d	0.045042563
209	0xbe0d408d	-0.13794155
210	0xbc60055a	-0.013673151
211	0xbc5a85cf	-0.0133375665
212	0xbd399996	-0.045312487
213	0xbe08c811	-0.1335757
214	0xbd3ddc91	-0.046352927
215	0x3c9b6c51	0.018972548
216	0x3c861c2e	0.016370859
217	0xbdc71eb8	-0.09722656
218	0xbcd4993a	-0.02595197
219	0xbdaafb40	-0.083487034
220	0xbde71134	-0.11282578
221	0xbcbb0100	-0.022827625
222	0xbe136528	-0.14394057
223	0xbd536fa4	-0.05162014
224	0xbc15879a	-0.009126568
225	0x38b2d5df	8.527538e-05
226	0x3d5aeeef	0.05345052
227	0xbd268f2f	-0.040663894
228	0xbdb05e02	-0.086116806
229	0xbd993d60	-0.074824095
230	0xbdbb97ec	-0.09159836
231	0xbe0f2102	-0.13977435
232	0xbdb57dc0	-0.088618755
233	0xbd5b3fca	-0.05352763
234	0x3ddfda39	0.109302945
235	0x3c6ee5cf	0.014581158
236	0xbc826b6e	-0.015920367
237	0x3d593df2	0.05303759
238	0xbb980572	-0.004639321
239	0x3d75dd1b	0.060025316
240	0x3c15c200	0.0091404915
241	0x3caf6a38	0.021412954
242	0x3dc8cd39	0.09804768
243	0x3ace7d2e	0.0015753859
244	0x3ae278ba	0.0017278411
245	0x3d3a5058	0.045486778
246	0xbdbd1792	-0.09233011
247	0x3c049dd5	0.008094271
248	0x3bc5b5b9	0.006033626
249	0xbd9efa53	-0.07762589
250	0x3a158ba5	0.00057047076
251	0xbcba139b	-0.022714427
252	0xbe76f399	-0.24116363
253	0xbbe9bdda	-0.007133228
254	0x3c2b4df6	0.010455599
255	0xbe1bd06c	-0.15216225

model_1/conv2d_4/BiasAdd_bias_fused_bn f4 [32]
0	0x3f007f8d	0.5019463
1	0x3eb330a8	0.3499806
2	0x3ecd4e27	0.40098688
3	0xbed14767	-0.40874788
4	0x3f639bc2	0.8890954
5	0xbeff0b34	-0.49813235
6	0xbf97a35c	-1.1846728
7	0xbe9fe98d	-0.31232873
8	0x3f6c0f6c	0.9221103
9	0x3f6de96e	0.9293431
10	0xbfa0c69c	-1.2560611
11	0x3f35fac7	0.7108578
12	0x3e813950	0.25239038
13	0x3f2cf912	0.6756755
14	0x3f1cac20	0.6120014
15	0x3f84142c	1.0318656
16	0xbe327c5c	-0.17430252
17	0x3ed69c30	0.41916037
18	0x3e58a4a8	0.21156561
19	0x3eb4dbae	0.35323852
20	0x3e0e3520	0.13887453
21	0xbec4527d	-0.38344184
22	0xbf26cb86	-0.651543
23	0x3e8b081a	0.27154619
24	0x3d61cd78	0.05512759
25	0x3f73fe7d	0.95310193
26	0xbeb62610	-0.35575914
27	0x3fdf1b51	1.7430211
28	0x3e582ebc	0.21111578
29	0xbde267a0	-0.11054921
30	0x3f976a32	1.1829283
31	0xbe0f925c	-0.14020675

model_1/conv2d_3/BiasAdd_weights_fused_bn f4 [16, 16, 3, 3]
0	0xbd317e83	-0.04333354
1	0x3f3765b4	0.7163956
2	0x3f2aa845	0.6666301
3	0xbb9f67e4	-0.0048646796
4	0x3eb35d71	0.35032228
5	0x3ed60e8b	0.4180797
6	0xbca8e5f5	-0.020617465
7	0x3e4998fe	0.19687268
8	0x3ea52e8d	0.32262078
9	0xbdd3ef9b	-0.103484355
10	0xbe12daaf	-0.14341234
11	0x3d709090	0.058731616
12	0xbdfde258	-0.12396687
13	0xbe2d5897	-0.16928326
14	0xbc6b24e0	-0.014352053
15	0xbcd128c4	-0.025532134
16	0xbde2c29e	-0.110722765
17	0xbd200d60	-0.039075255
18	0x3dfd59a2	0.12370612
19	0x3e77f57d	0.2421474
20	0xbe07db39	-0.1326722
21	0xbd36a7b0	-0.044593513
22	0x3e405140	0.18780994
23	0xbb360989	-0.002777668
24	0xbd436c63	-0.047710788
25	0x3e90c168	0.28272557
26	0x3dc74293	0.09729495
27	0x3dee83cd	0.11646233
28	0x3e1cb96e	0.15305111
29	0x3ea5841f	0.32327363
30	0x3df7ea74	0.12105265
31	0x3e728c6d	0.2368638
32	0x3eb12551	0.34598783
33	0x3e5066a4	0.20351654
34	0x3e9b22d7	0.30300018
35	0x3defd89c	0.11711237
36	0x3e0b73eb	0.13618438
37	0xbd425e32	-0.047453113
38	0x3dc66079	0.096863694
39	0x3dae5561	0.085123785
40	0xbdded023	-0.10879543
41	0x3d1a8fb4	0.037734702
42	0x3e7eae35	0.24871142
43	0x3dd4bdcd	0.10387764
44	0xbc57c474	-0.013169397
45	0x3d1c8a55	0.03821786
46	0x3ecb0a20	0.39656162
47	0x3d596f98	0.05308494
48	0xbe0e8354	-0.13917285
49	0x3e569e9b	0.2095894
50	0x3d859309	0.06522185
51	0xbe569c0f	-0.20957969
52	0xbcf0c884	-0.029392488
53	0x3b9d4e25	0.0048005753
54	0x3e725274	0.23664266
55	0x3ded4926	0.115862176
56	0x3e421434	0.1895302
57	0x3eab129c	0.33412635
58	0x3de650a0	0.11245847
59	0x3e3d790c	0.18503207
60	0x3e639dc9	0.22228159
61	0xbd19737f	-0.03746366
62	0x3d7735fb	0.060354214
63	0x3e5b635d	0.21424623
64	0xbbe8ce36	-0.0071046604
65	0xbd8ffa08	-0.070301116
66	0x3c87bdbc	0.016569965
67	0x3d5be6ce	0.05368691
68	0xbb7cba13	-0.0038563057
69	0xbc881734	-0.016612627
70	0xbc252f8c	-0.010082137
71	0xbe4f8a52	-0.20267609
72	0x3ce3e1e0	0.027817667
73	0x3e4cdb8f	0.2000563
74	0x3da71867	0.08158951
75	0xbd8d942c	-0.06913027
76	0x3d1c832f	0.038211044
77	0x3e024e7e	0.12725255
78	0xbe04c3e4	-0.12965351
79	0xbe28f816	-0.16500887
80	0x3cf45452	0.029825363
81	0xbe815e91	-0.2526746
82	0xbe856436	-0.26053017
83	0xbd5ee68d	-0.05441909
84	0xbe93ca75	-0.288654
85	0xbf2287ad	-0.63488275
86	0xbdae862f	-0.08521687
87	0xbe559534	-0.20857698
88	0xbf0929a2	-0.5357915
89	0xbd73b39d	-0.059497464
90	0xbd90504b	-0.07046565
91	0x3e4034b4	0.18770105
92	0x3e313f1d	0.17309232
93	0x3cc45c97	0.023969932
94	0x3dc754ba	0.09732957
95	0x3da5063b	0.08057829
96	0x3e8c3c97	0.27389976
97	0x3e352586	0.17690095
98	0x3d650bea	0.055919565
99	0x3cf977a3	0.030452555
100	0xbe3729d5	-0.17887051
101	0xbda57ec8	-0.08080822
102	0x3d6273d5	0.055286247
103	0xbd0228b7	-0.03177711
104	0xbdb2a8ea	-0.08723624
105	0xbc8b2350	-0.016984612
106	0x3d820909	0.063493796
107	0x3dd76d52	0.10518898
108	0x3dc37d7a	0.09545417
109	0xbe47deac	-0.19518536
110	0x3d78127c	0.060564503
111	0x3e03e776	0.12881264
112	0xbd98c333	-0.07459106
113	0xbc0fb97e	-0.008772252
114	0x3def056d	0.11670957
115	0x3d4bd4d9	0.049763534
116	0x3de49bcf	0.11162531
117	0xbd89a802	-0.06721498
118	0xbda5e610	-0.081005216
119	0x3d77b3cd	0.060474206
120	0xbd8cb836	-0.06871073
121	0xbab5e265	-0.0013876675
122	0x3d916f52	0.07101311
123	0x3c995524	0.018717356
124	0xbc9a1a0d	-0.01881125
125	0x3d3a332f	0.04545897
126	0xbdb5dba5	-0.088797845
127	0x3d11b06d	0.035568643
128	0x3e3652bc	0.17804998
129	0xbd9c9e34	-0.07647362
130	0x3d991c52	0.07476105
131	0x3deb0fc5	0.11477617
132	0xbdb5542d	-0.08853946
133	0xbd5a10e2	-0.053238757
134	0x3d27c22f	0.040956672
135	0xbd13aa4e	-0.036051087
136	0xbc8d1383	-0.017221218
137	0xbc4444ec	-0.011979323
138	0xbde66a30	-0.112507224
139	0xbd6e4af2	-0.058176942
140	0x3dcb9ad2	0.09941639
141	0xbd2a30e5	-0.041550536
142	0xbc8e2e94	-0.017356195
143	0x3d880090	0.06640732
144	0xbe17a4db	-0.14808981
145	0xbe79102e	-0.24322578
146	0xbee62e0c	-0.44957006
147	0xbe680e20	-0.22661638
148	0xbe07247d	-0.13197513
149	0xbed7999c	-0.42109382
150	0x3ee90644	0.45512593
151	0x3eb325c1	0.3498974
152	0xbceb03bd	-0.028688306
153	0x3dd2407b	0.10266205
154	0xbd2f06f2	-0.042731233
155	0x3ae502b4	0.0017472119
156	0x3d43e7bc	0.04782842
157	0xbdc5c0c7	-0.0965591
158	0xbe1b0a27	-0.15140592
159	0xbe2b4908	-0.16727078
160	0xbe29e0cb	-0.16589658
161	0xbe231dda	-0.15929356
162	0xbcf54eda	-0.029944826
163	0xbdbad1e6	-0.09122066
164	0xbe6077ef	-0.21920751
165	0x3e6f996e	0.23398373
166	0xbdb5fc3c	-0.088860005
167	0xbe7ca0dd	-0.2467074
168	0x3e851c2d	0.2599806
169	0x3e5691af	0.20954011
170	0x3d84d2fb	0.06485554
171	0x3e1c136c	0.15241784
172	0x3e14b3a1	0.14521648
173	0x3cce7d52	0.025206242
174	0x3dcc85c2	0.0998645
175	0x3d365f55	0.04452451
176	0xbe480119	-0.19531669
177	0xbe6d8d3a	-0.23198405
178	0xbeb8c4b3	-0.3608757
179	0xbee3e1ee	-0.44508308
180	0x3da4b246	0.080418155
181	0x3c9dba3c	0.019253843
182	0xbd8f9ae9	-0.07011969
183	0x3e222c92	0.15837315
184	0xbab90f68	-0.0014118971
185	0xbea5690a	-0.323067
186	0xbd7dfde3	-0.062009703
187	0xbd905b08	-0.07048613
188	0x3c85baa7	0.016324354
189	0x3da07d54	0.078364044
190	0xbe69d610	-0.22835565
191	0xbe343a22	-0.17600301
192	0xbd6f6b6a	-0.058452047
193	0xbdf41fc8	-0.11920124
194	0xbeb547f0	-0.35406446
195	0xbb7bdec2	-0.0038432335
196	0xbe7fc356	-0.24976858
197	0xbe07c059	-0.13256969
198	0xbd228347	-0.039675977
199	0x3e1f332f	0.15546869
200	0x3ea9dcb8	0.33176208
201	0xbe9ed620	-0.3102274
202	0xbe2b447e	-0.16725346
203	0x3c87fde8	0.016600564
204	0xbe4b474e	-0.1985142
205	0xbcbbc56d	-0.022921288
206	0xbc30feb0	-0.01080291
207	0xbe3f0dc7	-0.186576
208	0xbe9cb189	-0.306042
209	0xbd68fd1e	-0.056882016
210	0xbe7aecd6	-0.24504408
211	0xbe1cacbf	-0.15300272
212	0xbce98ab3	-0.02850852
213	0x3e94a921	0.29035285
214	0x3e578d09	0.21049894
215	0x3d2090b2	0.039200492
216	0x3dea0f5e	0.11428712
217	0x3e0a4e76	0.13506493
218	0x3ea5d584	0.32389462
219	0xbe39fc7c	-0.18162721
220	0xbe4f6ea7	-0.20257054
221	0xbdb475f3	-0.088115595
222	0x3d5a6153	0.05331547
223	0x3e240afa	0.16019812
224	0x3e5080da	0.20361653
225	0x3daa3642	0.0831113
226	0xbc85ef90	-0.016349584
227	0xbd2a2af6	-0.041544877
228	0x3e4cd9fa	0.20005026
229	0x3db6e026	0.08929472
230	0x3c6f465c	0.014604177
231	0xbebac9a0	-0.36481953
232	0xbe86cd07	-0.26328298
233	0xbe4a37d6	-0.19747862
234	0x3e754f21	0.23955967
235	0x3e5e41de	0.21704814
236	0x3e8187ff	0.2529907
237	0x3d9a8543	0.07544949
238	0x3e690ccd	0.2275879
239	0x3dc07cc5	0.09398798
240	0xbdd4339f	-0.103614084
241	0xbe8ea47a	-0.2785986
242	0xbeafd964	-0.34345543
243	0x3d15bca5	0.03655686
244	0x3e152dbf	0.14568232
245	0x3e11053d	0.14162154
246	0x3d18c5d6	0.037298046
247	0xbd0911fb	-0.033464413
248	0xbdf2d719	-0.11857433
249	0xbed7e0cd	-0.42163697
250	0xbf1988a1	-0.59974104
251	0xbe7fc6cd	-0.2497818
252	0xbcc4fa87	-0.024045242
253	0xbe79a330	-0.24378657
254	0xbe728fc5	-0.23687656
255	0xbe2aefa8	-0.16692984

model_1/conv2d_3/BiasAdd_bias_fused_bn f4 [16]
0	0xbf988469	-1.1915408
1	0x3fd40ba6	1.6566055
2	0x3ed4845c	0.41507232
3	0x3f5cb3e8	0.86212015
4	0x3fe63aa8	1.798665
5	0xbd9d8ddc	-0.07693073
6	0x3f3472b0	0.704875
7	0xbec3ee8d	-0.38267937
8	0x3f56eb15	0.83952457
9	0xbf4b9b0c	-0.7953346
10	0xbfc0e8d0	-1.5071049
11	0x3f01ab0c	0.5065162
12	0xbfbdfa02	-1.4841921
13	0x3ddb1e4c	0.10699138
14	0x3e999af1	0.30001023
15	0xbdc00fb6	-0.093779966

model_1/conv2d_2/BiasAdd_weights_fused_bn f4 [16, 8, 3, 3]
0	0xbd924a68	-0.07143098
1	0x3d3c427e	0.04596185
2	0x3d77ea08	0.060525924
3	0xbdf3801c	-0.11889669
4	0x3d1048cc	0.035225675
5	0xbd047eec	-0.032347605
6	0xbd2e03ef	-0.04248422
7	0xba1b3f42	-0.0005922207
8	0xbd13c655	-0.036077816
9	0x3cd10f6a	0.025520045
10	0xbdcd8b48	-0.100363314
11	0xbc2df1f4	-0.010616768
12	0x3c27c125	0.01023892
13	0xbe10b87b	-0.14132874
14	0xbc54bd72	-0.01298462
15	0x3c1f5380	0.009724498
16	0xbda7bbc2	-0.08190109
17	0x3d3873bd	0.04503225
18	0xbd9cacca	-0.076501444
19	0xbe0488f0	-0.12942863
20	0xbda743bd	-0.08167217
21	0x3c0616ca	0.008184144
22	0xbdb28ee9	-0.08718664
23	0xbc84ffa7	-0.016235186
24	0x3dae4bfd	0.08510587
25	0x3cb122af	0.021622984
26	0x3da0f944	0.07860044
27	0x3d256db2	0.040387817
28	0x3b438131	0.0029831643
29	0xbbce97b5	-0.006304706
30	0x3d4b95f8	0.04970357
31	0x3d052093	0.03250177
32	0x3b996d88	0.0046822466
33	0x3da92008	0.082580626
34	0x3de844c3	0.1134124
35	0x3ba0752b	0.00489678
36	0x3c80e014	0.015731849
37	0x3becfde5	0.007232415
38	0xbca77c3c	-0.020444982
39	0x3d6ae6bb	0.057348948
40	0x3d4fe169	0.050752077
41	0xbc0808f8	-0.00830292
42	0x3c7a38f8	0.0152723715
43	0x3d9a7725	0.07542256
44	0x3ba2f86d	0.0049734623
45	0x3d0bf014	0.034164503
46	0xbbe10d06	-0.0068680076
47	0x3d3c99d0	0.046045125
48	0xbb5a28e0	-0.0033288524
49	0xbd49a930	-0.049233615
50	0x3caa177d	0.020763153
51	0xbd1dd003	-0.038528454
52	0xbd0ea487	-0.034824874
53	0x3b476381	0.00304243
54	0xbd3c831e	-0.04602348
55	0xbd1e47fa	-0.03864286
56	0x3da57509	0.08078963
57	0xbcf352f8	-0.029702649
58	0xbc9b9ca3	-0.018995589
59	0x3d486bba	0.04893086
60	0xbb21f3d5	-0.0024711986
61	0xbc96002d	-0.01831063
62	0x3c4a1eac	0.012336414
63	0x3d1d7315	0.03843983
64	0xbd28add0	-0.041181386
65	0x3c525d33	0.012839603
66	0xbc7326fd	-0.0148408385
67	0xbd989281	-0.074498184
68	0xbc8547a6	-0.016269516
69	0x3b15d3b1	0.0022861774
70	0xbcbec8e0	-0.023289144
71	0xbd9b7ab0	-0.0759176
72	0xbe5408a4	-0.20706421
73	0xbdc7aaee	-0.09749399
74	0xbdd7db26	-0.10539846
75	0x3e5579c7	0.20847236
76	0x3d969268	0.073521435
77	0xbd371ebb	-0.04470704
78	0x3e09990c	0.13437289
79	0x3d6bc048	0.05755642
80	0xbd397d8c	-0.045285746
81	0x3dea24dd	0.11432812
82	0x3ca0090d	0.019535566
83	0xbcea211a	-0.028580237
84	0x3e0c5dd2	0.13707665
85	0xbc06256a	-0.008187631
86	0x3dd86c9f	0.10567593
87	0x3d406248	0.04696873
88	0x3d0d4389	0.034488235
89	0x3d908615	0.07056824
90	0x3dcc1ace	0.0996605
91	0xbd4c4f41	-0.04988027
92	0xbd040090	-0.0322271
93	0x3e5a0e3b	0.21294491
94	0xbb4ef0da	-0.0031576664
95	0x3b51f26f	0.003203537
96	0x3d7f157d	0.062276352
97	0x3d9dfb3f	0.07713937
98	0x3c84b71c	0.016200595
99	0xbe3a4da5	-0.18193682
100	0xbc267c27	-0.010161436
101	0xbcd04de4	-0.025427766
102	0xbe020041	-0.1269541
103	0x3cc563fb	0.024095526
104	0x3cdbab7e	0.026815172
105	0x3e458873	0.19290332
106	0x3e405cd2	0.18785408
107	0x3dd16118	0.10223597
108	0xbe143ba8	-0.14475882
109	0xbeb13f77	-0.34618732
110	0xbeb9e7c4	-0.36309636
111	0x3d5e2f95	0.054244597
112	0x3db54301	0.088506706
113	0xba6f3b3a	-0.0009125952
114	0x3e0207c2	0.12698272
115	0x3e1209d1	0.14261557
116	0x3c9ac9bd	0.018895024
117	0x3e115983	0.14194302
118	0x3dc277f4	0.094955355
119	0x3cc9aecb	0.02461948
120	0x3d489946	0.048974298
121	0x3d3cf62b	0.0461332
122	0x3d5d110f	0.053971346
123	0x3ba93774	0.005164081
124	0xbc419813	-0.0118160425
125	0xbc64bfd8	-0.013961755
126	0x3dd61ea2	0.104550615
127	0x3c14d41b	0.009083773
128	0xbdd52519	-0.104074664
129	0x3e173d8e	0.14769575
130	0xbd61e835	-0.05515309
131	0xbd81955c	-0.06327316
132	0x3dd43e02	0.103633896
133	0xbc016d09	-0.007899531
134	0xbd969b5b	-0.073538505
135	0x3d14d0e6	0.036332034
136	0x3cdc1dd5	0.026869694
137	0xbde82eba	-0.113370374
138	0x3e1dd0ff	0.15411757
139	0x3d9966cd	0.07490311
140	0xbd1a2c35	-0.037639815
141	0xbd23dc79	-0.04000518
142	0x3d31d531	0.043416206
143	0xbe16fd52	-0.14745072
144	0x3c8eaec4	0.01741732
145	0xbd7e3020	-0.062057614
146	0xbbfd9777	-0.0077390033
147	0x3d555bf2	0.05208964
148	0xbe26509e	-0.1624169
149	0xbe7e6704	-0.24843985
150	0x3ceea839	0.02913295
151	0x3a39465f	0.0007067676
152	0xbdd0ffdb	-0.102050506
153	0x3bda3527	0.0066591683
154	0x3d7b9e12	0.061430044
155	0x3d2e7005	0.0425873
156	0x3c8b58bb	0.017010083
157	0xbb971857	-0.004611056
158	0x3db4f5a6	0.08835916
159	0xbd836fb7	-0.06417792
160	0xbce359fd	-0.02775287
161	0x3d03454e	0.032048516
162	0xbcce3500	-0.025171757
163	0xbe0e10a7	-0.1387354
164	0xbdf93f3b	-0.121702634
165	0x3d02e6c8	0.03195837
166	0xbc93cdeb	-0.018042525
167	0xbd8ecc26	-0.06972532
168	0x3d93a170	0.07208526
169	0x3dab0918	0.08351344
170	0xbc1110c9	-0.0088541
171	0xbd09e715	-0.033667643
172	0xbce2f6a5	-0.0277055
173	0xbc7aa91c	-0.015299108
174	0x3b4206ea	0.0029606172
175	0xbcc4eea3	-0.024039572
176	0xbc640143	-0.013916316
177	0x3cc7aafe	0.024373528
178	0xbccf93e4	-0.025339074
179	0x3d876312	0.06610693
180	0xbd240f15	-0.040053446
181	0x3cba65fb	0.022753706
182	0x3e1b2772	0.15151766
183	0xbe07f4c6	-0.13276967
184	0xbef37253	-0.4754816
185	0xbd2d929f	-0.042376157
186	0xbbebdf4f	-0.0071982513
187	0xbe4c9135	-0.19977267
188	0xbd77d97b	-0.06051014
189	0x3d3f26c5	0.046667833
190	0x3d4c6699	0.049902532
191	0x3b9c42e0	0.0047687143
192	0x3d059bdd	0.032619346
193	0xba99f3fb	-0.0011745685
194	0x3cbdeff1	0.023185702
195	0x3dcd751e	0.10032104
196	0x3b43723d	0.002982273
197	0xbd1a3a99	-0.03765354
198	0x3d675090	0.056473315
199	0xbda90616	-0.08253114
200	0xbdde1367	-0.108435445
201	0x3db2ae10	0.08724606
202	0xbdbc21ff	-0.09186172
203	0xbe24c84b	-0.1609203
204	0x3de43108	0.111421645
205	0xbdc98d97	-0.09841459
206	0xbe693cd5	-0.22777112
207	0x3db5eea0	0.08883405
208	0x3bb218d5	0.005435089
209	0x377909df	1.4843855e-05
210	0xbc8af8cf	-0.016964344
211	0x3d13b94e	0.036065392
212	0x3d97f4dd	0.07419751
213	0xbe2a7fd1	-0.1665032
214	0xbd9c24ed	-0.076242305
215	0x3d86f06f	0.06588828
216	0xbe7b2335	-0.24525149
217	0xbe1bcf4e	-0.15215799
218	0x3cd119e2	0.025525037
219	0xbea862ac	-0.3288778
220	0xbe251ed8	-0.16125047
221	0xbdf8592e	-0.12126385
222	0xbe4e6817	-0.20156895
223	0xbe0e7b2e	-0.13914177
224	0xbe0b0bd5	-0.13578732
225	0xbd7d26d4	-0.061804608
226	0xbde53063	-0.1119087
227	0x3dc66f49	0.09689195
228	0xbdeb6be2	-0.114951864
229	0xbdaed591	-0.08536828
230	0x3de47fd3	0.11157193
231	0x3db111af	0.08645951
232	0x3cf81d8d	0.030287528
233	0x3da8f35b	0.08249541
234	0xbdaa4c85	-0.08315376
235	0x3db7e7e0	0.089797735
236	0x3d9be763	0.07612493
237	0x3d40ef48	0.047103196
238	0xbcbdd60f	-0.02317336
239	0xbd6425e3	-0.055700194
240	0xbcd9b0bf	-0.026573537
241	0xbd8c3a22	-0.068470255
242	0xbd546019	-0.05184946
243	0xbeb19fd0	-0.3469224
244	0xbdab92e7	-0.08377629
245	0xbd9af427	-0.075660996
246	0xbe0d0ff4	-0.13775617
247	0x3e05ca17	0.13065372
248	0x3ad67534	0.0016361834
249	0xbe3351f0	-0.17511725
250	0x3c61d5d2	0.013783889
251	0xbc3d087e	-0.011537669
252	0xbcccbfc6	-0.024993788
253	0xbe5089fc	-0.20365137
254	0x3dd04ee1	0.10171295
255	0xbda7c872	-0.08192529

model_1/conv2d_2/BiasAdd_bias_fused_bn f4 [16]
0	0x3d17d858	0.037071556
1	0xbfbbe3b6	-1.4678867
2	0x3f1f4b3a	0.6222416
3	0x3ee1aa08	0.44075036
4	0x3f5a6790	0.85314274
5	0xbde8b74c	-0.11363086
6	0x3fcbb65f	1.591503
7	0x3fd67ba6	1.6756485
8	0x3f804c1d	1.0023228
9	0x3f6a06b0	0.91416454
10	0xbf905513	-1.1275963
11	0x3fbf4812	1.4943869
12	0x3ec21496	0.3790633
13	0xbdf5cff0	-0.120025516
14	0xbec7e76e	-0.39043754
15	0xbf02e3c8	-0.51128817

model_1/conv2d_1/BiasAdd_weights_fused_bn f4 [8, 1, 3, 3]
0	0x3c703a43	0.014662328
1	0x3b52105f	0.0032053215
2	0xbb46bc1d	-0.0030324527
3	0x3af26645	0.0018493613
4	0xbc83b7f3	-0.016078925
5	0xba847a7b	-0.0010107303
6	0xbba17160	-0.0049268454
7	0x3a06b63a	0.0005138848
8	0x3b645c3b	0.0034845013
9	0xbbb5c06a	-0.005546619
10	0xbc418883	-0.011812332
11	0xbc00fb11	-0.007872359
12	0x3bc1616f	0.0059015076
13	0x3a9d117c	0.001198336
14	0xbc0cefa7	-0.008602059
15	0x3c441d81	0.011969925
16	0x3c24a85c	0.010049906
17	0x3bf36e9c	0.007428957
18	0x3b4d1f2e	0.0031299102
19	0x3bc9f04a	0.006162678
20	0xbb7b0922	-0.0038305004
21	0x3b1db5cb	0.0024064656
22	0x3bd101b8	0.0063783787
23	0xbb389a5b	-0.0028168175
24	0x3b5cedae	0.0033711004
25	0x3b8df4af	0.004332147
26	0x3a02b2a6	0.0004985727
27	0x3c392af1	0.011301742
28	0x3aad11b4	0.0013204128
29	0xbc28823c	-0.010284957
30	0x3c4f1d7c	0.012641307
31	0xbb771b43	-0.0037705458
32	0xbc3c4ed7	-0.011493406
33	0x3bffc710	0.0078057125
34	0xbb122f5b	-0.0022306058
35	0xbbbff630	-0.0058582053
36	0xbacf48d4	-0.0015814551
37	0xbb3173f1	-0.0027077163
38	0x3c6e7f11	0.014556662
39	0xbc36ceed	-0.011157733
40	0xbba98c94	-0.005174229
41	0x3c6200f4	0.013794173
42	0xbbb0e78a	-0.0053986954
43	0xbc527495	-0.012845178
44	0x3c0a575b	0.008443679
45	0x391faf88	0.00015228812
46	0xbc60ca7b	-0.01372015
47	0xbb72c345	-0.003704266
48	0x3a740d1d	0.00093098154
49	0xbbfeded7	-0.0077780294
50	0xbb3c59ac	-0.0028739972
51	0x3c14badc	0.009077754
52	0x3c1996f9	0.009374374
53	0x3be8d20d	0.007105118
54	0xbc481ec1	-0.012214364
55	0xbc204a34	-0.009783316
56	0x3b1583d1	0.0022814164
57	0xbc3642b9	-0.011124306
58	0x3a8da6dc	0.0010807174
59	0x3c563af1	0.013075576
60	0x3b527490	0.0032112934
61	0x3c1a8e94	0.009433407
62	0x3be84e51	0.007089414
63	0x38d0a42d	9.948793e-05
64	0xbb035384	-0.0020038793
65	0x3aeaea46	0.0017922602
66	0xbacf5bf6	-0.0015820253
67	0xbc4379df	-0.011930912
68	0xbb9c59b6	-0.0047714366
69	0x3aae60c8	0.001330399
70	0xbaf6c91c	-0.0018828246
71	0xb940b8fb	-0.00018379457

model_1/conv2d_1/BiasAdd_bias_fused_bn f4 [8]
0	0xbe2a6cb4	-0.1664303
1	0xbe88fa9a	-0.26753694
2	0xc00f2084	-2.2363596
3	0xbc7a8d3e	-0.015292464
4	0x3f07115a	0.5276085
5	0x3f50eb4a	0.8160902
6	0xbe4701a0	-0.19434214
7	0x4023aa35	2.5572636
