Config/NeuralNets/RobotDetector/4_anchor_boxes_model_no_activation_20230629-220730.onnx (onnx, 42766 bytes, 59 tensors)

model/feature_3_8_10/separable_conv2d/ReadVariableOp_1:0 f4 [24, 24, 1, 1]
0	0xbdcd1de5	-0.100154676
1	0x3e039bc7	0.12852393
2	0xbea7bce7	-0.3276131
3	0x3e3beb10	0.18351388
4	0xbefc2af7	-0.4925153
5	0xbd270816	-0.040779196
6	0x3e277a96	0.16355357
7	0xbea43351	-0.320704
8	0xbe479e6e	-0.1949403
9	0xbdd5578a	-0.104170874
10	0xbdae2cf3	-0.08504667
11	0xbd59a037	-0.05313131
12	0x3d2a8bcd	0.04163723
13	0x3d85d20b	0.06534203
14	0x3e13b36b	0.14423911
15	0xbcc907b1	-0.0245398
16	0xbd4bb57c	-0.049733624
17	0xbdcad567	-0.099039845
18	0x3cea998b	0.028637668
19	0x3e2a71b3	0.16644935
20	0x3e03965d	0.12850328
21	0xbd419f08	-0.047270805
22	0xbdbfc907	-0.09364515
23	0xbd7357b2	-0.059409805
24	0xbea45b0f	-0.32100722
25	0x3ea0f889	0.31439617
26	0x3d7d65a9	0.06186453
27	0xbe3bfe64	-0.18358761
28	0x3dfc45d2	0.12318005
29	0x3de53e05	0.1119347
30	0x3e1df9fb	0.15427391
31	0xbf32bdd2	-0.6982089
32	0xbdfd272a	-0.123609856
33	0x3e386450	0.18007016
34	0xbe38bb2c	-0.1804015
35	0xbd16bab8	-0.036799163
36	0x3f2bbb94	0.67083097
37	0xbd3ec8b9	-0.046578143
38	0xbf87aec3	-1.0600208
39	0x3e33237c	0.17494005
40	0xbe14c490	-0.14528108
41	0xbdeaa8a3	-0.11457946
42	0xbda936df	-0.08262419
43	0x3e2434f9	0.16035832
44	0xbe051d23	-0.12999396
45	0xbe37aa18	-0.1793598
46	0xbf5cc9b5	-0.8624528
47	0xbdecad84	-0.11556533
48	0xbdb7083a	-0.08937116
49	0xbcd36834	-0.025806524
50	0x3eb370f6	0.3504712
51	0x3dd32900	0.103105545
52	0xbf21ee33	-0.6325409
53	0x3e7da1a7	0.24768697
54	0x3db0c42a	0.08631165
55	0xbe1d84d0	-0.15382695
56	0xbe143785	-0.14474304
57	0xbd008890	-0.031380236
58	0x3c882fa1	0.016624274
59	0x3efab05b	0.48962674
60	0x3ee15c3f	0.4401569
61	0xbe95a8c7	-0.2923033
62	0xbbcce05c	-0.0062523317
63	0x3e15b524	0.14619881
64	0x3e556a2e	0.20841286
65	0x3e3fc37d	0.18726917
66	0x3ed73f3a	0.42040426
67	0x3e0971d6	0.13422331
68	0x3d9664c7	0.073434405
69	0xbd728d20	-0.05921662
70	0xbee5b319	-0.44863203
71	0x3c5a5165	0.01332507
72	0xbd4a5ad4	-0.049403027
73	0xbe3cfb78	-0.18455303
74	0x3dcc5ea9	0.099789925
75	0x3dc28fd3	0.095000885
76	0xbe1a0614	-0.15041381
77	0xbe7407e8	-0.23831141
78	0x3d0c014a	0.034180917
79	0xbe87b8b6	-0.2650811
80	0x3caa73bb	0.020807138
81	0x3bcb5d9b	0.006206227
82	0xbe7a8eae	-0.2446849
83	0x3e14ada1	0.14519359
84	0xbde2931d	-0.11063216
85	0x3da34e85	0.07973961
86	0xbdfde990	-0.12398064
87	0x3d1251f1	0.035722677
88	0xbeae1e83	-0.34007654
89	0x3e15f9aa	0.1464602
90	0x3df1f57e	0.11814402
91	0x3e4f1eb6	0.20226559
92	0xbda74207	-0.081668906
93	0xbf06f3e6	-0.5271591
94	0xbf55f125	-0.8357108
95	0xbd7aa965	-0.061196703
96	0x3e034418	0.12818944
97	0xbf1b5653	-0.60678595
98	0xbe8b58be	-0.27216142
99	0x3ddc64cc	0.10761413
100	0x3eb81db0	0.3596015
101	0x3e2c2eaa	0.16814676
102	0x3eb23526	0.34806174
103	0xbf2a97c8	-0.6663785
104	0x3d796187	0.060884025
105	0x3ba90878	0.0051584803
106	0xbe79fe97	-0.24413525
107	0x3ea84bba	0.32870275
108	0xbd09dfd6	-0.033660732
109	0xbdc5bbaf	-0.096549384
110	0xbda5b5ba	-0.08091302
111	0x3e860ebe	0.26183122
112	0x3dccfb2f	0.10008847
113	0x3f1f729e	0.62284267
114	0xbe899304	-0.26869977
115	0xbf1770fa	-0.59156764
116	0xbeebeaaa	-0.46077472
117	0x3d9d18ca	0.07670744
118	0x3f175cd7	0.5912604
119	0xbf0b84d6	-0.54499567
120	0x3e78d2ac	0.24299115
121	0x3d74b1d2	0.059739895
122	0xbe564fc8	-0.20928872
123	0x3f15b4ea	0.5847918
124	0x3e8b6d3a	0.2723177
125	0x3dfe9cda	0.12432261
126	0x3eb5464a	0.3540519
127	0xbf6e0544	-0.92976785
128	0xbd67b41d	-0.056568254
129	0x3eca0412	0.3945623
130	0xbe357186	-0.17719087
131	0x3e89e4c5	0.2693235
132	0xbebec2ac	-0.37257898
133	0xbcb5ab4e	-0.022176411
134	0xbc4269d6	-0.011866054
135	0x3ef14d0c	0.47129095
136	0xbc0dde3b	-0.008658941
137	0xbe7986fb	-0.24367897
138	0x3e9e306d	0.3089632
139	0xbd18dddb	-0.037320953
140	0x3e4ff5e2	0.2030864
141	0xbe006cde	-0.1254153
142	0xbf4b279a	-0.793573
143	0x3e4b58c1	0.19858076
144	0xbd2dbf18	-0.04241857
145	0xbec074a2	-0.37588984
146	0x3e0702d6	0.13184676
147	0x3ea40a3b	0.32039055
148	0x3d04d7be	0.03243231
149	0x3eed9aee	0.46407264
150	0x3e9f3b49	0.31099918
151	0xbcc42ce8	-0.023947194
152	0x3d8d0a1c	0.06886694
153	0x3c72c73c	0.014818009
154	0xbec28dd5	-0.37998834
155	0x3d9db69c	0.077008456
156	0x3ed521c2	0.41627318
157	0xbe26bb9e	-0.16282508
158	0xbd8ab156	-0.067721054
159	0xbe157b96	-0.14597926
160	0xbe96ac0f	-0.29428145
161	0xbe8a66bf	-0.27031514
162	0xbdfa4990	-0.12221062
163	0x3bc99ab2	0.0061524743
164	0xbce70574	-0.028200842
165	0xbd2f2e41	-0.04276872
166	0xbdd55792	-0.10417093
167	0x3dab47f8	0.08363336
168	0x3c2d041f	0.010560065
169	0xbf2b4338	-0.6689944
170	0x3c537098	0.012905262
171	0x3e3ac788	0.18240178
172	0x3d84dbe8	0.06487256
173	0xbd5a2f7f	-0.053267952
174	0x3f198291	0.59964854
175	0xbf9941e0	-1.1973228
176	0x3ecf34b2	0.4046989
177	0xbea35764	-0.3190261
178	0x3d61620d	0.05502515
179	0x3e4fb842	0.20285133
180	0xbe3b0b60	-0.18266058
181	0xbeba685c	-0.36407745
182	0x3e0e1c96	0.13878092
183	0xbd0d7105	-0.034531612
184	0xbe36a24c	-0.17835349
185	0x3e6c37f8	0.23068225
186	0x3e02e5ea	0.12783018
187	0xbf2707ae	-0.65246093
188	0x3eaee6f2	0.34160572
189	0xbe865315	-0.26235262
190	0x3e26071f	0.16213654
191	0xbe274335	-0.16334231
192	0xbe163583	-0.1466885
193	0x3d279f07	0.040923145
194	0xbea3bfc7	-0.31982252
195	0x3e5c1c1e	0.21495101
196	0xbe4e94ac	-0.20173901
197	0x3d8ec12b	0.069704376
198	0x3ee9e39c	0.45681465
199	0xbeef59aa	-0.46748096
200	0xbe277f48	-0.16357148
201	0x3e56320b	0.20917527
202	0x3f6a238b	0.91460484
203	0x3b5c2cfe	0.0033596153
204	0x3e9b5a22	0.30342203
205	0xbecc3bc1	-0.3988934
206	0x3d8cb6ef	0.06870829
207	0xbe43b4f0	-0.19111991
208	0xbc287521	-0.010281832
209	0xbddae0fe	-0.10687445
210	0xbda00d23	-0.07815006
211	0xbd1f454c	-0.038884446
212	0xbe034205	-0.12818153
213	0xbd2d5f67	-0.04232731
214	0xbec0b7fe	-0.37640375
215	0xbefd8a91	-0.4951978
216	0xbda352d8	-0.079747856
217	0x3d41ad03	0.047284137
218	0xbef4e95a	-0.47834283
219	0xbec70ddf	-0.3887777
220	0x3d76f35e	0.060290687
221	0xbd9599d3	-0.0730473
222	0x3daa50d1	0.08316196
223	0xbdedc8f9	-0.11610598
224	0x3dd74abe	0.10512303
225	0x3d593948	0.053033143
226	0xbe448781	-0.19192316
227	0xbbfbbd9c	-0.0076825153
228	0xbd08b90b	-0.033379596
229	0xbe849235	-0.25892797
230	0xbf1c9d15	-0.6117719
231	0x3ed42efd	0.414421
232	0xbe147ca8	-0.14500678
233	0xbe8d2f59	-0.27575186
234	0x3ea3ccb6	0.3199212
235	0x3e544ed1	0.20733191
236	0x3eccbfd7	0.39990112
237	0xbf08aa76	-0.533851
238	0x3e09d403	0.13459782
239	0xbdf754c9	-0.12076718
240	0x3ee4801f	0.44629
241	0xbf135ae4	-0.57560563
242	0xbf0e2aee	-0.55534256
243	0x3e7b549e	0.24543998
244	0x3ddcc9e6	0.107806966
245	0xbe72d923	-0.23715644
246	0x3eca71de	0.3954
247	0xbdbf2cd9	-0.09334726
248	0x3e0c84ca	0.1372253
249	0xbe9ec9f0	-0.3101344
250	0x3da86827	0.082229905
251	0x3d70cb51	0.058787648
252	0xbdff56de	-0.124677405
253	0xbe8ba0e4	-0.27271187
254	0x3e81e226	0.2536785
255	0x3f1bf466	0.609198

model/feature_3_8_10/BiasAdd/ReadVariableOp:0 f4 [24]
0	0x3ea73b4a	0.3266242
1	0xbcdacc19	-0.02670865
2	0x3d6f3c19	0.058406923
3	0x3d560be9	0.052257452
4	0x3e104ac9	0.14091028
5	0xbeb29b14	-0.3488394
6	0x3d1d1e41	0.03835893
7	0xbb9096bb	-0.0044124997
8	0x3ef7f6e7	0.4843056
9	0x3f2b3612	0.6687938
10	0x3e0c2f08	0.13689816
11	0x3e08c41f	0.13356064
12	0xbcbb3a55	-0.022854963
13	0xbe52a262	-0.20569757
14	0x3ee2fc1e	0.44332975
15	0x3e4c563a	0.19954768
16	0xbf533ce2	-0.82514775
17	0x3ea5a2e5	0.3235084
18	0x3e896f46	0.26842707
19	0x3e591cc6	0.21202382
20	0x3e6596b8	0.22420776
21	0x3eaa8df9	0.33311442
22	0x3c79941e	0.015233068
23	0xbccec7d2	-0.025241766

model/feature_2_8_10/separable_conv2d/ReadVariableOp_1:0 f4 [24, 24, 1, 1]
0	0x3e3eb5e8	0.18624079
1	0xbe3d0c7c	-0.18461794
2	0xbe7587c4	-0.23977572
3	0x3d8b89d1	0.06813396
4	0xbeb79123	-0.35852918
5	0x3e192ab5	0.14957698
6	0x3eb4ca2b	0.35310492
7	0xbe199bc4	-0.15000826
8	0xbe8475eb	-0.25871214
9	0xbea51d2d	-0.32248822
10	0xbd9165b6	-0.07099478
11	0x3e6c3e1a	0.23070565
12	0xbf065d09	-0.5248571
13	0x3cf2ade5	0.029623935
14	0x3d819cb3	0.06328716
15	0xbaddabe0	-0.0016912185
16	0x3e6b1295	0.22956307
17	0x3e59ffbc	0.21288961
18	0x3f0dabd5	0.5534032
19	0x3eba370c	0.36370122
20	0xbf688e0f	-0.90841764
21	0x3e48732a	0.19575182
22	0xbf045f55	-0.51707965
23	0x3ce3a86e	0.027790274
24	0xbdbba7bd	-0.09162853
25	0x3d984c94	0.07436481
26	0x3e5a790e	0.21335241
27	0xbe8facff	-0.28061673
28	0xbe4052d9	-0.18781604
29	0x3e89be1a	0.26902848
30	0x3e94eefa	0.29088575
31	0x3e04b2bf	0.12958811
32	0x3eabf2dc	0.33583724
33	0x3e266385	0.16248901
34	0x3eaa8088	0.33301187
35	0x3e6ea4d7	0.23305069
36	0x3f0baed5	0.5456365
37	0xbe79bd45	-0.24388607
38	0x3d52ab8d	0.051433135
39	0x3e74f5a1	0.23921825
40	0xbecb7de7	-0.39744493
41	0xbc91d1f6	-0.017800312
42	0xbf71999a	-0.94375
43	0x3e7648f5	0.24051268
44	0x3d494aa6	0.049143456
45	0xbd8289f3	-0.06373968
46	0xbe44427f	-0.19165991
47	0xbc9a0d08	-0.018805042
48	0x3d3e3565	0.04643764
49	0xbe9a2931	-0.30109552
50	0xbe51e3d5	-0.20497067
51	0xbc30af41	-0.010783971
52	0x3e23fc51	0.1601422
53	0x3dc1890e	0.09449969
54	0xbed81191	-0.42200902
55	0x399eab4a	0.0003026373
56	0xbefdab55	-0.49544778
57	0xbf8450b1	-1.0337125
58	0x3ee416a5	0.44548526
59	0xbeb5003f	-0.3535175
60	0xbec3018a	-0.38087112
61	0xbe9fd5b3	-0.31217727
62	0xbdcda3f1	-0.10041035
63	0xbe18f295	-0.14936288
64	0x3ec08578	0.3760183
65	0xbdf08d36	-0.11745684
66	0xbf1904cc	-0.59772944
67	0x3ec5bb42	0.3861943
68	0x3e1c277e	0.1524944
69	0x3d6d2730	0.0578987
70	0xbe6e92db	-0.23298208
71	0x3e9f24ac	0.31082666
72	0xbeb29658	-0.34880328
73	0x3eea863d	0.4580554
74	0xbe538ef7	-0.20660006
75	0x3e9325fd	0.2873992
76	0xbec935e1	-0.3929892
77	0xbf064446	-0.52447927
78	0xbe892551	-0.26786283
79	0x3df2188d	0.11821089
80	0x3e53d983	0.20688443
81	0x3deb5047	0.11489921
82	0xbd8321dc	-0.064029425
83	0x3ee48e6d	0.44639912
84	0x3e9ff7ee	0.31243843
85	0x3dc29a66	0.095021054
86	0x3d01a6c1	0.03165317
87	0xbf171766	-0.5902008
88	0xbe83b4a3	-0.25723752
89	0x3eb88d7d	0.36045447
90	0xbd03c013	-0.032165598
91	0x3dae5ec0	0.08514166
92	0xbe03d2c9	-0.12873377
93	0xbe740876	-0.23831353
94	0x3d6b6009	0.057464633
95	0xbf0640a3	-0.5244238
96	0xbe8fd398	-0.2809112
97	0x3f1b9a0f	0.6078195
98	0xbd937c16	-0.07201402
99	0xbebed69d	-0.37273112
100	0x3e3d8ae4	0.18510014
101	0x3f07a842	0.52991116
102	0x3eb78220	0.35841465
103	0x3ebc3c96	0.36764973
104	0x3dacc308	0.08435637
105	0xbec4f847	-0.3847067
106	0xbed77788	-0.42083383
107	0x3ef6d71a	0.48210984
108	0x3d70b58c	0.058766887
109	0xbeea4256	-0.45753735
110	0x3de6215a	0.1123683
111	0xbe7443b3	-0.2385395
112	0xbeba353b	-0.36368737
113	0x3ee3ec4c	0.44516218
114	0xbdd1820b	-0.10229882
115	0xbeadc68f	-0.3394055
116	0x3e92f821	0.28704932
117	0x3e21d8e6	0.15805396
118	0xbd826c24	-0.063682824
119	0x3f3c82e1	0.73637205
120	0x3ec3d639	0.38249376
121	0x3ee732ee	0.45156044
122	0x3e877f3f	0.2646427
123	0xbc4621ea	-0.012093047
124	0x3d91bf22	0.07116534
125	0xbeb211a9	-0.347791
126	0xbe0c1b79	-0.13682355
127	0x3ccc5f19	0.02494769
128	0x3e263f91	0.16235186
129	0x3e5cc68e	0.21560118
130	0x3ebdff69	0.37108925
131	0xbbcd3bcb	-0.0062632314
132	0xbf31c3b6	-0.69439256
133	0xbf6d2c64	-0.9264586
134	0x3db26024	0.087097436
135	0x3edf387f	0.4359779
136	0xbee45c7a	-0.44601804
137	0xbe542653	-0.20717745
138	0x3e2410eb	0.16022079
139	0x3e90c449	0.28274754
140	0xbf263291	-0.6492091
141	0x3e0e7ab0	0.13913989
142	0xbe848fb8	-0.258909
143	0xbdd5afd1	-0.10433925
144	0xbd94d6cc	-0.07267532
145	0xbe822c13	-0.2542425
146	0xbcb77ddc	-0.022398882
147	0x3d33c1dc	0.04388605
148	0x3ce3cbfe	0.027807232
149	0xbec86990	-0.39143038
150	0xbe050026	-0.12988338
151	0x3f039e63	0.51413554
152	0xbf0586fe	-0.52159107
153	0x3df231a9	0.11825878
154	0x3ea6e599	0.32597044
155	0x3e970a03	0.29499826
156	0xbe4697b2	-0.19393805
157	0xbea4b270	-0.32167387
158	0x3d927fa9	0.071532555
159	0x3e8f9d27	0.28049585
160	0x3e1a84b5	0.15089686
161	0x3dda3080	0.10653782
162	0x3e25ee2e	0.1620414
163	0xbb2005ae	-0.0024417448
164	0xbcb43e67	-0.022002412
165	0x3e491507	0.19636928
166	0x3f0c1643	0.5472147
167	0x3dc7f3df	0.097633116
168	0x3cc4dc7d	0.024030918
169	0x3e5e3d88	0.2170316
170	0xbe77e6f7	-0.242092
171	0xbd04b8a9	-0.03240267
172	0xbde20541	-0.11036158
173	0xbe4630c7	-0.19354545
174	0xbe384e8e	-0.17998716
175	0x3e158eee	0.14605305
176	0xbd70c947	-0.058785703
177	0x3e8b2ebc	0.27184093
178	0x3ea7270c	0.32646978
179	0x3cc208be	0.02368581
180	0xbe79362b	-0.2433707
181	0xbdbffa7e	-0.093739495
182	0x3e8848ba	0.26617986
183	0xbd22d8ee	-0.03975766
184	0x3e0067a7	0.1253954
185	0x3cde351a	0.02712493
186	0x3f1aaff7	0.6042475
187	0xbe0cc771	-0.13747956
188	0xbd571fc4	-0.05252053
189	0xbe208f4a	-0.1567966
190	0xbde8ce11	-0.11367429
191	0x3d4b1b79	0.049586747
192	0x3ec6c7a3	0.38824186
193	0xbd5559e6	-0.052087687
194	0xbef7ebe9	-0.48422173
195	0x3e692563	0.22768168
196	0xbe53411d	-0.20630307
197	0xbee2691b	-0.44220814
198	0x3e172ff0	0.1476438
199	0xbe19bfa6	-0.15014514
200	0xbc8298ce	-0.015942004
201	0x3e683ec6	0.22680196
202	0xbf94cf19	-1.1625701
203	0xbd027f41	-0.03185964
204	0xbe8643d7	-0.26223633
205	0x3ee324a6	0.44363898
206	0x3e8e591e	0.27802366
207	0x3f05ff71	0.523429
208	0xbd9433ec	-0.07236466
209	0x3b3a77f4	0.0028452845
210	0x3f231136	0.63698137
211	0x3e962a99	0.29329374
212	0xbe9545a1	-0.29154685
213	0x3f2dd32c	0.6790035
214	0x3e9827ce	0.2971787
215	0x3e491c69	0.19639744
216	0x3da226b0	0.07917535
217	0x3f0a5396	0.5403379
218	0x3da75421	0.08170343
219	0x3ead3062	0.33825976
220	0xbdaad5e2	-0.08341576
221	0xbf1cab9a	-0.61199343
222	0xbe7ed433	-0.24885635
223	0x3e8fd2a9	0.28090408
224	0xbf45d10d	-0.7727211
225	0x3e91f32b	0.28505835
226	0xbe1cc55b	-0.1530966
227	0x3bde996a	0.0067931907
228	0x3e37397e	0.17893025
229	0x3dcd7416	0.10031907
230	0x3e489476	0.19587883
231	0x3d81cf6f	0.06338393
232	0x3defd009	0.117096014
233	0x3eb05697	0.34441063
234	0xbe1f7606	-0.15572366
235	0x3e9ba24a	0.30397254
236	0x3e05c665	0.13063963
237	0xbe97c954	-0.2964579
238	0x3efd7a2e	0.49507278
239	0xbdadd651	-0.08488143
240	0xbefe5bd7	-0.49679443
241	0x3e9c3280	0.30507278
242	0x3f1e5cf4	0.61860585
243	0x3e96d2fb	0.2945784
244	0x3eba1160	0.3634138
245	0x3d7b7b9e	0.061397187
246	0x3ea73451	0.32657102
247	0x3e3e7c2f	0.1860206
248	0xbee99b3f	-0.45626256
249	0x3ed6e281	0.41969684
250	0x3d8e1877	0.0693826
251	0x3f085992	0.53261673
252	0x3e628b06	0.22123346
253	0x3f5dbadc	0.8661325
254	0x3cd975d4	0.026545443
255	0xbde4f0fe	-0.11178778

model/feature_2_8_10/BiasAdd/ReadVariableOp:0 f4 [24]
0	0x3eca5e66	0.39525145
1	0x3e7f9e22	0.24962667
2	0x3e97f9b5	0.296827
3	0x3ee891ea	0.45423824
4	0x3dd07769	0.10179026
5	0xbd1fc6d5	-0.03900798
6	0x3e0e48b2	0.13894919
7	0x3eeef1fb	0.4666899
8	0xbed14550	-0.40873194
9	0x3f07464e	0.5284165
10	0x3e6bbed1	0.2302201
11	0x3edc04f9	0.42972544
12	0x3eca63fd	0.3952941
13	0x3e9db82c	0.30804574
14	0x3d8bb9a8	0.068225205
15	0x3dc0ef72	0.094206706
16	0xbe1635a9	-0.14668907
17	0x3e1784b0	0.1479671
18	0x3e28b259	0.16474284
19	0x3c4c156a	0.012456277
20	0x3ed3e7c2	0.41387755
21	0x3eca8b47	0.39559385
22	0xbe122837	-0.14273153
23	0x3f1462dc	0.5796335

model/feature_2_60_80/separable_conv2d/ReadVariableOp_1:0 f4 [20, 16, 1, 1]
0	0x3ee00126	0.43750876
1	0x3e3f2a83	0.1866856
2	0x3e895fb1	0.2683082
3	0x3d2ae517	0.041722383
4	0xbd204b1f	-0.03913414
5	0x3ed0ab33	0.40755615
6	0xbc35f804	-0.011106495
7	0xbef22a5f	-0.47297952
8	0xbe24f26c	-0.16108102
9	0xbc0853aa	-0.008320728
10	0xbe216927	-0.15762769
11	0xbe1887e5	-0.1489559
12	0xbef5eecc	-0.4803375
13	0xbeea271a	-0.45732957
14	0xbf4cdfe2	-0.8002912
15	0x3ce43a10	0.027859718
16	0x3f1523c3	0.58257693
17	0xbe77c3cf	-0.24195789
18	0x3c0b58ba	0.008505041
19	0xbea3755c	-0.31925476
20	0xbf554f16	-0.833238
21	0xbf42ef4e	-0.761464
22	0xbf1baca5	-0.6081031
23	0x3c1e0f6e	0.009647233
24	0x3ddbe3de	0.107368216
25	0x3dc5f4a2	0.09665801
26	0x3e7550e6	0.23956642
27	0xbddae233	-0.10687675
28	0x3e40240e	0.18763754
29	0x3d373fcd	0.04473858
30	0xbe539208	-0.20661175
31	0xbec8706d	-0.39148274
32	0x3f56af1f	0.83860964
33	0x3c611dbf	0.013740002
34	0xbeb871ea	-0.3602441
35	0x3d0afe82	0.033934124
36	0x3e032220	0.12805986
37	0x3daba8f5	0.08381835
38	0x3f090cde	0.5353526
39	0xbe4ce1e7	-0.2000805
40	0xbee19981	-0.44062427
41	0xbe8ed3d1	-0.27895978
42	0x3ea7e06a	0.32788402
43	0x3dd8108e	0.105500326
44	0x3eb52bef	0.3538508
45	0xbe17f27b	-0.14838593
46	0xbec90672	-0.3926273
47	0xbe2f742c	-0.1713416
48	0xbea8fb5e	-0.33004278
49	0xbf0a534c	-0.5403335
50	0x3bf04b87	0.0073332223
51	0xbd49eaa8	-0.04929605
52	0xbf443451	-0.7664233
53	0x3dc91d4d	0.09820042
54	0x3eb543df	0.35403344
55	0xbbf82456	-0.007572691
56	0x3e9cad1f	0.3060083
57	0xbee0ff33	-0.43944702
58	0xbf3d4ad8	-0.7394233
59	0xbefdf1c1	-0.49598506
60	0x3e132995	0.14371331
61	0xbe5067f4	-0.20352155
62	0x3e150423	0.1455236
63	0x3f7138bd	0.942272
64	0xbe62dce8	-0.22154582
65	0x3f0a8bd8	0.54119635
66	0x3eefb6c1	0.46819118
67	0xbe2ca1ae	-0.16858551
68	0xbd3003d2	-0.042972393
69	0x3e4f477c	0.20242113
70	0x3e4a3045	0.19744976
71	0x3eca14ea	0.3946908
72	0xbd5b00d2	-0.05346758
73	0xbf56500c	-0.8371589
74	0xb8f9a7f0	-0.00011904526
75	0x3e9827d2	0.2971788
76	0xbedf04df	-0.43558404
77	0x3e129dd2	0.14318016
78	0xbe97d3a8	-0.29653668
79	0x3e05492d	0.13016196
80	0x3e1aa319	0.1510128
81	0xbe2ae4a8	-0.16688788
82	0xbe5355a4	-0.20638138
83	0x3bc740bf	0.0060807164
84	0xbbe7fe53	-0.0070798784
85	0x3f176bde	0.5914897
86	0x3e233ecd	0.15941925
87	0xbe907eb6	-0.28221673
88	0x3f7152a3	0.9426672
89	0x3e9dba6d	0.30806294
90	0xbe888a46	-0.26667994
91	0xbe8c27fa	-0.2737425
92	0xbe4097fb	-0.18807976
93	0xbe84c152	-0.25928742
94	0x3f9b80b4	1.2148652
95	0x3e8478bb	0.2587336
96	0x3f278fbc	0.65453696
97	0x3d05544c	0.032551095
98	0x3eda5221	0.42640784
99	0xbeee6842	-0.46563917
100	0xbe4d7283	-0.20063214
101	0xbe3c80ce	-0.1840851
102	0xbdbafcad	-0.09130225
103	0xbe8be2d1	-0.27321485
104	0x3e8482d0	0.25881052
105	0xbd40cc07	-0.047069576
106	0x3dd28550	0.102793336
107	0x3f317ff6	0.6933588
108	0xbe63e16f	-0.22253965
109	0xbe870db7	-0.2637765
110	0xbe6c5a4f	-0.23081325
111	0xbe5742fc	-0.21021646
112	0x3f1089c5	0.5646022
113	0xbecd5adc	-0.40108383
114	0x3e14db69	0.14536823
115	0x3df278c9	0.11839444
116	0x3daf1b3d	0.08550117
117	0x3ebeffb6	0.37304467
118	0xbe4396c7	-0.19100486
119	0x3ea4a4e5	0.32157055
120	0x3efa61d6	0.48902768
121	0x3f0499c0	0.51797104
122	0x3e29cfe2	0.16583207
123	0xbeb88ca9	-0.36044815
124	0x3f01b606	0.5066837
125	0xbe74107e	-0.23834416
126	0x3e32dfdc	0.17468208
127	0x3d92f180	0.07174969
128	0xbe223b07	-0.1584283
129	0x3d338823	0.043831002
130	0xbf385b7b	-0.7201459
131	0xbe8af30b	-0.27138552
132	0x3f1eb2ea	0.6199175
133	0x3d8b4cc9	0.06801755
134	0xbf7a8944	-0.978657
135	0xbf1aa318	-0.6040511
136	0xbe0ac9ac	-0.13553494
137	0xbd48a5c9	-0.04898623
138	0xbbc1a52f	-0.005909584
139	0x3f255d42	0.64595425
140	0x3dcf1fe5	0.10113505
141	0xbdd4f554	-0.10398355
142	0xbdbc81c2	-0.09204437
143	0x3f1a745d	0.60333806
144	0x3ecd2cef	0.40073344
145	0xbeec216b	-0.46119246
146	0x3e03085c	0.12796158
147	0xbef3db03	-0.4762803
148	0x3ea9f215	0.33192506
149	0xbe3596d6	-0.1773332
150	0xbbd24bc3	-0.006417723
151	0x3df57c20	0.119865656
152	0xbe8523d3	-0.26003894
153	0xbd8dfb16	-0.069326565
154	0xbfae810f	-1.3633136
155	0xbe0e8114	-0.13916427
156	0x3edf19f1	0.4357448
157	0x3edb9ef9	0.42894724
158	0xbd7d6ea7	-0.061873104
159	0x3dad5fc5	0.08465532
160	0xbb733d99	-0.0037115572
161	0x3ea4bbaf	0.3217444
162	0x3eccb9f3	0.39985618
163	0xbe6b1b82	-0.22959712
164	0xbe3d9fa7	-0.18517934
165	0xbe3637e8	-0.17794764
166	0xbef5f5ce	-0.48039097
167	0x3f2b98df	0.6703014
168	0xbe68b191	-0.22723986
169	0x3f7320f1	0.9497214
170	0xbd47953e	-0.048726313
171	0x3eb3bef6	0.3510663
172	0xbe925956	-0.28583783
173	0xbe19e179	-0.15027417
174	0xbd32e1c1	-0.043672327
175	0xbe5a5f41	-0.21325399
176	0xbde7838f	-0.1130439
177	0xbeaa8365	-0.3330337
178	0xbec8e7ad	-0.39239255
179	0xbf23b4ef	-0.6394796
180	0x3ea80577	0.3281667
181	0xbe561d94	-0.2090972
182	0x3ef37945	0.4755346
183	0x3ee0455d	0.4380292
184	0x3ef1272c	0.47100198
185	0xbd4aa549	-0.049474034
186	0x3eec4ca2	0.46152216
187	0x3e3e3191	0.18573596
188	0x3cef72ed	0.029229606
189	0x3eaab831	0.33343652
190	0x3eb022ab	0.3440145
191	0x3e97b777	0.2963216
192	0x3d7d9bb6	0.061916076
193	0x3d2bc7ac	0.04193847
194	0x3eef4856	0.46734875
195	0x3e80408c	0.25049245
196	0x3ef0f1da	0.47059518
197	0x3ebdfe45	0.37108055
198	0xbec8e4ae	-0.3923697
199	0x3ed2bbdc	0.4115895
200	0xbf263e84	-0.6493914
201	0x3de614c9	0.11234433
202	0x3e011346	0.12605008
203	0xbf14f526	-0.58186567
204	0xbef74aac	-0.48299158
205	0xbe319f3f	-0.17345904
206	0x3d9c6a32	0.07637443
207	0xbdb4a02d	-0.088196136
208	0x3e016213	0.12635069
209	0xbf323d70	-0.69624996
210	0xbec23a00	-0.37934875
211	0x3dd254e4	0.10270098
212	0xbed0b667	-0.40764162
213	0xbe9a6686	-0.30156344
214	0x3efbddf4	0.49192774
215	0xbf1c555a	-0.61067736
216	0x3f5b2532	0.8560363
217	0x3e006442	0.12538245
218	0xbd990687	-0.07471948
219	0x3f024ee3	0.5090162
220	0x3c1d830b	0.009613763
221	0xbf1e9e79	-0.6196056
222	0x3e0eb59e	0.13936469
223	0x3eb00c04	0.34384167
224	0x3d6a37eb	0.057182234
225	0xbb0001c1	-0.0019532295
226	0xbdce6723	-0.100782655
227	0xbe842dcd	-0.25816193
228	0x3f11c210	0.5693674
229	0x3eee5754	0.46551
230	0x3de3faf7	0.11131852
231	0xbf069a3d	-0.525791
232	0x3ea48cd2	0.32138687
233	0xbe948aca	-0.29012138
234	0xbeb8eaa3	-0.36116514
235	0x3d037d25	0.03210177
236	0xbf1dd056	-0.6164602
237	0xbe73c6a0	-0.23806238
238	0x3db8cfe3	0.09024026
239	0xbd8dda42	-0.06926395
240	0x3e145e97	0.14489208
241	0x3f7a82bf	0.9785575
242	0xbe6f3a58	-0.233621
243	0xbf0a7bba	-0.5409504
244	0x3f126b16	0.5719465
245	0xbef34901	-0.47516635
246	0xbf28c0e3	-0.6591932
247	0xbe820eb7	-0.25401852
248	0x3e242b95	0.1603225
249	0x3da1e6d4	0.07905355
250	0xbd34eab9	-0.04416916
251	0xbe7ef6f7	-0.24898897
252	0xbf4431a3	-0.7663824
253	0x3e330f66	0.17486343
254	0xbef08480	-0.4697609
255	0xbe44716a	-0.19183889

model/feature_2_60_80/BiasAdd/ReadVariableOp:0 f4 [20]
0	0xbef221ee	-0.4729151
1	0xbcf0ee6e	-0.029410567
2	0xbd801f46	-0.06255965
3	0xbdff0f96	-0.12454145
4	0x3e8219a0	0.25410175
5	0xbd127882	-0.035759456
6	0x3e384db9	0.17998399
7	0xbe9cb8ba	-0.30609685
8	0x3fa9c1f5	1.3262316
9	0x3d9bab15	0.07600991
10	0x3e076ef1	0.13225915
11	0x3ddb45f6	0.10706703
12	0x3ec55116	0.38538426
13	0xbeb4dea9	-0.35326126
14	0xbeb494d0	-0.35269785
15	0xbf145b63	-0.57951945
16	0x3e23bd0a	0.15990081
17	0x3df9d277	0.12198346
18	0x3df29bce	0.11846124
19	0xbef01cae	-0.4689688

model/feature_2_30_40/separable_conv2d/ReadVariableOp_1:0 f4 [24, 20, 1, 1]
0	0x3e0fe08c	0.14050502
1	0xbdf2220b	-0.118228994
2	0xbda4a113	-0.08038535
3	0xbe0096ec	-0.12557572
4	0xbc8462f5	-0.016160468
5	0xbdceeb9a	-0.10103531
6	0xbf0d76ec	-0.55259585
7	0x3f379630	0.7171354
8	0x3efc63e5	0.49294963
9	0x3e642b17	0.22282062
10	0x3e8155ef	0.25260875
11	0xbb8d97aa	-0.0043210583
12	0xbebbf263	-0.36708364
13	0xbecd1d98	-0.4006164
14	0xbe9d6896	-0.30743855
15	0x3ec0df93	0.37670574
16	0xbec2152a	-0.37906772
17	0x3e903c1e	0.28170866
18	0xbd8e6a23	-0.06953838
19	0x3f0489d1	0.5177279
20	0xbd887965	-0.06663779
21	0x3df4224e	0.119206056
22	0x3ea87c6a	0.3290742
23	0x3f510632	0.8165008
24	0xbe0f151d	-0.13972898
25	0xbde81102	-0.11331369
26	0xbe207777	-0.15670572
27	0xbc780a9a	-0.015139246
28	0x3e5f1440	0.21785069
29	0xbe85f78c	-0.26165426
30	0xbd80c3d7	-0.062873535
31	0xbe8c63f0	-0.27419996
32	0xbe1657bf	-0.1468191
33	0x3df25369	0.118323155
34	0x3dc82310	0.09772313
35	0xbede2880	-0.43390274
36	0x3f15e158	0.5854697
37	0x3e1e1b7a	0.15440169
38	0x3d80f66c	0.06297001
39	0xbf4aede9	-0.7926927
40	0x3f173f86	0.59081304
41	0xbd55297d	-0.05204152
42	0x3e9179f2	0.2841335
43	0xbd67bc5e	-0.056576125
44	0xbe7f412b	-0.24927203
45	0x3e271a9b	0.16318743
46	0x3ee00048	0.43750215
47	0x3d9cf834	0.076645285
48	0x3e2d96f1	0.16952111
49	0x3e10894a	0.14114872
50	0x3ee8f72d	0.4550108
51	0x3e9861f7	0.2976224
52	0x3dda4908	0.10658461
53	0x3ea127df	0.31475732
54	0x3e70e658	0.23525369
55	0x3e8337a0	0.25628376
56	0x3f6804fb	0.906326
57	0xbe0ca010	-0.13732934
58	0xbe93ad02	-0.28842932
59	0xbeb94ef0	-0.36193037
60	0xbea17c05	-0.31539932
61	0x3e7e4982	0.24832729
62	0x3ec15791	0.3776212
63	0xbde04487	-0.109505706
64	0xbe8ea7e6	-0.2786247
65	0xbd2510e6	-0.04029932
66	0x3ddcfd2d	0.10790477
67	0xbe2accd5	-0.166797
68	0x3f076fa0	0.529047
69	0xbec53e16	-0.3852393
70	0xbe60b859	-0.21945323
71	0x3ed4aa24	0.41536057
72	0xbed27227	-0.41102716
73	0x3f0100a0	0.5039158
74	0xbef6ccbf	-0.48203084
75	0xbebcba63	-0.36860952
76	0x3e592958	0.21207178
77	0xbe9f5e91	-0.31126836
78	0x3eb18e83	0.3467904
79	0x3e86a000	0.26293945
80	0x3d321aaa	0.04348246
81	0xbe82b18b	-0.2552608
82	0xbddd976b	-0.10819896
83	0x3e8da039	0.27661303
84	0x3e65951e	0.22420165
85	0xbe7cd86e	-0.24691936
86	0x3eff6ed6	0.4988925
87	0xbeebe7dd	-0.46075335
88	0x3e0ba0a2	0.13635495
89	0x3e6fdc59	0.234239
90	0x3f1ccb9d	0.6124819
91	0xbe961c32	-0.29318386
92	0x3eaadce8	0.33371663
93	0xbe378d83	-0.17925076
94	0xbd295f4f	-0.04135066
95	0x3e664113	0.22485761
96	0x3eb2a0d8	0.3488834
97	0x3ee32972	0.44367558
98	0x3e8fee6c	0.2811159
99	0x3eddcf35	0.4332215
100	0xbeca8004	-0.39550793
101	0xbd6d62c7	-0.05795553
102	0xbdcf6a52	-0.10127701
103	0xbed6ff65	-0.41991726
104	0x3e6f6fd6	0.23382506
105	0xbf274567	-0.65340275
106	0xbee8279d	-0.45342723
107	0x3e7ddc1c	0.24790996
108	0x3ef9f578	0.4882009
109	0x3c18b28e	0.0093199145
110	0x3e3324b7	0.17494474
111	0x3f084c83	0.5324175
112	0x3d32b339	0.04362795
113	0xbd80e46a	-0.062935665
114	0x3e89616c	0.2683214
115	0xbf13f71d	-0.5779894
116	0x3b361057	0.0027780735
117	0xbec700bd	-0.3886775
118	0xbdb6cafd	-0.08925436
119	0x3eedcb23	0.46444044
120	0xbea5f1a1	-0.3241091
121	0x3e936e69	0.28795174
122	0x3ea88200	0.32911682
123	0xbea9fe5c	-0.33201873
124	0xbe6053b7	-0.21906935
125	0x3edec922	0.43512827
126	0xbe488bc4	-0.19584566
127	0xbc06fb4d	-0.008238626
128	0xbc8bd671	-0.017070027
129	0xbe84b1be	-0.25916857
130	0xbe822c56	-0.2542445
131	0x3e5f04fe	0.21779248
132	0x3ea20ab5	0.31648794
133	0x3dcb82a3	0.09937026
134	0x3ef487cf	0.47759864
135	0x3e33fba0	0.17576456
136	0xbe3153be	-0.17317101
137	0x3f0ed486	0.55793035
138	0xbee26d81	-0.4422417
139	0x3d24f376	0.040271245
140	0x3d7f43b4	0.062320426
141	0xbe9eef75	-0.31042066
142	0xbf064d2a	-0.52461493
143	0xbe9e5165	-0.30921474
144	0x3dfe88e1	0.12428451
145	0x3ef88cf4	0.4854504
146	0xbec0bb8d	-0.3764309
147	0xbe26070a	-0.16213623
148	0xbe01c2b0	-0.12671924
149	0x3e0d2ac2	0.13785842
150	0x3d669648	0.056295663
151	0xbf0b20b3	-0.5434677
152	0xbc8e48ae	-0.01736864
153	0xbe6eb383	-0.23310666
154	0xbe8db791	-0.27679113
155	0xbddb3e2a	-0.10705216
156	0xbdaffcc7	-0.08593135
157	0xbe627771	-0.22115876
158	0xbec182c5	-0.37795082
159	0x3e939fa1	0.28832725
160	0xbf160dc8	-0.5861478
161	0xbe29cec5	-0.16582783
162	0xbec39cef	-0.38205668
163	0x3f286b88	0.6578908
164	0xbed8497e	-0.4224357
165	0x3e673576	0.22578987
166	0xbcbd94ae	-0.023142185
167	0xbde8e19e	-0.11371158
168	0x3e820bc5	0.25399604
169	0xbde67a46	-0.112537906
170	0x3dd5126b	0.104039036
171	0x3d77f0b6	0.060532294
172	0xbd41f7c0	-0.047355413
173	0x3ec1d7d4	0.37859976
174	0x3e093b7a	0.13401595
175	0x3ece7995	0.40327135
176	0xbf3bdd86	-0.7338489
177	0x3ed09881	0.4074135
178	0xbea689ab	-0.32526907
179	0x3ee7d4e1	0.452796
180	0x3cb76bb8	0.022390231
181	0xbedc9e78	-0.43089652
182	0x3ee5f404	0.44912732
183	0x3e2c4126	0.16821727
184	0xbeed672a	-0.4636777
185	0xbf1c8a87	-0.61148876
186	0x3dac613e	0.08416985
187	0xbe77bae2	-0.24192384
188	0x3d2ee7ac	0.04270141
189	0xbbce5a70	-0.006297402
190	0xbed33367	-0.41250154
191	0xbd5ac538	-0.05341074
192	0xbef8e527	-0.4861233
193	0xbe6a472e	-0.22878715
194	0xbe4975af	-0.19673799
195	0xbeee3fd8	-0.46533084
196	0x3edff751	0.43743375
197	0xbf1f1a57	-0.62149566
198	0x3e2c480f	0.16824363
199	0x3cd55495	0.026041308
200	0xbf08f4c9	-0.5349851
201	0xbe4bed50	-0.19914746
202	0x3b5df3be	0.0033867205
203	0xbdb15fa1	-0.08660818
204	0xbeeaf7b6	-0.45892113
205	0x3e7bfabf	0.24607371
206	0xbf808030	-1.003912
207	0xbf062301	-0.5239716
208	0x3dbbc00b	0.09167489
209	0x3daa7f18	0.083250225
210	0xbdd6f2ce	-0.1049553
211	0xbf049e96	-0.5180448
212	0x3e88344e	0.26602405
213	0x3ec2cbda	0.3804615
214	0xbc5ca7f9	-0.013467782
215	0x3e6ac627	0.22927152
216	0xbef3647c	-0.475376
217	0x3eba4a66	0.36384887
218	0xbca4923d	-0.020089263
219	0x3e23e0f2	0.16003779
220	0x3e3ad58b	0.18245523
221	0x3ea30be3	0.31845006
222	0xbed83997	-0.42231438
223	0xbd811ca9	-0.063042946
224	0xbe662c9c	-0.22477955
225	0xbd4145cd	-0.047185708
226	0xbe9d8dab	-0.30772147
227	0xbec1fb4c	-0.37887037
228	0x3eb4d8fe	0.35321802
229	0xbe5933c8	-0.21211159
230	0x3ea9c6d5	0.3315951
231	0xbdb2725b	-0.08713218
232	0xbe259776	-0.16171059
233	0xbdd793cd	-0.10526238
234	0x3f562eab	0.8366496
235	0xbf13397d	-0.57509595
236	0xbf2ad4e2	-0.66731083
237	0x3d620f8b	0.055190604
238	0x3da986b9	0.082776494
239	0xbeaf4dc1	-0.3423901
240	0x3d24bfdc	0.040222034
241	0xbbd84908	-0.006600503
242	0x3f1e1cd1	0.6176272
243	0x3e66452c	0.22487324
244	0xbebe7d5f	-0.37205026
245	0xbd4777fd	-0.048698414
246	0x3e28883d	0.16458221
247	0x3e60adf7	0.21941362
248	0x3d14ecf1	0.036358777
249	0x3da01f0d	0.078184225
250	0xbdb8d04c	-0.090241045
251	0x3e0c5171	0.13702942
252	0x3eee267e	0.46513742
253	0x3ede66c6	0.43437785
254	0xbeda6cf8	-0.42661262
255	0xbed651e2	-0.41859347

model/feature_2_30_40/BiasAdd/ReadVariableOp:0 f4 [24]
0	0xbe5a4a2f	-0.21317361
1	0x3ef031cc	0.46912992
2	0x3f481404	0.7815554
3	0x3f2232f3	0.6335899
4	0xbec3f0fc	-0.38269794
5	0x3eb11984	0.3458978
6	0x3ef84707	0.4849169
7	0x3f859834	1.0437074
8	0x3dea6528	0.11445075
9	0x3cdd3f61	0.02700776
10	0xbdefa83c	-0.1170201
11	0x3e01ce7d	0.12676425
12	0x3e9d1df3	0.30686912
13	0x3fb3a887	1.4035805
14	0xbd6cf733	-0.057852935
15	0xbe5c61be	-0.2152166
16	0x3e9b4ccc	0.3033203
17	0x3d29b7ca	0.04143504
18	0x3d34001d	0.04394542
19	0x3e2f7970	0.17136168
20	0x3ecd99b9	0.40156344
21	0x3e5b3e35	0.21410449
22	0x3d5d49e8	0.05402556
23	0x3f1a54a3	0.60285395

model/feature_2_16_20/separable_conv2d/ReadVariableOp_1:0 f4 [24, 24, 1, 1]
0	0xbd98b37d	-0.0745611
1	0xbef44f3f	-0.4771671
2	0xbe3344fa	-0.17506781
3	0x3e2608f2	0.1621435
4	0x3cc20b80	0.023687124
5	0xbe833964	-0.25629723
6	0x3e260a96	0.16214976
7	0x3f04aca5	0.51825935
8	0x3d00ca2b	0.031442802
9	0xbeb2320d	-0.3480381
10	0x3e4da370	0.20081878
11	0x3e07cc00	0.13261414
12	0x3d836032	0.06414832
13	0xbe1acbec	-0.15116853
14	0xbf4065f9	-0.751556
15	0xbe9bc482	-0.3042336
16	0xbf3064de	-0.6890391
17	0x3db7278e	0.08943091
18	0x3e43143c	0.19050688
19	0xbcf9770d	-0.030452276
20	0x3f09ca10	0.5382395
21	0x3eeb36c9	0.45940235
22	0xbea864b1	-0.3288932
23	0xbd0d3d7f	-0.034482475
24	0xbf579d30	-0.84224224
25	0xbed0b6ca	-0.40764457
26	0xbe6431ef	-0.22284673
27	0xbe6872d8	-0.2270006
28	0x3cf6749a	0.030084897
29	0xbf3de4d0	-0.74177265
30	0x3dc92a09	0.09822471
31	0x3f0b3b83	0.5438768
32	0x3f2175d3	0.6307041
33	0xbea1d918	-0.31610942
34	0x3ecf516f	0.40491816
35	0xbe503d5f	-0.20335911
36	0xbd34b7b6	-0.044120513
37	0x3dbaa82e	0.09114109
38	0xbec42810	-0.38311815
39	0xbeed80f6	-0.46387452
40	0xbe2a902e	-0.16656563
41	0x3e21da90	0.15806031
42	0x3e05ed46	0.13078794
43	0x3e2a20ba	0.16614047
44	0x3e2657da	0.1624445
45	0x3d44bc0b	0.048030894
46	0xbdcd8014	-0.100341946
47	0xbe5e2659	-0.21694316
48	0xbb7ee20e	-0.0038892063
49	0x3f110c65	0.5665954
50	0xbf0631d0	-0.5241976
51	0x3e38ddc9	0.18053354
52	0xbb750406	-0.0037386431
53	0x3e4118cc	0.18857116
54	0xbe29267f	-0.16518591
55	0xbe9e0f83	-0.3087121
56	0xbf333982	-0.70009625
57	0xbd8e34be	-0.069436535
58	0xbe16b6d4	-0.14718181
59	0xbe3cc3cf	-0.1843407
60	0x3f300802	0.6876222
61	0x3e5e7522	0.2172437
62	0x3e1e5960	0.15463781
63	0x3dff182f	0.124557845
64	0xbe06874b	-0.13137548
65	0xbec8ad7f	-0.39194867
66	0xbf093cc1	-0.5360833
67	0x3e2b6ed8	0.16741502
68	0xbef2434b	-0.47316965
69	0x3e877a14	0.26460326
70	0x3e853800	0.26019287
71	0x3f27ce24	0.6554892
72	0xbebec95d	-0.37263003
73	0x3dac43d4	0.08411375
74	0x3cf18d39	0.029486286
75	0xbdfcf944	-0.12352231
76	0x3dddb513	0.10825553
77	0xbef2bf3e	-0.4741153
78	0xbe9fb1f1	-0.31190446
79	0x3e34dc04	0.17662054
80	0xbcb68057	-0.022277994
81	0x3f4e4ca7	0.8058571
82	0x3df93d98	0.12169951
83	0x3ebc53a8	0.36782575
84	0x3dfccbf3	0.12343588
85	0x3b1523fe	0.0022757049
86	0xbd100f8b	-0.035171073
87	0x3ecab8b1	0.39594033
88	0x3dca25cd	0.09870491
89	0x3c881f22	0.016616408
90	0x3f63bafa	0.8895718
91	0xbef7f0d4	-0.48425925
92	0x3d5dbefc	0.054137215
93	0x3d659fae	0.056060486
94	0x3f132f74	0.5749428
95	0x3e8bc64f	0.27299735
96	0x3e41cd8b	0.18926065
97	0x3ee6542d	0.44986096
98	0xbf9e39d0	-1.2361393
99	0x3da96cbe	0.08272694
100	0x3e28f125	0.1649824
101	0xbe227aa8	-0.15867102
102	0x3f3419f8	0.70352125
103	0xbe3b739c	-0.1830582
104	0xbe455496	-0.19270548
105	0x3db253b1	0.08707369
106	0x3e1717c9	0.14755167
107	0x3cc5f206	0.024163257
108	0xbf518b2e	-0.81852996
109	0x3ed7feb1	0.42186502
110	0xbe90ddcb	-0.28294215
111	0x3eea9418	0.45816112
112	0xbe9da697	-0.3079116
113	0x3e6ef8be	0.23337075
114	0xbe0a55f5	-0.13509353
115	0xbe40a3c8	-0.18812478
116	0xbdea881c	-0.11451742
117	0xbe90c42b	-0.28274664
118	0x3e705c5b	0.23472731
119	0x3ee753b5	0.4518105
120	0x3db36538	0.0875954
121	0xbeb8df22	-0.36107737
122	0xbe71e447	-0.23622237
123	0xbeb27441	-0.3485432
124	0xbe526251	-0.20545317
125	0xbea0f583	-0.3143731
126	0xbecd1f39	-0.40062883
127	0x3bc6f133	0.0060712337
128	0x3eb3454d	0.3501381
129	0x3e9734d1	0.29532483
130	0xbcd37f59	-0.02581756
131	0x3e09ad33	0.13444977
132	0x3e8411b4	0.25794756
133	0xbec0fc1d	-0.37692347
134	0x3db24a47	0.087055735
135	0xbe8e7234	-0.27821505
136	0xbe8daab6	-0.27669305
137	0xbcb44601	-0.022006037
138	0x3f063249	0.5242048
139	0x3f082848	0.53186464
140	0x3de70d34	0.11281815
141	0x3f335b5a	0.70061266
142	0xbe5cb616	-0.21553835
143	0xbec4d677	-0.38444874
144	0xbdb13df9	-0.086543985
145	0x3eb0092b	0.34381995
146	0x3e9e7f94	0.3095671
147	0x3db7c2e0	0.08972716
148	0xbe80a08c	-0.25122488
149	0xbe50dc8f	-0.20396636
150	0x3ec2ea77	0.38069507
151	0x3e80966f	0.25114772
152	0x3de0a055	0.10968081
153	0xbe9ecd67	-0.31016085
154	0xbf20904f	-0.627202
155	0xbec0f2b6	-0.37685174
156	0xbf006185	-0.50148803
157	0x3f2c33aa	0.67266333
158	0xbde7fcb8	-0.11327499
159	0x3f37e914	0.71840024
160	0xbd9f9240	-0.07791567
161	0x3e879550	0.26481104
162	0x3c13799f	0.009001165
163	0xbe857af4	-0.26070368
164	0x3e6023ca	0.21888652
165	0x3e21fc07	0.15818797
166	0x3ebe6717	0.37188026
167	0x3dacf082	0.08444311
168	0xbc6434af	-0.013928576
169	0x3a8a1786	0.0010535575
170	0x3c1c736c	0.009549003
171	0x3e89c743	0.26909837
172	0x3f2a56ae	0.6653851
173	0xbe581024	-0.21099907
174	0xbec0cbe9	-0.3765557
175	0xbe539f80	-0.20666313
176	0xbdb1c9c8	-0.08681065
177	0x3edbd6c0	0.4293728
178	0x3c2b5044	0.010456149
179	0xbc32cb3b	-0.010912712
180	0xbecf5766	-0.40496367
181	0x3e2462f6	0.16053376
182	0x3ec70db7	0.3887765
183	0x3cab9ffa	0.020950306
184	0x3eb6a0f1	0.35669664
185	0xbf301ded	-0.68795663
186	0x3d566730	0.0523445
187	0x3e89bea6	0.26903266
188	0xbecbfa2c	-0.39839303
189	0x3e170a30	0.1474998
190	0x3ecc02fb	0.39846024
191	0xbea335f3	-0.31877097
192	0xbf268625	-0.6504844
193	0x3d25c971	0.040475313
194	0xbe2baea1	-0.16765834
195	0xbe28bc15	-0.16477998
196	0x3d55a089	0.05215505
197	0x3d8be3d3	0.068305634
198	0xbe576d0c	-0.21037692
199	0x3e5ad97a	0.21372023
200	0x3e68262f	0.22670816
201	0xbe222889	-0.15835775
202	0xbefdcd33	-0.49570617
203	0x3dd199d2	0.10234417
204	0xbea54922	-0.32282358
205	0xbe1c28ae	-0.15249893
206	0xbe287265	-0.16449888
207	0xbec1b01e	-0.3782968
208	0x3e5b418f	0.21411727
209	0xbe90a57f	-0.28251263
210	0xbe82ddec	-0.25559938
211	0xbece3cb7	-0.40280697
212	0x3f1e25fc	0.6177671
213	0xbebc60de	-0.36792654
214	0x3df691ed	0.12039552
215	0xbedf23a3	-0.43581876
216	0x3da4d58e	0.08048545
217	0x3e489c71	0.19590928
218	0xbdcd62b0	-0.10028589
219	0x3e4419e9	0.19150509
220	0x3e19158a	0.14949623
221	0xbe0b3835	-0.1359566
222	0xbe70c1e4	-0.23511463
223	0xbc546e32	-0.012965726
224	0x3f3b32f3	0.7312462
225	0xbed12a24	-0.40852463
226	0xbf52f487	-0.8240437
227	0xbd8cfcde	-0.06884168
228	0xbe1a3cec	-0.15062302
229	0xbe251eae	-0.16124985
230	0xbe07cda4	-0.1326204
231	0x3ec7be27	0.39012262
232	0xbe257535	-0.16157992
233	0x3f354221	0.7080403
234	0x3eda24f5	0.4260632
235	0xbe82b85b	-0.25531277
236	0xbedc085d	-0.4297513
237	0x3db3d99a	0.087817386
238	0x3dffa837	0.12483256
239	0x3d1b0057	0.03784212
240	0xbe2c7f52	-0.16845444
241	0x3d8e0258	0.06934041
242	0xbe79db22	-0.24399999
243	0xbd79f8f5	-0.06102844
244	0x3eed50c8	0.46350694
245	0x3efa2f4f	0.4886422
246	0xbede4292	-0.43410164
247	0xbe48e31b	-0.19617884
248	0xbdcc7b20	-0.09984422
249	0xbe41f74d	-0.18941994
250	0xbf1e4798	-0.61827993
251	0x3d6fea07	0.058572795
252	0x3e045866	0.12924346
253	0xbd84a791	-0.06477273
254	0x3f29ee7b	0.6637952
255	0xbefcca5c	-0.49373138

model/feature_2_16_20/BiasAdd/ReadVariableOp:0 f4 [24]
0	0x3f431f4f	0.7621965
1	0xbe94a7bd	-0.29034224
2	0x3b0b9428	0.0021298025
3	0x3f8e64ed	1.112455
4	0xbdc55055	-0.09634463
5	0xbe055a9d	-0.13022847
6	0x3f200a58	0.62515783
7	0x3fbdb019	1.4819366
8	0x3e2ebee0	0.17065
9	0x3ec91bd7	0.39279053
10	0x3ff61ceb	1.9227575
11	0xbd992c8a	-0.07479198
12	0xbe49fb24	-0.19724709
13	0xbe51d5e0	-0.20491743
14	0xbcac2253	-0.02101246
15	0xbe55b07a	-0.20868102
16	0x3e84b7ee	0.25921577
17	0x3c6937ca	0.014234493
18	0x3dbfb78e	0.09361182
19	0xbd08b6ce	-0.03337746
20	0x3e9ac9da	0.30232126
21	0xbd35ccce	-0.04438477
22	0x3ecefd38	0.40427566
23	0xbde1ead3	-0.11031117

model/feature_1_8_10/separable_conv2d/ReadVariableOp_1:0 f4 [24, 24, 1, 1]
0	0xbf3c079d	-0.73449117
1	0xbd52dce3	-0.051480185
2	0xbbde8200	-0.0067903996
3	0x3e76842f	0.24073862
4	0x3e2cafc4	0.16863924
5	0x3ead5ce6	0.33859938
6	0x3ed62b3a	0.41829854
7	0xbdac692c	-0.084184974
8	0xbd5a13aa	-0.05324141
9	0xbee6de4c	-0.45091474
10	0x3eb17d5f	0.34665963
11	0x3e9876ae	0.29778045
12	0xbe5153ce	-0.20442125
13	0x3d80f700	0.062971115
14	0x3e4928a9	0.19644417
15	0x3e6df94a	0.23239627
16	0xbe857391	-0.26064733
17	0x3f1771e7	0.59158176
18	0x3e64ce17	0.22344242
19	0x3e342256	0.17591223
20	0xbe705f0e	-0.2347376
21	0xbe1d0a82	-0.1533604
22	0xbeb74507	-0.3579485
23	0x3ee81f97	0.453366
24	0x3da85498	0.0821926
25	0x3ea9c594	0.33158553
26	0xbe5014fd	-0.20320506
27	0x3e4c1e69	0.19933476
28	0x3d306dc8	0.043073446
29	0xbe3373a3	-0.1752458
30	0x3ef31f7c	0.47484958
31	0xb9da480c	-0.0004163388
32	0xbf01e4ab	-0.50739545
33	0x3e76be60	0.2409606
34	0xbf02ec44	-0.5114176
35	0xbdcb3e80	-0.0992403
36	0xbcc57949	-0.024105685
37	0x3f368b97	0.7130675
38	0xbe4e62dc	-0.201549
39	0x3efe757e	0.49699014
40	0xbdb62628	-0.088939965
41	0x3eadf1a2	0.33973414
42	0x3ec63d8d	0.38718835
43	0x3ec46ac9	0.3836272
44	0x3e511f17	0.20422016
45	0x3e05ffbc	0.13085836
46	0x3d184290	0.037172854
47	0xbe06bc5a	-0.13157788
48	0xbecbcc4c	-0.39804304
49	0x3ee2c841	0.44293407
50	0xbf05d839	-0.52283055
51	0x3ec4502e	0.38342422
52	0x3e70f883	0.235323
53	0x3d4625ad	0.048375774
54	0x3ed15c81	0.40890887
55	0xbdd3f120	-0.10348725
56	0xbd6de97e	-0.058084004
57	0xbebff693	-0.3749281
58	0xbecf3839	-0.40472582
59	0x3e0da700	0.13833237
60	0xbf3273dd	-0.69708043
61	0xbecb1afe	-0.3966903
62	0x3ea75c6a	0.32687694
63	0x3ed7c3cb	0.42141566
64	0x3e3bcc51	0.1833966
65	0xbde11194	-0.10989681
66	0xbe204820	-0.15652514
67	0x3f034286	0.5127338
68	0xbef31920	-0.47480106
69	0xbece78dd	-0.40326586
70	0xbea36622	-0.3191386
71	0xbd173ed3	-0.03692515
72	0xbe3a11a1	-0.18170787
73	0xbdf5a4a1	-0.11994291
74	0xbdde788c	-0.10862836
75	0x3e17eb68	0.14835894
76	0xbeb30e56	-0.34971875
77	0x3ee1dcd3	0.44113788
78	0x3e5e43fa	0.21705619
79	0x3e33b110	0.17548013
80	0x3f71405e	0.9423884
81	0x3d44a6f1	0.04801077
82	0x3e14a5db	0.14516394
83	0xbe84b41c	-0.25918663
84	0xbd9dc7a0	-0.07704091
85	0x3e855af7	0.26045963
86	0xbeca78c2	-0.39545256
87	0xbdeec7b8	-0.11659187
88	0x3e777960	0.24167395
89	0x3e04a0ed	0.12952013
90	0x3e17799a	0.14792481
91	0xbd5dc142	-0.054139383
92	0x3daa6171	0.08319367
93	0x3e03831d	0.12842984
94	0x3f230c00	0.63690186
95	0x3e97468f	0.2954602
96	0xbea062ce	-0.31325382
97	0x3caef562	0.021357242
98	0xbed05b3a	-0.406946
99	0xbe3d5022	-0.184876
100	0xbdb7b78c	-0.08970556
101	0xbeafa4c3	-0.3430539
102	0x3cd3d3ea	0.025857884
103	0x3e0e185d	0.13876481
104	0xbe7923e3	-0.24330096
105	0x3ebfdf4c	0.3747505
106	0x3d81f6d5	0.063459076
107	0xbe1a788e	-0.1508505
108	0xbf2e0034	-0.6796906
109	0x3cde00ba	0.027099956
110	0x3eab4ba4	0.33456147
111	0xbccf15b4	-0.025278904
112	0xbf0dfa41	-0.5545998
113	0xbf02bc3c	-0.5106847
114	0x3c18cab6	0.009325674
115	0x3ec76b84	0.38949215
116	0x3e5248bf	0.20535563
117	0x3ead9fb0	0.33910894
118	0xbe1224e3	-0.14271884
119	0xbdf3380c	-0.118759245
120	0xbd1e0233	-0.038576316
121	0xbef00b52	-0.46883637
122	0xbe8a0157	-0.26954147
123	0x3e24b20a	0.16083542
124	0x3df7865a	0.120861724
125	0x3f1b9b5f	0.6078395
126	0xbe389e95	-0.18029244
127	0xbf3853f4	-0.720031
128	0xbe0ee5d0	-0.13954854
129	0xbf3351fb	-0.7004697
130	0x3da76017	0.081726246
131	0x3e64e28c	0.22352046
132	0x3e1c5dd9	0.15270175
133	0xbe2a4717	-0.16628681
134	0xbe073151	-0.13202406
135	0x3d27240e	0.04080587
136	0xbedfccf5	-0.43711057
137	0x3f6bd7e1	0.9212628
138	0xbd29bf2a	-0.041442074
139	0xbe2925c4	-0.16518313
140	0xbf4ba261	-0.79544646
141	0xbe09fedd	-0.13476129
142	0x3e5077d7	0.20358215
143	0xbed35edc	-0.4128331
144	0xbe98e978	-0.29865623
145	0x3cc5c984	0.024143942
146	0xbd13f974	-0.03612657
147	0x3ea76f8f	0.327023
148	0xbe2e3e6f	-0.17016004
149	0x3d4d40b1	0.050110523
150	0xbdeb54cb	-0.11490782
151	0xbf5d8d7e	-0.86544025
152	0xbe1d8837	-0.15383993
153	0xbe0b9570	-0.13631225
154	0x3f2faea9	0.68625885
155	0x3e03e9f4	0.12882215
156	0x3ebb02ef	0.36525676
157	0xbf0d54a1	-0.5520726
158	0x3ee4fe81	0.4472542
159	0x3d51f586	0.05125954
160	0xbeffa3e3	-0.49929723
161	0x3d3953f5	0.045246083
162	0xbdb60b81	-0.08888913
163	0xbe445649	-0.1917354
164	0x3c29ee1d	0.010371712
165	0xbec491e0	-0.38392544
166	0xbd0d57b5	-0.034507472
167	0xbf222dce	-0.6335114
168	0xbe283402	-0.1642609
169	0x3e9f9803	0.31170663
170	0x3d1282a8	0.035769135
171	0x3d1410be	0.03614878
172	0x3e7d8a7f	0.24759863
173	0x3e1f2e80	0.15545082
174	0x3d93adb0	0.07210863
175	0xbe9a174b	-0.30095896
176	0xbc982e95	-0.0185769
177	0x3d95116b	0.07278713
178	0xbdf70e02	-0.12063219
179	0x3ec58576	0.38578385
180	0x3d4bba7a	0.049738385
181	0x3e207901	0.1567116
182	0x3dad6f14	0.08468452
183	0xbc7e5fc6	-0.015525764
184	0x3cefc399	0.029268073
185	0xbdb3c573	-0.08777895
186	0x3e2dd6b5	0.16976435
187	0x3e2a2adc	0.16617912
188	0xbeac7cbf	-0.33688924
189	0xbe5c176b	-0.21493308
190	0x3e75bf56	0.2399877
191	0x3e16ec96	0.14738688
192	0xbde566a2	-0.11201216
193	0xbdfae453	-0.12250581
194	0xbbfb63f7	-0.007671829
195	0x3f37461b	0.7159135
196	0x3ea42e28	0.32066464
197	0xbc36398e	-0.011122121
198	0xbe54bc63	-0.20774989
199	0xbdd1b71e	-0.10240005
200	0xbe18bdc6	-0.14916143
201	0xbd8132f2	-0.06308545
202	0xbeb34871	-0.35016206
203	0x3e8d0703	0.27544412
204	0xbe88dc59	-0.26730612
205	0xbe93f222	-0.2889567
206	0x3e87e41f	0.2654123
207	0x3d0babea	0.034099497
208	0x3e71f917	0.23630176
209	0xbeb4ce61	-0.35313705
210	0xbf3e09e1	-0.74233824
211	0xbe22c254	-0.15894443
212	0xbecd4df2	-0.4009853
213	0x3ef72c4a	0.48275977
214	0xbf1d4a9f	-0.6144199
215	0x3e46fa66	0.19431457
216	0xbde2a068	-0.11065751
217	0xbe750e21	-0.23931171
218	0xbf05b192	-0.52224076
219	0x3ecf0e9c	0.40440834
220	0xbd6f7470	-0.058460653
221	0xbece8bea	-0.4034112
222	0x3dcd007c	0.10009858
223	0x3e8ac73a	0.27105123
224	0x3e9d32f6	0.30702943
225	0xbe92ac55	-0.28647104
226	0x3e4ca625	0.19985254
227	0xbec4cace	-0.38435978
228	0xbde810be	-0.11331318
229	0xbd21ca2f	-0.039499458
230	0xbec5cc60	-0.38632488
231	0xbea109ff	-0.3145294
232	0x3f45782d	0.771365
233	0x3d4599bf	0.048242327
234	0x3e8eba14	0.2787634
235	0xbd0d8e62	-0.034559615
236	0xbe13b81e	-0.14425704
237	0xbb18b514	-0.002330129
238	0xbdf1d629	-0.11808426
239	0x3eb3ba1c	0.35102928
240	0xbeb3a0be	-0.35083574
241	0xbdbd47ad	-0.09242187
242	0xbe42beed	-0.19018145
243	0xbe710d45	-0.23540218
244	0xbcb07857	-0.021541758
245	0xbd8c3e24	-0.0684779
246	0x3d84e010	0.06488049
247	0xbe094a00	-0.13407135
248	0x3e15039d	0.1455216
249	0xbeaba507	-0.33524343
250	0x3e9b0b49	0.30282047
251	0xbf2ad461	-0.66730314
252	0xbe0e77c8	-0.1391288
253	0x3f1369b8	0.5758319
254	0x3ddea3e3	0.10871103
255	0x3ed47ae8	0.4150002

model/feature_1_8_10/BiasAdd/ReadVariableOp:0 f4 [24]
0	0x3f833023	1.0249065
1	0x3ee10b29	0.43953827
2	0xbefc8a87	-0.49324438
3	0xbee40da6	-0.44541663
4	0x3f11637f	0.56792444
5	0xbed21060	-0.41028118
6	0x3eda2693	0.42607555
7	0x3fb50ec2	1.4145129
8	0x3de59c21	0.1121142
9	0x3fbba8a0	1.4660835
10	0x3e4db3b7	0.20088087
11	0x3eb7b9bf	0.358839
12	0x3e2ec8a5	0.17068727
13	0x3f4dbee5	0.80369407
14	0x3f1e1aae	0.6175946
15	0x3f985fd7	1.1904248
16	0x3f51425c	0.8174188
17	0x3f51fe92	0.8202907
18	0x3ef10b94	0.47079146
19	0x3e0cfcad	0.13768263
20	0x3e9c973b	0.3058413
21	0x3f61be6b	0.8818118
22	0xbeb875bb	-0.3602732
23	0x3f291c23	0.6605856
