Config/NeuralNets/PenaltyMarkPerceptor/penalty_model.onnx (onnx, 89102 bytes, 18 tensors)

sequential/dense_1/MatMul/ReadVariableOp:0 f4 [64, 2]
00000000: d651 b6be 6b22 b83e 343e 70be e264 593e
00000010: b814 1dbe c195 223e 56c2 10be 5525 103e
00000020: 202c bfbd bb0f da3d fd6c 163e 3322 12be
00000030: 191a c43d 3dfc c4bd 4503 15be 2f02 033e
00000040: c29a 5d3c f5ce e43c 2396 91be a342 8d3e
00000050: 32ba 3f3e ad06 41be 4c76 9a3e d71e 95be
00000060: 8656 6e3e fe86 6cbe 2b5a 213e 03a7 1bbe
00000070: 2b27 67bd 1ffa aa3d f2dc 2dbe 0259 423e
00000080: 3971 1e3e c60e 1bbe 9402 32be 5bee 2d3e
00000090: cd7b 193e 2037 1cbe 2d4b 7f3e 4c90 82be
000000a0: 9cdb a83d aadb a9bd 17af 62be 5b34 603e
000000b0: d2d3 45be 3212 2abe 27bc c0be f59b c43e
000000c0: 9201 0fbe 0d4f 133e 81c3 d0bd 54fa 24be
000000d0: 136e 4abe 886f 4f3e 56ae b1be 1371 bd3e
000000e0: e520 0c3c cd06 bdbd 5b0c d43d 3a43 b7bd
000000f0: f180 1b3e 001d 19be 9d7c 4cbd ab7f 95bd
00000100: 19c8 68be cc1a 6ebe 42b5 9f3b 17ed a7bc
00000110: fda2 88be ce64 8a3e cc10 c3be 20d9 c03e
00000120: a039 2bbd 33e6 3dbe 6618 1dbe 3fcb 8cbe
00000130: b7c9 03be 2872 003e b62f 81be 2f57 813e
00000140: 5a76 253e 76f0 1bbe fe4b 34bd d127 2a3e
00000150: ded4 523e d88b 5bbe dcbb 32be f8ed 333e
00000160: 4991 343c 85bb 55bc 8e75 253d 984e 4cbd
00000170: 6aea 3c3e ba16 3ebe cea7 8abe 9e96 8a3e
00000180: d4c6 99be 4e76 953e f4ef a73d 473c 03be
00000190: 57d1 48be 5262 523e eee3 f23d d61e e7bd
000001a0: 0fe6 e53c 9031 38be e41e 98bd 7e51 9c3d
000001b0: 392d b13d a390 9dbc 6e92 393e b944 32be
000001c0: 1d86 6b3e e283 873e 42c1 163e a788 1dbe
000001d0: cfe3 35be 9eaa 4a3e 4e73 53be 6ed4 563e
000001e0: 1f6b 76be ca03 6e3e ec83 0dbe 2ef4 143e
000001f0: 6d3f b4be f03f b53e 5e78 e5be 0995 e13e
-0.3560931 0.3596376 -0.23461229 0.2122989 -0.15339935 0.15877439 -0.14136633 0.14076741
-0.09334588 0.106475316 0.14690013 -0.14270858 0.0957529 -0.09618423 -0.14552028 0.12793802
0.013525667 0.027930716 -0.28434858 0.27589902 0.18723372 -0.18850203 0.30168378 -0.2912509
0.23275194 -0.2309837 0.15757053 -0.15200429 -0.056433838 0.08348488 -0.16978815 0.18979266
0.15472879 -0.15142354 -0.17383796 0.16985457 0.14988633 -0.15255404 0.24931021 -0.25500715
0.08245012 -0.08293851 -0.22137104 0.21894972 -0.19319084 -0.16608503 -0.3764355 0.38400236
-0.13965443 0.14385624 -0.101935394 -0.16111118 -0.19768552 0.2025739 -0.3470332 0.3700033
0.008552765 -0.09229813 0.10353919 -0.08948369 0.15185906 -0.14952469 -0.049923528 -0.07299741
-0.22732581 -0.2325241 0.0048739025 -0.020498795 -0.2668685 0.27030033 -0.38098752 0.37665653
-0.041803002 -0.18544845 -0.15341339 -0.27498814 -0.12869917 0.12543547 -0.25231713 0.25261828
0.16158429 -0.15228447 -0.044017784 0.16616751 0.20589015 -0.21440065 -0.17454475 0.17571247
0.011020967 -0.013045196 0.040395312 -0.04987964 0.18448797 -0.18563357 -0.2708115 0.27068037
-0.30034506 0.29191822 0.08200064 -0.12815963 -0.19611107 0.20545319 0.118598804 -0.11285178
0.028063802 -0.17987657 -0.07427767 0.07632731 0.08651204 -0.019234007 0.18122265 -0.17409028
0.23000379 0.26467806 0.1472216 -0.1538416 -0.17762683 0.19791648 -0.20649454 0.20979473
-0.24064301 0.23243633 -0.13819855 0.14546272 -0.3520464 0.35400343 -0.44818395 0.44059017

sequential/dense_1/BiasAdd/ReadVariableOp:0 f4 [2]
00000000: dc19 493f 9216 43bf
0.78555083 -0.76206315

sequential/dense/MatMul/ReadVariableOp:0 f4 [288, 64]
00000000: c100 ecbb 3c0d e33d cdc3 71be 45c6 e7bd
00000010: d61c a6be 76a6 893d 39eb c73d cb22 e9be
00000020: 45e5 d63c 3a45 f5be 817e 9ebd 7ca0 aa3d
00000030: efbe 083d c2e5 93bd 2c44 393c b56e 67be
00000040: d869 5bbb ac19 a5be d736 d03e 6b40 123f
00000050: c47c a1bc b487 7cbe 2cd8 f1bd 0f95 46be
00000060: edfd af3c 1eb0 413c a16c 963e cb71 273e
00000070: 5e7c 1c3d 25c1 87be b4ce 063e 0ae0 ddbd
00000080: 5d79 423d 3434 04be ab1d 94be 3330 743e
00000090: 3101 583d d0a4 2e3d 489e 01be 321d 9dbd
000000a0: 100b 2b3d 74d6 c8bd 3de0 813e 94e4 153d
000000b0: 34b8 2d3d bc37 4d3d b8c2 263e 735e 25be
000000c0: 0a90 093e 9526 e43d a79a 993d 12ed ecbb
000000d0: f2ee a53d 4be9 683c 88ed 24be 7641 1e3e
000000e0: 4966 49bd dd88 e83e f3f8 a6bd 60bc 303d
000000f0: f053 2fbe 2734 63bc fbc9 24be 9029 48be
00000100: ce6a 433e 0da3 f93d 8586 86bc a542 6b3d
00000110: ad91 f0be a864 d8bd ab59 b83e ee20 36be
00000120: 4a35 323e e586 93bd ef92 4f3d 1c7f a33e
00000130: 12cb 853e 9b17 7c3e a7cf ae3d ce6f 90be
00000140: ab45 34bd e06e 1ebf ac2d 873e 7b2a 77be
00000150: f1b9 dbbd 4bce 28be 3439 df3d 47e6 9dbe
00000160: 839e 7ebe 3de1 613d 0a6e a9be 306d 32be
00000170: cb82 3fbe 43ec 09bc e6a6 5e3e 9c69 febc
00000180: 2f31 9ebd 4537 83bc 668f 10bf 28bc 4fbd
00000190: 84c6 733e dc49 3c3d 4184 03bf 55d3 803d
000001a0: 376d 233c 0fe2 593e 459a 173e cef8 cabe
000001b0: c8db ebbd 24f7 163e 3906 793e c822 cebe
000001c0: 18b3 48be ff96 5a3d 0e07 ffbd 1629 7b3d
000001d0: cd98 78bc b770 7bbe 20f1 883d fd04 373e
000001e0: 294f 6f3c 54df 9b3e 6134 02bf 95bb 40be
000001f0: 1810 a2be 3543 27be 6f0e b13c 8e6a 2ebf
00000200: c542 8ebd cb4a b53d f210 553d 46ad 8f3e
00000210: 97ba a7bd aa66 a93b baaf 36be 9686 2ebd
00000220: 9e28 653e 550a 2abe 5c5d 373e 1ce7 513e
00000230: dac7 9e3e 534c 433e 1044 03be 66ca 5cbe
00000240: 1e64 e23e 2285 90be 2d5b e53e 5960 f03e
00000250: e986 e03b 03f3 ec3d 1ad1 26be bda2 b5be
00000260: 4945 a33d ef26 1cbe f739 11bf 8a25 0a3d
00000270: 0c44 53be 663e 76bd 2df1 0f3f 2139 523e
00000280: 91b8 08be b244 103e 9b72 66be 27d1 2bbd
00000290: 9a2a d23d 5c57 7d3c 780a 853e 75c7 6b3d
000002a0: 7537 2cbe d8b4 ab3c 1621 193e 3ee7 03bf
000002b0: c393 c73c aaf6 ac3e c5c0 b73e cd92 99bd
000002c0: 0a3a 47ba 094e bf3d 8554 123e 3198 373e
000002d0: cc51 a63d 6bbf b0bd 1d50 21bd c6d2 533e
000002e0: ac48 da3c 3f55 0fbd eee1 19be 3482 153e
000002f0: 79da b7be 9ea7 9e3d 9f5e aebe e4f5 f73d
00000300: 4e9a 4f3e 1c42 b7be b59a 9d3d c1f5 25be
00000310: ddc8 ffbb 9468 8fbd dcf1 953d 105c 91bd
00000320: 5e4f dabc c862 6dbe 0e01 f33d 6ea5 30be
00000330: e68f c43a 7148 33bd bb94 2cbe 9eb2 81bd
00000340: 80e6 06be db4a cf3c 5d33 89bd 8e56 c83d
00000350: eb5d 873e c33f dcbd a31d 40be 60e9 ee3d
00000360: 633b ce3d 3bf1 adbd 2a53 9b3e a990 91be
00000370: fcdc 633b 811d b6bc 7656 283e 02a2 57be
00000380: 7476 ddbd 10ba e0bc 9aab 70bc 04f3 cbbd
00000390: 64c5 e5bd 336b 0fbe 1e8f 563d 120c 6bbe
000003a0: 34c3 53be 23bc 5dbe 624e 093a 35ad 723d
000003b0: 65a8 2fbe d4d5 88be 1465 94bd b25d 393e
000003c0: d953 21bd 40c2 3dbd 9a81 e4bd e661 033b
000003d0: 4d5e 94be 503b 6e3d f74a 5abe acec d4bd
000003e0: 0d0c 133d 59a0 913e f702 79bc 6ed2 43be
000003f0: 5b9e 9cbd 2483 79bc 6511 293e 12a7 1f3e
-0.0072022383 0.11086509 -0.23609848 -0.11317114 -0.32443875 0.06721203 0.09761662 -0.45534357
0.026232371 -0.47904378 -0.077389725 0.08331391 0.033385213 -0.07221557 0.011307757 -0.22600825
-0.0033479836 -0.3224615 0.4066684 0.57129544 -0.019712813 -0.24661142 -0.1180881 -0.19392799
0.021483386 0.011821775 0.29379752 0.16352002 0.038204543 -0.26514545 0.13164788 -0.10833748
0.047479022 -0.12910539 -0.28928885 0.23846512 0.05273551 0.042637646 -0.12658036 -0.07671584
0.041758597 -0.09806529 0.25366393 0.036594942 0.042411998 0.05010198 0.16285217 -0.16149311
0.13433853 0.111401714 0.07500201 -0.0072304094 0.08102216 0.014215778 -0.16106236 0.15454659
-0.049169812 0.45416918 -0.08152952 0.0431484 -0.17121863 -0.013867415 -0.16092674 -0.19547105
0.19083712 0.121893026 -0.016421566 0.057436604 -0.46986142 -0.10566074 0.3600591 -0.17785999
0.1740314 -0.072034635 0.050677236 0.31932914 0.26131493 0.2461838 0.085357 -0.282103
-0.044011753 -0.6188793 0.26402032 -0.24137299 -0.10728825 -0.16484945 0.108995825 -0.3083975
-0.24865155 0.055146445 -0.33091766 -0.17424464 -0.18702237 -0.008418146 0.21743354 -0.031056218
-0.07724225 -0.016017566 -0.5646881 -0.05071655 0.23806196 0.045968875 -0.5137368 0.062903084
0.009974769 0.21277641 0.14804943 -0.39642948 -0.11516529 0.14742714 0.2431878 -0.4026091
-0.19599569 0.053366657 -0.124525174 0.06131848 -0.015173149 -0.24554716 0.06686616 0.17872997
0.014606276 0.30443823 -0.50861174 -0.18821557 -0.31652904 -0.16334231 0.021613328 -0.6813134
-0.06946329 0.08852156 0.052018113 0.28061885 -0.08189886 0.005169709 -0.17840472 -0.04260882
0.22378775 -0.16605504 0.17906708 0.20498317 0.3101185 0.19072084 -0.12818933 -0.21561584
0.44217008 -0.28226572 0.44796124 0.46948507 0.00685202 0.11569788 -0.16290703 -0.35475722
0.079721995 -0.15249227 -0.5672907 0.033727206 -0.20631427 -0.0601181 0.5622738 0.20529605
-0.13351656 0.14088705 -0.22504656 -0.04194751 0.10262032 0.015462723 0.2598455 0.057563264
-0.1681803 0.020960256 0.14954028 -0.5152472 0.02436245 0.3378194 0.3588926 -0.07498703
-0.0007599896 0.09341056 0.14290054 0.1792915 0.0812107 -0.0863026 -0.039383043 0.20685872
0.02664598 -0.034993406 -0.15027592 0.1460045 -0.3590887 0.07746814 -0.34056565 0.12107447
0.20273706 -0.35792625 0.07695524 -0.16207029 -0.007805927 -0.070023686 0.07321522 -0.07097638
-0.026649173 -0.23182213 0.118654355 -0.17250606 0.0014996498 -0.043770257 -0.16853611 -0.06332897
-0.13173866 0.025304249 -0.0669925 0.09782134 0.2643884 -0.10754349 -0.18761306 0.116656065
0.10069921 -0.08493277 0.30336887 -0.2843068 0.0034769168 -0.022230865 0.16439232 -0.21057895
-0.10813609 -0.027432472 -0.0146893505 -0.09958461 -0.1121929 -0.14005737 0.05238258 -0.22953823
-0.20679933 -0.216538 0.0005237815 0.059247214 -0.17154081 -0.26725638 -0.072458416 0.18102148
-0.039386604 -0.04632783 -0.11157532 0.0020047366 -0.28978196 0.058162034 -0.2131766 -0.10396704
0.035900164 0.28442648 -0.015198461 -0.19123241 -0.076473914 -0.01522902 0.16510542 0.15591076

sequential/dense/BiasAdd/ReadVariableOp:0 f4 [64]
00000000: 0f98 6dbd 9af0 c8bd 4c49 84bd 1346 07be
00000010: 9bf5 5ebe 2998 a2bd 2683 1abe 6a38 39be
00000020: 9638 d33d 3cce 28be 6db0 603e dbb8 d03e
00000030: 229a d23e 43d7 063f fe29 f6bd aa81 8ebe
00000040: 5c93 013f 2e61 2bbe b81c b33e a515 983e
00000050: d036 193e 3f9d c9bc a2de b2bd b17a 9cbd
00000060: 68d1 27be 8606 adbd a4bd 96be 6798 41bd
00000070: e6f7 1dbe 0cd0 843c 5e03 2f3f 4dd8 2ebe
00000080: 7799 34bd c873 493e abee 2bbe 3840 9abb
00000090: f295 ddbd a1ae acbd 6720 33be 637e b6ba
000000a0: 28d9 7cbd fb9e 8b3d 88be 063f 2707 1fbe
000000b0: 27e9 6bbc be78 5a3e 7f38 0a3f f042 a8be
000000c0: 7c7e b8bd d558 8cbb d0f2 b7bc e83b 2e3d
000000d0: 62fc ffbd 92fc 61be 934f 00be 1f39 143e
000000e0: d5f2 92bd 6602 813e 1a8f 78bd 3d54 5fbe
000000f0: e2cc 2abe 2f4c 1b3e 4a3f 06be 0c2b 19be
-0.058006343 -0.09811516 -0.06459293 -0.13210325 -0.21773379 -0.079391785 -0.15089092 -0.18087927
0.10313527 -0.16484922 0.21942301 0.40766034 0.4113322 0.52672213 -0.12019728 -0.278333
0.5061548 -0.1673629 0.34982848 0.29704013 0.14962316 -0.024611114 -0.0873387 -0.07640589
-0.16388476 -0.0844851 -0.2944156 -0.047264483 -0.15426597 0.016212486 0.6836451 -0.170747
-0.044091668 0.19673073 -0.16790263 -0.0047073625 -0.108196154 -0.08431745 -0.1749283 -0.0013923164
-0.061730534 0.068174325 0.5263448 -0.15530072 -0.01439885 0.21335122 0.53992456 -0.3286357
-0.090085 -0.0042830505 -0.02245465 0.0425376 -0.1249931 -0.22069004 -0.12530355 0.14474915
-0.07175223 0.25197142 -0.060683347 -0.21809478 -0.16679719 0.1516578 -0.1311008 -0.14957827

sequential/conv2d_2/Conv2D/ReadVariableOp:0 f4 [8, 16, 3, 3]
00000000: e776 e6bd cb77 413e cb38 fb3d 8b62 c7bc
00000010: 46a8 6f3d 06b9 26be e22d 49bd f536 7d3c
00000020: 337a bb3d 60eb d53d 4321 443e 9957 73be
00000030: 2b39 a93d 0dbe 6f3d f35e babe 2e21 f63d
00000040: 0327 0ebd 6fd1 90bd 79e3 2d3d 42ab a7bd
00000050: 1ec2 44be a426 91be 16e9 733d 0862 32be
00000060: 0a8f 5cbd d062 95bd 4c7e 3dbd 95ce a5be
00000070: af15 1d3e c537 573e ca37 b8be 9d3c 1b3d
00000080: 9900 cb3d 4a75 acbe 0256 c1bd ffda 2a3d
00000090: a24c c0bb e3f1 6fbe df4d e5be 076d 3f3d
000000a0: 107f f7bc a3d9 8bbe ea05 ccbd 0017 b0bd
000000b0: 03e1 35be 2bd3 553d 0620 3a3e 4bbf b83c
000000c0: 2c0e 16be 5836 d8bc 1ea0 0a3c 6ce3 96bd
000000d0: 5b89 57bd c5f9 9e3d 9554 a43d 0c47 743d
000000e0: 2902 bf3e fe0a 2f3e 0ba7 fabb ef1c c73e
000000f0: 2397 033e 5fc8 513e 0188 3e3d 0902 2b3e
00000100: d368 003e 24c5 bd3d f73a d0bd da61 5c3c
00000110: 6b5c 623e 4170 0fbe 12d8 0fbd b3c8 233e
00000120: df89 6a3c 0153 30bb 826e 53bd 5463 1d3e
00000130: 7bf2 d8bd 41c4 9cbd 3348 993c de1c 5e3e
00000140: 07e9 8fbd c915 c13d 8faf c03d 2fb5 543e
00000150: ec6b 083e d8e4 b73d 900b ac3e 16e0 aa3d
00000160: 06a6 243d e5c8 d83d 2806 02be 8e48 fb3c
00000170: e418 823e 5a84 16be d47f 863d 588d de3e
00000180: 2a87 57be 9209 8ebd fd13 4c3e 2eeb 04be
00000190: 2aaf 71be 912a c6bd d985 c23e 84d9 a63d
000001a0: ac05 59be 9e5f 0c3e 0d01 853d 641d 5dbd
000001b0: f715 03be 7c74 8d3d 8845 b33e 3c63 8cbe
000001c0: 139e 9fbd a087 ac3e 780e f5be 6a2e 69be
000001d0: dd84 e33d 07d4 03be 9546 0fbe 1fc4 853d
000001e0: e473 67be a6ee 88bb 8854 76be 6679 c73b
000001f0: dcc4 563d 6e36 9abe dfa1 d9be 7e5e 5cbc
00000200: 7a00 823e 0bb4 21be 7e4c 993d 2e8f 393e
00000210: 4475 8dbe 359a 7bbc ca48 8a3e c888 a53d
00000220: 5d3f 57be 39f6 a2be 9d4d 893e dfdd ce3c
00000230: 0b8a c7be 3a55 093f e30e bd3d 0bad 10be
00000240: 3de1 44bd 16d5 7bbe c147 7fbe 1a7e 143e
00000250: b64c 8bbe 69b4 533c 6d8d 993d 139a 37bc
00000260: 1e42 713e 1302 8abe 17e8 cabd 569e e3be
00000270: 939c 313d 810e 8cbe 3d6e a13d 191b 083e
00000280: e8e6 793d 9714 833e 8679 b93d 96fb c7be
00000290: 91e8 00bf e022 14be c953 9dbe 39d4 1dbf
000002a0: 58ee 04be 3065 6a3d ecff 83be f53d 523e
000002b0: be3c d83d 9860 3ebd 6c32 89bd 45ed 4dbc
000002c0: 606f 02be cbe0 39be d8e8 25be cd82 7dbe
000002d0: 78fb dfbe b7c9 93be be7d 96be 44b7 04be
000002e0: 2403 75be 2e30 7bbe 3dbf 94be 7c7e 36be
000002f0: e713 7e3d f5d5 14bf 6bfc b2be 6b60 a5be
00000300: 5d92 ecbd 0c09 e2bd a85a 1dbd 9831 ca3e
00000310: 7bf0 e8bc b32f 4e3e 9776 bd3d 12f2 0b3e
00000320: de47 c93e 8408 afbd 417a 8ebd 624d 893d
00000330: fb21 69bd ed7f 33be b7e3 79be d001 06be
00000340: 77b1 24be 0a2c bebe 640b 9c3e 7c25 4b3d
00000350: 4175 a5bd 7d2f 983e 6931 003e 9be4 013f
00000360: 4a05 ffbd f38a 18bd 40d5 42be a8fc a73e
00000370: 6ac0 333e f721 2fbe 260a 043f 66a5 e83d
00000380: 7b07 bc3e 5363 83be 28bb d7bd 3158 6bbd
00000390: 07c0 dc3d f207 c6bc 216b 6dbe 7491 0b3f
000003a0: cf1f 033d d155 2abe 7fba 21be 71c3 ba3d
000003b0: 63da 203e 8b45 a23e 5afd 323e 4b9d 723e
000003c0: a74d 983e 2e13 9c3d 415e dabd 593a 78bd
000003d0: 39f4 5c3e bba3 50bd 9bad cebe 601f 88be
000003e0: 714c 81be 64fe 02bf bcb7 9dbe c251 02be
000003f0: f407 fcbc 373a 0dbe 5a1a 0bbe f1d3 8b3e
-0.112531476 0.18893354 0.12266692 -0.024338981 0.058510087 -0.16281518 -0.049116023 0.015454997
0.09154167 0.10445285 0.19153313 -0.23763885 0.08262857 0.058530856 -0.36400566 0.12018047
-0.034705173 -0.07071196 0.042453263 -0.08186962 -0.19214675 -0.28349793 0.05954846 -0.17420208
-0.05384735 -0.072942376 -0.046263024 -0.32384172 0.15340303 0.21017368 -0.35980064 0.037899602
0.09912223 -0.33683234 -0.09440233 0.041712757 -0.0058685103 -0.23432116 -0.44785973 0.046734836
-0.030211955 -0.2731448 -0.099620655 -0.08598137 -0.17761616 0.05220334 0.18176278 0.022552153
-0.14653844 -0.0263931 0.0084610265 -0.07367596 -0.052621227 0.077624835 0.08023945 0.059638068
0.37306336 0.17094037 -0.0076493076 0.38889262 0.12850623 0.20486592 0.046516422 0.16699995
0.12539987 0.09266117 -0.10167497 0.013451064 0.22105567 -0.14007665 -0.03511817 0.1599453
0.014315098 -0.0026904943 -0.05161906 0.15369922 -0.105931245 -0.0765462 0.018711185 0.216907
-0.07026868 0.09427983 0.09408485 0.20772241 0.13322419 0.08979195 0.3360257 0.08343522
0.040197395 0.105851926 -0.12697661 0.030674245 0.25409615 -0.14698926 0.0656735 0.43467212
-0.21047655 -0.06935419 0.199295 -0.12980339 -0.23601976 -0.09676088 0.37992743 0.081469566
-0.2119357 0.1370835 0.06494341 -0.053983107 -0.12801348 0.06906983 0.35013986 -0.2741946
-0.07793822 0.33697224 -0.478626 -0.22771612 0.11109326 -0.12873851 -0.13991769 0.06531548
-0.22602803 -0.0041788397 -0.24055684 0.00608747 0.052433833 -0.30119652 -0.4250631 -0.013450263
0.2539099 -0.15791337 0.07485293 0.18121025 -0.2762853 -0.01535659 0.2700866 0.080827296
-0.21020265 -0.31828478 0.26817027 0.02525228 -0.38972506 0.5364567 0.09231355 -0.1412851
-0.048066366 -0.24593005 -0.24929716 0.14501229 -0.27206963 0.012921431 0.07497678 -0.011206168
0.23560378 -0.26954708 -0.09907549 -0.44456738 0.04336221 -0.27354816 0.078823544 0.13291587
0.061011225 0.25601646 0.09056382 -0.39059132 -0.5035487 -0.14466429 -0.30727986 -0.6165195
-0.12981546 0.057225406 -0.2578119 0.20531447 0.10558461 -0.046478838 -0.0669907 -0.0125687765
-0.12737799 -0.18152158 -0.16202104 -0.24756928 -0.43746543 -0.28864834 -0.2939281 -0.12960535
-0.2392698 -0.24530098 -0.29052153 -0.17821687 0.0620307 -0.5813897 -0.34958205 -0.32300124
-0.11551354 -0.11036882 -0.038416535 0.39490962 -0.028434983 0.20135383 0.09251135 0.13666561
0.39312643 -0.08546546 -0.06956912 0.06704213 -0.056917172 -0.17529269 -0.24403273 -0.13086629
-0.16083322 -0.37142974 0.3047744 0.049596295 -0.08079005 0.2972373 0.12518848 0.5073945
-0.12452181 -0.037241887 -0.19026661 0.3280995 0.17553869 -0.171028 0.51577985 0.11359672
0.36724457 -0.25661716 -0.10533744 -0.057457153 0.10778814 -0.02417371 -0.23185398 0.5451882
0.032012757 -0.16634299 -0.15793799 0.09119309 0.15708308 0.31693682 0.17479458 0.23692815
0.29746744 0.07620846 -0.10662509 -0.06060252 0.21577539 -0.050937396 -0.40366825 -0.26586437
-0.25253633 -0.5116942 -0.3080424 -0.127265 -0.030765511 -0.13791738 -0.13584271 0.27310136

sequential/conv2d_2/BiasAdd/ReadVariableOp:0 f4 [8]
00000000: 2925 2ebe 1593 fbbe d9d8 87be f489 c0be
00000010: 45d8 33be 4786 aebe c72e bbbe 6f17 1cbe
-0.17006363 -0.49135652 -0.2653263 -0.3760525 -0.17562969 -0.3408682 -0.36559126 -0.15243314

sequential/conv2d_1/Conv2D/ReadVariableOp:0 f4 [16, 8, 3, 3]
00000000: c6e2 f03c 7487 19be 83f0 92bd 30cd b4be
00000010: fc9f 77be 6b12 31be 2362 4abe c960 273e
00000020: 7a3f e73e e422 213d 8032 4f3e 77aa 863b
00000030: daf9 1abd cd5d eebd 225e 1d3d b2a4 5ebe
00000040: 6a7f 5abe 3a7a b43d dab9 10be cd28 0ebe
00000050: 71c5 38be 688e bf3d 5ab3 33be a495 64be
00000060: cf60 2ebc 5e27 a43e 74aa 4f3e fc77 89be
00000070: 4f4c b2bd 057d cbbe 0598 d0bd ba85 34bd
00000080: ff2f b0be e9aa c2bd d377 e5be 9de5 08be
00000090: b205 8abd 631e 1fbd 3133 ce3e 1026 bd3d
000000a0: a4db a13e 7969 af3e c3f6 72bd 5516 86bd
000000b0: b9be 1cbe bfb6 3ebd c055 84be bc0a a1be
000000c0: 8a5a 80bd 7b3e e6bd ec1b 9abe 951d 95be
000000d0: c625 52be e5f3 ae3d d466 e63c 4ed8 70be
000000e0: e25a 14be 6033 54be 3fc5 2ebe 674d 2bbd
000000f0: 8499 e23e 4e24 e63e 5f26 df3e 56e6 fabd
00000100: f4b8 9bbd 4c5d f4bc 43ca 893d a898 2a3e
00000110: 9eeb b53e f2fa 7f3c e76c 5c3e 3feb 4f3d
00000120: 66b4 bdbd 94b6 9c3d 0d1a f3bd 2da8 53be
00000130: d404 613d 25f1 c73d 4612 a93a 4dbe d13e
00000140: efad 5b3e c762 04be 5b51 fc3d 7fd3 21be
00000150: d828 313e c95d 913e 97ea b93d c2b0 683d
00000160: cac9 393e 3ecf 233e c0ce 1cbe c99b 5bbe
00000170: 70d9 7cbd 5e5d b1be 3ed1 cebe 0bc4 9ebe
00000180: b5b7 afbe 2043 ffbe 8bc1 3abe b953 37be
00000190: 6b72 c3be 3549 96be b6eb 96be 4a8e 60bc
000001a0: 6af9 e5bd d4e9 c9be 362f 1cbe 2efb b03d
000001b0: aafe e4be a3f3 cabe dd3a 92be 59d7 a43e
000001c0: 60b2 003e 12df 19be e42a 073e 1e18 333e
000001d0: 2b73 963c 43eb fa3d 25ce f63d fa4a 3ebd
000001e0: dd56 30be 924c 2e3e d680 95be 72b0 a83d
000001f0: 6769 5abd f1ab 96be 8ef9 04bc bd9e f33c
00000200: 72ab 833c 3849 bebe c603 e8bd 8edb b93e
00000210: dc4e 413d 78e7 1d3e 160f 9a3e d469 90bd
00000220: 410e 0dbe a59d 83be 166c afbb fc4d 9bbb
00000230: 94b3 99be e4a4 9d3d 75ed 20be f2bb b8be
00000240: 975c e73e 1470 9a3e 5cb2 b43e 0787 5f3d
00000250: b986 bbbd e594 b43e 9314 e0bd 5cab 38be
00000260: f5d1 5e3e 1dd4 1f3e 0cc4 ec3d 2fad 6c3e
00000270: 277b 5e3e f17e 073e 9438 9f3e 8b36 953d
00000280: c844 f13c 3da3 f23c e81d 443e 3efa 1abe
00000290: e32e 64be 043d 7a3e 9776 e6bc 478a c2be
000002a0: 05eb d2bc 0b44 423e 3731 85bc 2780 cebe
000002b0: bb74 a2be b4ec 2fbf c8f0 39bf 6cac 46bf
000002c0: 5d64 d0be 6ccc 20bf 216f cdbe 9b8e b2be
000002d0: 5862 7cbe 2636 41be 6411 cb3c 45ae 5fbe
000002e0: b2a6 f7bc 3276 febb 396b 51be 1862 1abe
000002f0: e6e5 4dbe c92d 68bd 0e36 be3d dca0 22be
00000300: 3094 043e c9ac 803d b9be 09bd 290a a13d
00000310: b40d fabd 395c b6bd da6f 9f3e a6c2 33bd
00000320: 822d cb3c 9f64 8b3e 15e8 463e 39e7 bbbb
00000330: defe cc3d b0d4 473e 3422 ab3d 561a f43c
00000340: 6229 07be de7e b4bd c94d 9e3c 54da e2bd
00000350: 5592 973c 74a7 03be d1c7 33be a23e 8ebe
00000360: 5ada 02bf b763 53be d677 933e 0d4e 64be
00000370: 9cb0 22bd ef6a 243e 7e80 8b3e 5551 6e3d
00000380: 9337 903d a315 6bbe a2f5 93bd 6aac 633e
00000390: 28a5 85bd 01f1 863e 2b4f ff3d 8fe3 be3c
000003a0: 4f18 843e a97b 953e 74ad 883e 92fb 7f3e
000003b0: 6e5f de3d d2af 09bd 4364 d1bd 0089 c7bb
000003c0: 0a95 9bbe e3e1 b3be 78d2 03be 2368 943d
000003d0: 0bc6 b13e 76fc 373e c1c1 2e3e 4872 d93d
000003e0: 8c4a c43d 8916 fe3d 2d05 2b3e 31e9 013e
000003f0: 7ed4 11bc 3773 2dbe a4ed c1be 02b8 773e
0.029405009 -0.14993078 -0.0717478 -0.35312796 -0.24182123 -0.17292182 -0.19763999 0.16345514
0.45165616 0.039339915 0.20234108 0.0041096765 -0.037835933 -0.11638985 0.03841985 -0.21742514
-0.21337667 0.08812375 -0.14133397 -0.13882752 -0.18044068 0.09353334 -0.17548886 -0.22322708
-0.010643198 0.32061285 0.20279866 -0.26849353 -0.08705961 -0.3974382 -0.101852454 -0.044072844
-0.34411618 -0.09505255 -0.4481798 -0.1336884 -0.067393675 -0.03884734 0.4027343 0.092357755
0.31612885 0.34260157 -0.05931736 -0.06547228 -0.1530713 -0.046561 -0.25846672 -0.31453502
-0.06267269 -0.11242386 -0.30099428 -0.29124132 -0.20522222 0.08542613 0.028125204 -0.23520014
-0.14487794 -0.20722723 -0.17067431 -0.041821864 0.44257748 0.44949573 0.43583962 -0.12250964
-0.076036364 -0.029829644 0.067280315 0.16659796 0.35531324 0.015623795 0.21525918 0.050761458
-0.09262924 0.076520115 -0.11870203 -0.20669623 0.054936245 0.097627915 0.0012899123 0.409655
0.21453069 -0.12928306 0.12320205 -0.15803336 0.17300737 0.28391865 0.090779476 0.056809194
0.18143383 0.15997025 -0.15313244 -0.21446146 -0.061730802 -0.34641546 -0.40394014 -0.31008944
-0.34319845 -0.498559 -0.18237893 -0.17903031 -0.3817323 -0.29352728 -0.29476708 -0.013705799
-0.112292126 -0.3943621 -0.15252385 0.08641659 -0.44725543 -0.39639005 -0.28560534 0.32195547
0.12568045 -0.15026501 0.13199955 0.17489669 0.018365463 0.12251904 0.12051038 -0.046458222
-0.17220636 0.17021397 -0.29199857 0.08236779 -0.053323176 -0.29428056 -0.008116139 0.029738778
0.016072962 -0.37165236 -0.11328845 0.3630032 0.047194347 0.1542033 0.30089635 -0.07051435
-0.13774969 -0.2570621 -0.005353461 -0.004739521 -0.3001982 0.07697466 -0.15715583 -0.3608089
0.45187828 0.30163634 0.35292327 0.05457213 -0.09156556 0.35269848 -0.10941424 -0.18034118
0.2175978 0.15608259 0.115608305 0.2311294 0.21726666 0.13232018 0.31097853 0.07285794
0.029451743 0.029618854 0.19152033 -0.15134522 -0.22283511 0.24437338 -0.02813272 -0.37996122
-0.025746832 0.18971269 -0.016258819 -0.40332147 -0.31729683 -0.68720555 -0.7263303 -0.77606845
-0.4070157 -0.62811923 -0.40123847 -0.34874424 -0.2464689 -0.18868312 0.024788566 -0.21843822
-0.030230854 -0.007765555 -0.20451058 -0.15076482 -0.2010723 -0.05668429 0.09287654 -0.15881675
0.12947154 0.06282956 -0.033629153 0.07863266 -0.12209645 -0.08904309 0.31140023 -0.043886803
0.024801973 0.27225205 0.1942447 -0.005734351 0.100095496 0.19514728 0.08356133 0.029797714
-0.1319938 -0.088132605 0.0193242 -0.11076799 0.018502394 -0.12856847 -0.17556693 -0.2778216
-0.5111443 -0.20643507 0.28802365 -0.22295399 -0.03971921 0.16056417 0.2724647 0.058183033
0.0704185 -0.22957473 -0.07224585 0.2223374 -0.06525642 0.26355746 0.12466272 0.023301868
0.25799796 0.29195908 0.26694834 0.2499831 0.108580455 -0.03361494 -0.102242015 -0.0060893297
-0.30387145 -0.35133275 -0.12873256 0.07246425 0.34721407 0.179674 0.17066099 0.106175005
0.09584531 0.12406642 0.16701193 0.12686612 -0.00890076 -0.16938482 -0.37876618 0.24191287

sequential/conv2d_1/BiasAdd/ReadVariableOp:0 f4 [16]
00000000: c76d c0be a3df 25be ed90 18bf e843 7c3e
00000010: 9a0c efbe 2524 40be f39d 063e 2ee4 17be
00000020: 066a fbbe cfda 593e 2384 3cbe ee52 e5bd
00000030: 995f 1b3d 025c a5be b80b 95be ccbd 95bd
-0.37583753 -0.16198592 -0.5959614 0.24635279 -0.46689302 -0.18763788 0.1314619 -0.14833137
-0.49104327 0.21274875 -0.18409781 -0.11197458 0.037932966 -0.3229676 -0.29110503 -0.073115915

sequential/conv2d/Conv2D/ReadVariableOp:0 f4 [8, 1, 3, 3]
00000000: a364 893e 885c 1abc a9b1 0fbe b0c0 8e3e
00000010: b8c8 a83e d25a a9be 0c55 813d ee1c 56bd
00000020: 401b 1bbe 4041 2c3e 34cd 363e c86d 27be
00000030: f1a4 8e3e c98d 1abe 0ed1 9cbe d12a c93e
00000040: 1896 89bd d11a 81bd 3780 563e 5814 f13d
00000050: 24da aa3e fb2a 90bd daa1 9fbe 9846 a83e
00000060: 9a3c e2be 4ad6 a1be 1624 a73e 251e c0be
00000070: 63f3 d7bd 2e5f 62be 5985 8abd c0f4 b6be
00000080: be95 03bd 425b 77bd ac2b 363a 0c25 fe3d
00000090: 1c46 34be 22ef 973d 8a50 0bbe 74b6 01be
000000a0: 54a0 31be 7090 33be f730 9a3e 14ed ed3e
000000b0: a1b9 343e d295 ac3e 8f6f c33e 8549 dbbc
000000c0: 5679 fabd 1af9 5ebd e62c bfbd 162c ccbe
000000d0: 1f48 ef3d 9108 a5be 041a 0d3e 26fa d2bd
000000e0: 189a 833e 0683 823e 0492 413b 6dff fc3d
000000f0: a56c 6e3e 4576 a1be 5a5d febe 73d6 5ebe
00000100: d44e e9bd 199d 9a3d 5f5e 9cbe d2fb 36be
00000110: 4259 033f 8e43 db3d 8669 b13e 18bd fd3e
0.26834592 -0.009421475 -0.14032616 0.27881384 0.32965636 -0.33077103 0.063150495 -0.052273683
-0.15147114 0.16821766 0.17851716 -0.16350472 0.27860215 -0.15093149 -0.30628246 0.3929048
-0.06718081 -0.06303943 0.20947348 0.117714584 0.33369553 -0.07039448 -0.3117817 0.3286636
-0.4418686 -0.31608802 0.3264472 -0.37522998 -0.10544469 -0.2210662 -0.06763715 -0.35733604
-0.032125227 -0.060389765 0.00069492566 0.1240941 -0.1760487 0.07418658 -0.13604942 -0.12667257
-0.17346317 -0.17535567 0.30115482 0.4646994 0.17648937 0.33708054 0.3817105 -0.026768455
-0.12230174 -0.05443678 -0.093347356 -0.39877385 0.11683678 -0.32233098 0.13779455 -0.10301618
0.25703502 0.25490588 0.0029536495 0.12353406 0.23283632 -0.31535545 -0.49680597 -0.21761493
-0.113919884 0.07549495 -0.3054075 -0.178695 0.5130807 0.107062444 0.3465082 0.4955833

sequential/conv2d/BiasAdd/ReadVariableOp:0 f4 [8]
00000000: 740a 3d3f f0d2 233e 848b 013f ca1f 493e
00000010: 11b9 a03e aac3 72bd 4bed 273f ee2a 453d
0.73844075 0.15998435 0.5060351 0.19641033 0.31391194 -0.05926863 0.65596455 0.048136644

sequential/batch_normalization_1/ReadVariableOp_1:0 f4 [16]
00000000: bef8 8d3e 0f9a 5e3e 12bb a23e c57e 843e
00000010: 0b97 ac3e 51cd b23e fc73 013e f642 adbd
00000020: cd59 a1bc 050b 3b3d dfe0 7fbe 4089 1d3e
00000030: 8950 293e 4b38 a3bd 2d95 8e3d 77f3 95bd
0.27728838 0.21738456 0.31783348 0.25877967 0.33708987 0.3492227 0.12641901 -0.084600374
-0.01969614 0.045664806 -0.24988125 0.15384388 0.16534628 -0.079697214 0.06962047 -0.07321828

sequential/batch_normalization_1/ReadVariableOp:0 f4 [16]
00000000: 4f18 923f 8dde 363f 8b65 603f 8270 2c3f
00000010: d3b6 353f 5529 5e3f c083 8a3f b548 633f
00000020: 0e26 383f 6686 603f 771c 333f 244d 173f
00000030: 2922 2a3f c4aa 803f cd8e 013f 19cc 823f
1.1413668 0.71433336 0.8765494 0.67359173 0.7098209 0.8678182 1.0821457 0.8878282
0.71933067 0.87705076 0.6996531 0.5910208 0.66458374 1.0052114 0.5060852 1.0218536

sequential/batch_normalization_1/FusedBatchNormV3/ReadVariableOp_1:0 f4 [16]
00000000: f1db 2d40 f289 4540 86a4 1440 e171 8d40
00000010: 156d a640 6de8 d840 d811 0041 0a98 c440
00000020: 15e6 9e3f c799 c240 e339 0841 b507 ca3f
00000030: 4a42 2a40 2718 6e40 0f1c 9d40 f066 3140
2.7165492 3.0865445 2.3225417 4.420151 5.2008157 6.7783723 8.004356 6.1435595
1.2413965 6.0812716 8.5141325 1.5783602 2.660296 3.7202241 4.909675 2.7719078

sequential/batch_normalization_1/FusedBatchNormV3/ReadVariableOp:0 f4 [16]
00000000: 3090 403f a7ec 3c3f bd83 cf3e daea e23f
00000010: fb81 1b3f b22d ce3f 0939 3e40 aabc 973f
00000020: c312 9b3e d4e2 3240 0885 c83f 7d1f 103f
00000030: fccd 663f 6bde 4e3f 67ef 793f 85a4 1a3f
0.7522001 0.737986 0.40530196 1.7727921 0.6074521 1.6107695 2.9722311 1.1854451
0.30287752 2.7950945 1.5665598 0.5629805 0.9015806 0.8080813 0.97630924 0.60407287

sequential/batch_normalization/ReadVariableOp_1:0 f4 [8]
00000000: 4e7b c1be 0375 d5be 18c1 273e 7324 e13e
00000010: 2c29 143e abea 4f3e 544f 86be f2c8 c5bd
-0.37789387 -0.41690835 0.16382253 0.4397312 0.14468831 0.20304362 -0.26232398 -0.09657468

sequential/batch_normalization/ReadVariableOp:0 f4 [8]
00000000: 4dcd 7e3f 82dd 593f 5fcd 993f a0fa 413f
00000010: 88e8 173f 77d1 513f d673 993f b856 7d3f
0.99532014 0.8510362 1.2015799 0.7577305 0.5933919 0.81960243 1.1988475 0.9896045

sequential/batch_normalization/FusedBatchNormV3/ReadVariableOp_1:0 f4 [8]
00000000: eab1 8643 903c 7b43 d3e2 a643 0348 8137
00000010: 6370 9643 62b1 1942 2727 1743 34bc d344
269.38995 251.23657 333.77206 1.5411531e-05 300.87802 38.423225 151.15294 1693.8813

sequential/batch_normalization/FusedBatchNormV3/ReadVariableOp:0 f4 [8]
00000000: 88fc 0442 4fea fc41 4bd6 d041 7483 4937
00000010: 550b de41 7cfb 843f 389e 6241 2dcb c142
33.246613 31.614408 26.104635 1.201114e-05 27.755533 1.0389247 14.163628 96.89683
